data/processed/ml_engine/model.pt (torch, 650039 bytes, 7 tensors)

embedding.weight f4 [2000, 64]
0.0 0.0 0.0 0.0 0.0 0.0 0.0 0.0
0.0 0.0 0.0 0.0 0.0 0.0 0.0 0.0
0.0 0.0 0.0 0.0 0.0 0.0 0.0 0.0
0.0 0.0 0.0 0.0 0.0 0.0 0.0 0.0
0.0 0.0 0.0 0.0 0.0 0.0 0.0 0.0
0.0 0.0 0.0 0.0 0.0 0.0 0.0 0.0
0.0 0.0 0.0 0.0 0.0 0.0 0.0 0.0
0.0 0.0 0.0 0.0 0.0 0.0 0.0 0.0
-1.1167872 0.81151146 -0.19837882 -0.94700736 0.37335828 0.8342872 0.14166439 -1.1033357
-0.28026256 0.6641283 0.7538255 -0.48441693 0.39977226 -0.82715887 2.2466443 -1.5494975
0.5620986 0.53453034 1.9088335 -0.6962612 1.9977714 -0.861917 0.43127885 0.025919354
-0.3183841 -1.2584282 1.3787655 -0.5219744 -0.86673045 0.7940437 0.46295118 0.11055574
0.2541549 -1.9403967 0.5647874 0.88107055 0.063259296 1.656959 -1.7780164 -2.3058138
-0.36935538 0.1027521 1.0201944 -0.107308224 0.1779421 -0.9110362 0.4231754 -0.62005293
0.75027055 -1.3717973 -0.7462016 -0.037115354 -1.4988492 0.63357174 -0.28392538 -0.8715605
1.1445951 2.2228208 0.4896538 -0.030256301 -1.1198796 -0.041913457 0.36684102 0.44036812
-0.5833141 -0.8089245 -0.80896986 -2.5531974 -0.38285133 1.6386762 0.9148123 -0.5795446
0.86639476 0.50471866 2.1818073 -0.6143503 1.2382786 0.17427339 -0.8030309 -0.6240227
-0.05691156 0.69035304 0.19081908 -0.083477505 -0.5708002 -0.21996835 1.5275468 0.25605875
-1.3325025 0.95639974 1.0337696 1.011431 -0.06626594 -0.6467834 0.12158705 1.8351985
0.9724344 -0.5497477 -0.6588486 -2.0926769 0.28939816 -0.77163696 0.39288202 -1.4026742
1.9912993 -0.21274406 -0.078407146 -0.055789236 2.0360796 0.7300189 1.8100288 -0.32285726
1.8614838 0.60607666 3.1504316 -0.667065 -0.00037252094 0.23950925 -0.62171876 0.6158141
0.544379 0.06589507 -1.5015779 1.7636963 0.62880707 0.006204004 -2.1464653 -1.5715854
-0.28411636 -0.9784347 0.42070004 -0.09654834 0.37394923 -0.89969784 1.220106 -0.20987222
1.8746737 -0.15465032 0.06924585 0.9079705 -0.32268134 1.2533315 2.6114671 1.4738132
-0.5129617 0.47507754 0.27846023 0.029422099 1.8327839 0.45118323 -0.07769058 -0.12720454
1.1257467 -1.8762709 -2.120175 0.5113948 -1.2930157 -0.23002155 -0.43743792 0.80537415
2.7521026 0.2858649 0.9746133 -0.78978884 0.20985863 -1.2402619 -0.45531467 -0.7061678
0.7910544 1.964892 -0.6538572 1.1364616 0.15181468 0.38770318 0.78650343 -0.056798846
-0.24872229 -1.5489845 0.7362949 -1.2435787 0.7877182 0.51531386 1.4565463 0.7157109
0.8627913 -1.4604577 0.2205778 1.6183656 1.2289351 -0.800882 1.020315 1.5196149
00000000: 0000 0000 0000 0000 0000 0000 0000 0000
00000010: 0000 0000 0000 0000 0000 0000 0000 0000
00000020: 0000 0000 0000 0000 0000 0000 0000 0000
00000030: 0000 0000 0000 0000 0000 0000 0000 0000
00000040: 0000 0000 0000 0000 0000 0000 0000 0000
00000050: 0000 0000 0000 0000 0000 0000 0000 0000
00000060: 0000 0000 0000 0000 0000 0000 0000 0000
00000070: 0000 0000 0000 0000 0000 0000 0000 0000
00000080: 0000 0000 0000 0000 0000 0000 0000 0000
00000090: 0000 0000 0000 0000 0000 0000 0000 0000
000000a0: 0000 0000 0000 0000 0000 0000 0000 0000
000000b0: 0000 0000 0000 0000 0000 0000 0000 0000
000000c0: 0000 0000 0000 0000 0000 0000 0000 0000
000000d0: 0000 0000 0000 0000 0000 0000 0000 0000
000000e0: 0000 0000 0000 0000 0000 0000 0000 0000
000000f0: 0000 0000 0000 0000 0000 0000 0000 0000
00000100: e2f2 8ebf 37bf 4f3f d123 4bbe 136f 72bf
00000110: d128 bf3e d993 553f 7810 113e 1b3a 8dbf
00000120: 937e 8fbe 5004 2a3f b5fa 403f 7f05 f8be
00000130: f3ae cc3e afc0 53bf 05c9 0f40 ef55 c6bf
00000140: b2e5 0f3f fbd6 083f a854 f43f 2d3e 32bf
00000150: f9b6 ff3f 98a6 5cbf 95d0 dc3e d354 d43c
00000160: 3e03 a3be 2d14 a1bf 637b b03f 1da0 05bf
00000170: 0ce2 5dbf 7346 4b3f f007 ed3e 0c6b e23d
00000180: 9720 823e eb5e f8bf e895 103f d78d 613f
00000190: 178e 813d 3c17 d43f 0b96 e3bf 7492 13c0
000001a0: 261c bdbe b16f d23d bb95 823f 6ac4 dbbd
000001b0: 7436 363e ab39 69bf 72aa d83e cabb 1ebf
000001c0: bb11 403f 0e97 afbf 1107 3fbf 4506 18bd
000001d0: 4ada bfbf c231 223f ab5e 91be 971e 5fbf
000001e0: 1882 923f b242 0e40 e7b3 fa3e 10dc f7bc
000001f0: 3758 8fbf 72ad 2bbd 96d2 bb3e ee77 e13e
00000200: 1354 15bf ad15 4fbf a618 4fbf 9667 23c0
00000210: 1705 c4be 24c0 d13f 2431 6a3f 095d 14bf
00000220: 0ccc 5d3f 3e35 013f bba2 0b40 1046 1dbf
00000230: ea7f 9e3f b974 323e 6f93 4dbf f4bf 1fbf
00000240: 191c 69bd faba 303f 1466 433e 41f6 aabd
00000250: f61f 12bf 623f 61be a786 c33f 221a 833e
00000260: 718f aabf 9dd6 743f 9052 843f 9276 813f
00000270: 70b6 87bd 9993 25bf a202 f93d c9e7 ea3f
00000280: 76f1 783f 44bc 0cbf 4daa 28bf 6bee 05c0
00000290: ff2b 943e 008a 45bf d527 c93e d48a b3bf
000002a0: e5e2 fe3f 94d9 59be ed93 a0bd 4183 64bd
000002b0: 214f 0240 85e2 3a3f 06af e73f 8c4d a5be
000002c0: 1a45 ee3f d727 1b3f aca0 4940 c6c4 2abf
000002d0: ea4e c3b9 ea41 753e f628 1fbf fea5 1d3f
000002e0: 6c5c 0b3f fff3 863d b433 c0bf cdc0 e13f
000002f0: 80f9 203f f54a cb3b b05f 09c0 b629 c9bf
00000300: b377 91be b27a 7abf ff65 d73e 23bb c5bd
00000310: 4676 bf3e 9952 66bf 6f2c 9c3f bee8 56be
00000320: 4ff5 ef3f a75c 1ebe c5d0 8d3d c170 683f
00000330: 7d36 a5be 2b6d a03f 4722 2740 e9a5 bc3f
00000340: 7551 03bf 5d3d f33e 5792 8e3e 9d06 f13c
00000350: aa98 ea3f 7d01 e73e 3d1c 9fbd e841 02be
00000360: 7818 903f a529 f0bf f2b0 07c0 c5ea 023f
00000370: 8a81 a5bf c58a 6bbe ddf7 dfbe 002d 4e3f
00000380: 7322 3040 e25c 923e 4280 793f 9a2f 4abf
00000390: 2ee5 563e e7c0 9ebf 011f e9be 6ac7 34bf
000003a0: 8b82 4a3f 9581 fb3f 2f63 27bf 9377 913f
000003b0: 4f75 1b3e 0881 c63e 4a58 493f e8a5 68bd
000003c0: 0eb1 7ebe 2045 c6bf d37d 3c3f 962d 9fbf
000003d0: e6a7 493f 9ceb 033f 1c70 ba3f d438 373f
000003e0: e4df 5c3f 47f0 babf 26df 613e 9b26 cf3f
000003f0: bf4d 9d3f 9a06 4dbf af99 823f be82 c23f

lstm.weight_ih_l0 f4 [256, 64]
-0.06261789 -0.11519489 0.06606183 0.035537045 0.005827374 -0.018311633 -0.108426295 -0.012531869
-0.08402869 0.017814728 -0.027295236 -0.038375396 0.04957935 0.06704366 -0.004271847 -0.083658405
-0.11709645 0.09926101 0.06332651 0.013600274 0.11507419 -0.066032246 -0.101061456 0.05558134
0.011515594 -0.012871549 -0.02869065 -0.07967572 -0.10023023 0.08208945 -0.06862376 -0.12529989
0.07931131 0.054973874 -0.024047196 0.078465894 0.031372126 0.09893894 -0.012069331 -0.01880983
-0.10070214 0.09221534 0.09654374 0.06446073 0.05289597 0.11193871 -0.023380036 0.06447671
0.010584901 0.029922083 0.09599794 -0.06551885 -0.11964853 0.06516573 0.08457797 -0.06436442
-0.08838926 -0.027735578 -0.010211823 0.050086204 0.003902703 0.040478155 -0.116126604 -0.10628256
-0.080524795 -0.032778468 -0.07100985 0.009147229 -0.0750066 0.01917059 0.060131345 -0.03903767
-0.0764611 -0.09398454 0.10676317 0.061004255 -0.055481225 -0.12240873 -0.10491663 0.06442479
-0.09768984 -0.034673173 0.07391266 0.018975066 0.026267044 -0.07916466 -0.07803703 -0.080791526
0.027876763 0.08409718 0.040907703 -0.08469917 0.042022437 -0.01807549 0.12287578 -0.058749985
-0.10148751 0.093975544 0.07381567 0.06099582 -0.102528945 -0.04745968 -0.058390327 0.003836013
0.06430589 0.075673126 -0.023419179 0.006183665 0.085052244 -0.11822118 -0.100508034 0.0032389257
-0.07898807 -0.03523708 0.030181795 -0.13496244 -0.06644559 0.03114892 -0.11876615 0.096842445
0.08802072 0.10296539 0.02469338 -0.09287758 0.005957707 0.09974455 -0.02363448 0.029527321
0.011346793 -0.08182793 -0.03807517 -0.12924793 0.094855644 0.122936755 -0.11334936 0.13913055
0.065299235 -0.062363785 0.022639595 -0.038797624 0.12238063 0.06688572 -0.038962897 -0.115749374
0.10899188 -0.11605505 0.057857443 -0.08175652 0.0065095983 -0.10273018 -0.048483543 -0.056128014
-0.053964846 -0.103547655 -0.071164474 0.09530929 -0.07969043 0.04120422 -0.095703654 -0.015590082
-0.11607204 -0.018998377 0.07519968 0.120790906 -0.080699675 0.07598789 -0.1028019 0.052459866
-0.101415485 -0.10465221 -0.08628807 0.014704691 0.00964887 0.058947146 -0.08229893 0.05193842
-0.102985166 0.005618163 -0.041351095 0.10423923 0.018125761 -0.09008773 -0.08640251 -0.089196034
0.036074873 0.029920412 0.13270277 0.05378767 -0.019482087 -0.13367027 -0.01979621 -0.095915996
-0.09063595 0.057358112 0.009828963 -0.06549362 0.059212215 0.10025151 0.016600408 0.054415856
0.06671192 0.09716257 0.090681225 0.055960264 -0.10372454 -0.11917111 -0.116971 -0.033870965
-0.06061187 0.025165066 0.0885686 0.043522377 -0.05253314 0.012214644 0.052811805 0.08784056
0.065703236 -0.08889736 0.084069826 -0.0057054823 -0.0695929 0.09821845 -0.11549061 -0.12458382
-0.12671924 0.0408852 -0.0075302767 -0.031945016 0.06680203 0.053715546 0.004148773 -0.08597153
0.040563628 -0.09295374 0.026933732 -0.064481996 -0.100678645 -0.12460952 0.051345393 0.057482723
-0.078173555 -0.14304912 -0.036933947 0.048341356 0.117158666 -0.03091591 0.12608948 -0.053008202
-0.1235141 0.052559502 0.09423093 0.028380824 -0.031558316 0.01293945 -0.0057798447 0.015646355
00000000: cf3d 80bd 4ceb ebbd 6d4b 873d 4b8f 113d
00000010: 8ef3 be3b 4702 96bc 9b0e debd 7852 4dbc
00000020: 3c17 acbd 31f0 913c 429a dfbc 852f 1dbd
00000030: b713 4b3d 304e 893d dafa 8bbb 1955 abbd
00000040: 43d0 efbd 5b49 cb3d 54b1 813d afd3 5e3c
00000050: 04ac eb3d ea3b 87bd 4ff9 cebd 42a9 633d
00000060: e7ab 3c3c 31e3 52bc a708 ebbc 062d a3bd
00000070: 8245 cdbd 831e a83d 9d8a 8cbd 9d4e 00be
00000080: f86d a23d 492c 613d a0fe c4bc bab2 a03d
00000090: 0f80 003d 80a0 ca3d 71be 45bc 1317 9abc
000000a0: ec3c cebd 65db bc3d b9b8 c53d fd03 843d
000000b0: 72a9 583d 1f40 e53d 7d87 bfbc 5e0c 843d
000000c0: 4b6c 2d3c 281f f53c 919a c43d bf2e 86bd
000000d0: 4a0a f5bd 9c75 853d 3737 ad3d 7ed1 83bd
000000e0: 6e05 b5bd b935 e3bc 7d4f 27bc 3127 4d3d
000000f0: 7ec4 7f3b 6ccc 253d c9d3 edbd acaa d9bd
00000100: 2fea a4bd b742 06bd 9d6d 91bd 42de 153c
00000110: 0f9d 99bd a40b 9d3c 494c 763d f7e5 1fbd
00000120: a397 9cbd f77a c0bd a6a6 da3d 99df 793d
00000130: 4840 63bd 6eb1 fabd 88de d6bd 25f1 833d
00000140: 9c11 c8bd 7505 0ebd 855f 973d 9971 9b3c
00000150: fc2d d73c 1521 a2bd e1d1 9fbd 0776 a5bd
00000160: cf5d e43c 243b ac3d d68e 273d c276 adbd
00000170: b81f 2c3d 0d13 94bc 4ca6 fb3d d3a3 70bd
00000180: afd8 cfbd 4076 c03d ac2c 973d c1d6 793d
00000190: b2fa d1bd 1565 42bd b22a 6fbd 9e65 7b3b
000001a0: ceb2 833d 83fa 9a3d 94d9 bfbc 57a0 ca3b
000001b0: df2f ae3d f21d f2bd 28d7 cdbd 2844 543b
000001c0: 7fc4 a1bd c254 10bd d03f f73c 9833 0abe
000001d0: a014 88bd 052c ff3c ab3b f3bd 5555 c63d
000001e0: 3544 b43d 85df d23d c549 ca3c 9a36 bebd
000001f0: de38 c33b df46 cc3d 199d c1bc 48e3 f13c
00000200: e6e7 393c 6795 a7bd b6f4 1bbd 9259 04be
00000210: ad43 c23d 44c6 fb3d b623 e8bd 3d78 0e3e
00000220: 9bbb 853d 2b71 7fbd ac76 b93c 42ea 1ebd
00000230: b2a2 fa3d 61fb 883d 8f97 1fbd 020e edbd
00000240: 2337 df3d 45ae edbd edfb 6c3d f66f a7bd
00000250: 784e d53b 3364 d2bd ae96 46bd 7de6 65bd
00000260: 3e0a 5dbd cb10 d4bd aebe 91bd 8431 c33d
00000270: bc34 a3bd c2c5 283d 4700 c4bd 8b6d 7fbc
00000280: 2db7 edbd 7ca2 9bbc 4a02 9a3d 3961 f73d
00000290: df45 a5bd 8a9f 9b3d cd89 d2bd 28e0 563d
000002a0: ecb2 cfbd e653 d6bd cdb7 b0bd f2eb 703c
000002b0: 4b16 1e3c 9072 713d 578c a8bd 61bd 543d
000002c0: e3e9 d2bd 9118 b83b c45f 29bd 617b d53d
000002d0: 7a7c 943c ea7f b8bd cdf3 b0bd 69ac b6bd
000002e0: 3fc3 133d a71b f53c 3ce3 073e 7650 5c3d
000002f0: e698 9fbc dce0 08be a92b a2bc 9b6f c4bd
00000300: 579f b9bd 57f0 6a3d a909 213c 8521 86bd
00000310: 8288 723d aa50 cd3d 94fd 873c 29e3 5e3d
00000320: 42a0 883d 2bfd c63d 14b7 b93d 9736 653d
00000330: 886d d4bd fc0f f4bd 7e8e efbd 48bc 0abd
00000340: 2744 78bd f826 ce3c 7463 b53d 8544 323d
00000350: fd2c 57bd ee1f 483c 3151 583d c0e5 b33d
00000360: 6b8f 863d d20f b6bd cd2c ac3d 0ef5 babb
00000370: b986 8ebd c126 c93d 5786 ecbd cd25 ffbd
00000380: b0c2 01be 3d77 273d 8ac0 f6bb c7d8 02bd
00000390: 81cf 883d d504 5c3d 6ef2 873b d711 b0bd
000003a0: 0c26 263d 885e bebd 21a4 dc3c 230f 84bd
000003b0: 9b30 cebd 4733 ffbd 8c4f 523d 0173 6b3d
000003c0: 7519 a0bd 787b 12be 0d48 17bd 9601 463d
000003d0: e2f0 ef3d 5d43 fdbc 9a1d 013e 211f 59bd
000003e0: f6f4 fcbd a248 573d 25fc c03d e77e e83c
000003f0: 4b43 01bd fdff 533c da64 bdbb c92c 803c

lstm.weight_hh_l0 f4 [256, 64]
-0.05304053 0.09450148 0.032900825 0.13236257 0.0025919299 -0.11769981 0.020190025 0.025553536
-0.000611883 -0.01385378 0.062307492 0.012266489 -0.050378326 0.0022438518 -0.100502945 0.022815254
-0.07044425 0.0035918565 0.09528351 -0.11579493 0.032207567 -0.076136805 0.03249276 0.115680814
-0.08961916 0.0003724185 0.036336582 -0.036342915 -0.1020329 -0.043521903 -0.08819004 0.08173482
0.029018564 -0.07358283 0.10075194 -0.08215601 0.081354015 -0.0775766 0.105851986 -0.017417815
-0.07235772 0.058513243 -0.107649714 -0.12801404 0.09374935 0.0062707947 0.013115927 -0.10638683
0.01624439 -0.07141971 -0.08967637 0.034514472 0.09097352 0.026328852 -0.012832587 -0.11817556
-0.0020080074 0.01353 -0.004504304 0.09952169 0.11743891 0.06379512 0.039070893 -0.026225232
0.0687135 0.11258509 0.026928801 -0.045993287 0.013006493 0.075728536 0.13592258 -0.08511438
0.10439087 -0.030376054 0.076685205 0.003438174 -0.04990977 -0.011370413 -0.08742023 0.046796672
0.06674139 0.031309824 0.015713552 0.016402453 0.07964004 -0.11846014 -0.060502015 0.09697589
0.0095962295 0.12398329 -0.12753344 0.11915592 0.1018976 -0.085547976 -0.12383415 -0.076045
-0.039972242 -0.06025337 0.009963397 0.08627961 0.10206278 -0.115466386 -0.041129436 -0.05383363
0.12249016 0.016017409 0.08218179 0.011481366 0.051158965 -0.03668119 0.06914247 -0.0030885476
-0.080855325 0.04512534 -0.045573954 0.032999028 0.025659584 0.071896926 0.039944436 0.061837494
0.019199764 0.052972928 0.022686701 0.024221884 0.06987348 0.11973166 -0.11400267 0.060007825
-0.023177374 -0.015024142 0.08661048 -0.038394656 0.11013783 -0.013289275 -0.0156066185 0.01714145
0.12486594 0.014015414 -0.0009039247 -0.062014624 -0.09871474 0.06148249 0.05349448 -0.09664122
0.0014524735 0.053363048 0.058563653 0.022314837 -0.11373201 -0.04258726 -0.10839794 0.051900458
0.038985256 0.027356472 -0.053477656 0.12053398 0.10041565 0.114485875 -0.011387845 0.02177794
-0.022807444 0.051017206 0.042132553 0.09918704 -0.0156421 -0.06530906 -0.1319366 0.087470606
0.0900809 -0.061361838 0.045059785 0.102155104 -0.032425728 0.09514214 -0.077972874 -0.05502375
0.070575446 -0.061112218 -0.04911762 0.024917778 -0.05900096 0.01180094 -0.018656408 0.039402388
-0.083279625 0.112768956 0.017067863 0.054728437 -0.036018077 -0.11537549 0.03916146 0.11809273
-0.052431572 -0.056905415 0.008760798 0.13194549 -0.00061964546 -0.02577857 0.0719965 0.0018971611
-0.05739555 0.0048527736 -0.081781104 -0.049643215 -0.05995922 -0.017948352 0.10250402 -0.017268203
-0.07612479 -0.037061285 0.041675705 -0.12804985 -0.1285146 -8.473173e-05 0.043107152 -0.034750067
0.0813992 0.07571526 -0.030244159 -0.029640764 -0.0731995 0.10891584 0.024107702 -0.06331924
-0.14300168 -0.0011793859 0.0061114626 -0.04549329 0.087796226 -0.13287853 -0.03349652 -0.018661084
-0.041788522 -0.021277908 -0.031127501 0.09070839 -0.097991385 0.04910807 -0.09388587 0.0833541
-0.097270146 -0.085039735 -0.049367696 -0.11429424 0.07084761 -0.0013944065 0.06792468 -0.12977187
0.09879833 -0.12625037 0.082112335 -0.029942764 -0.0458799 -0.0018718339 -0.12640402 -0.0405522
00000000: 0741 59bd fe89 c13d 04c3 063d 0e8a 073e
00000010: 5edd 293b 990c f1bd 8d65 a53c a655 d13c
00000020: c666 20ba f7fa 62bc 2436 7f3d 62f9 483c
00000030: 8159 4ebd 960d 133b 7dd4 cdbd 0ee7 ba3c
00000040: 1345 90bd 5a65 6b3b 0024 c33d e425 edbd
00000050: 15ec 033d 9ded 9bbd 2117 053d 10ea ec3d
00000060: 408a b7bd 2a41 c339 abd5 143d 4fdc 14bd
00000070: a0f6 d0bd 0644 32bd fb9c b4bd 9664 a73d
00000080: 57b8 ed3c 98b2 96bd 0857 ce3d 6941 a8bd
00000090: ef9c a63d 7be0 9ebd edc8 d83d ceaf 8ebc
000000a0: 4930 94bd 95ab 6f3d 7477 dcbd 1d16 03be
000000b0: a9ff bf3d 3d7b cd3b 2fe4 563c 57e1 d9bd
000000c0: f412 853c 7f44 92bd 3fa8 b7bd 0c5f 0d3d
000000d0: 5350 ba3d 9baf d73c c53f 52bc 0706 f2bd
000000e0: c698 03bb efac 5d3c d798 93bb 07d2 cb3d
000000f0: d083 f03d 04a7 823d cd08 203d 4cd6 d6bc
00000100: aab9 8c3d 0393 e63d ca99 dc3c 7563 3cbd
00000110: 3019 553c 9017 9b3d 4a2f 0b3e 7350 aebd
00000120: e1ca d53d 34d7 f8bc 220d 9d3d fd52 613b
00000130: 306e 4cbd f84a 3abc 6109 b3bd dead 3f3d
00000140: b6af 883d bb3e 003d b5b9 803c 705e 863c
00000150: 511a a33d 3b9b f2bd f6d0 77bd 4c9b c63d
00000160: 8139 1d3c f3ea fd3d 2098 02be 0508 f43d
00000170: b0af d03d c733 afbd c29c fdbd 7bbd 9bbd
00000180: efb9 23bd 3dcc 76bd 843d 233c 5db3 b03d
00000190: 4a06 d13d a479 ecbd 5777 28bd a780 5cbd
000001a0: 1fdc fa3d f136 833c ed4e a83d 571c 3c3c
000001b0: 108c 513d 043f 16bd 919a 8d3d 3b69 4abb
000001c0: 7a97 a5bd 59d5 383d c1ab 3abd fd29 073d
000001d0: 0c34 d23c b23e 933d c79c 233d 5049 7d3d
000001e0: d348 9d3c 24fa 583d 76d9 b93c f96c c63c
000001f0: d419 8f3d df35 f53d 3b7a e9bd c4ca 753d
00000200: 7ade bdbc d227 76bc d660 b13d b743 1dbd
00000210: f18f e13d 42bb 59bc e7b2 7fbc 3a6c 8c3c
00000220: b7b9 ff3d e8a0 653c 5cf5 6cba 0c03 7ebd
00000230: f42a cabd 10d5 7b3d 071d 5b3d d5eb c5bd
00000240: ec60 be3a 3693 5a3d 71e0 6f3d 9bcd b63c
00000250: 54ec e8bd fb6f 2ebd bdff ddbd 9395 543d
00000260: 01af 1f3d ae1a e03c 630b 5bbd 85da f63d
00000270: b8a6 cd3d 9277 ea3d 1594 3abc a767 b23c
00000280: add6 babc 6bf7 503d 2f93 2c3d 9322 cb3d
00000290: dc23 80bc c2c0 85bd 631a 07be ca23 b33d
000002a0: 567c b83d 8d56 7bbd 9c90 383d b236 d13d
000002b0: d7d0 04bd e2d9 c23d 3eb0 9fbd 9560 61bd
000002c0: dc89 903d ce50 7abd 8f2f 49bd 5e20 cc3c
000002d0: feaa 71bd bb58 413c 53d5 98bc 6664 213d
000002e0: 828e aabd 69f3 e63d e7d1 8b3c ed2a 603d
000002f0: b187 13bd fc49 ecbd c467 203d 9ada f13d
00000300: 7dc2 56bd a715 69bd 7389 0f3c b81c 073e
00000310: b46f 22ba 942d d3bc e772 933d 2aaa f83a
00000320: 9917 6bbd 0404 9f3b da7c a7bd af56 4bbd
00000330: cd97 75bd 6c08 93bc a1ed d13d 0c76 8dbc
00000340: 50e7 9bbd 93cd 17bd 25b4 2a3d 801f 03be
00000350: 5599 03be 00b2 b1b8 2091 303d 1656 0ebd
00000360: a0b4 a63d 9a10 9b3d 99c2 f7bc 30d1 f2bc
00000370: 9fe9 95bd 450f df3d 847d c53c 85ad 81bd
00000380: 086f 12be a095 9aba aa42 c83b 2c57 3abd
00000390: 82ce b33d 4f11 08be a633 09bd 21df 98bc
000003a0: 712a 2bbd 024f aebc 1aff febc 52c5 b93d
000003b0: b5af c8bd 8b25 493d 3c47 c0bd 8eb5 aa3d
000003c0: 9235 c7bd 5029 aebd c835 4abd 1913 eabd
000003d0: 8d18 913d 85c4 b6ba 181c 8b3d ebe2 04be
000003e0: c756 ca3d c747 01be 832a a83d 874a f5bc
000003f0: 90ec 3bbd 5358 f5ba 0e70 01be 101a 26bd

lstm.bias_ih_l0 f4 [256]
0.06801905 0.012049184 -0.108699836 0.097334445 0.0079812305 -0.015783418 0.071339235 -0.077500775
0.07490431 -0.11226442 0.00013169914 0.015368384 0.00183641 -0.08067391 0.11012766 -0.102668084
-0.087605126 -0.094185196 -0.018698424 0.07073514 0.04690891 0.08238736 0.092034385 0.014295377
0.11120599 -0.057626694 -0.032406382 0.027734034 -0.019381221 0.033372495 0.005912049 0.0907972
0.081872925 -0.01059971 0.027991602 5.7959347e-05 -0.0025430275 0.060942758 0.07497821 -0.07267784
-0.00780307 0.0012732048 0.053826116 -0.07189399 -0.0017794499 0.0127509935 -0.10584452 0.078026876
-0.05761499 -0.00038084981 0.07589253 -0.046602353 -0.10849994 0.043518297 -0.037278816 0.1369609
0.041634314 0.11479193 -0.049938828 0.014131385 0.12603433 -0.034295477 -0.06756456 -0.11408662
-0.12244687 -0.112895235 -0.046820495 0.027815903 0.090155065 -0.06789232 0.047350943 0.094577484
0.079603836 0.022242187 0.043958575 0.04800163 -0.09232098 0.07698281 -0.081145845 -0.027175281
0.11666665 -0.04420385 -0.030003725 0.06143849 -0.08698153 0.06199262 0.08822165 0.020472366
-0.008804772 -0.100896 -0.018205281 -0.06887317 -0.008066295 -0.019477433 0.031839337 0.046864994
-0.020628849 -0.069415 0.097515866 -0.08031468 -0.0817572 -0.008645467 -0.02725789 0.12067449
-0.0832625 0.032055363 0.13954878 0.0007128522 0.12751701 0.012871487 -0.12000214 -0.001501313
0.05288792 -0.11123456 -0.0954637 0.097743526 0.085229866 -0.066878386 0.112788826 0.049513783
0.034980133 -0.08139941 -0.071625195 -0.052585714 0.011989565 -0.005876558 -0.09455537 -0.015658736
0.0424559 -0.11678559 -0.033378877 0.02865246 -0.10454517 -0.1385445 0.07713 -0.0664982
0.08611713 -0.11017936 -0.075612836 -0.0011837522 0.09993271 0.048706222 0.026975092 0.06764626
0.043536518 0.06701698 0.051018573 -0.048794154 0.06491707 -0.10036205 -0.028547276 0.10676834
-0.019116744 -0.0042196214 0.0009355575 0.076054096 -0.12156113 0.08914928 -0.0430402 0.0010588506
0.064245656 -0.10783051 -0.094398886 0.09876224 -0.028482597 0.038572334 -0.03345012 0.08266058
0.035067987 0.13434373 -0.003965834 -0.0907096 -0.14352411 -0.0136358375 -0.10738629 -0.028349342
0.08596636 -0.028121056 -0.14305381 -0.13690323 -0.02553517 -0.025127936 0.021490008 -0.094269216
0.102146946 -0.08131923 0.08107995 0.08582377 -0.09885848 0.1248726 -0.1390059 0.089190915
-0.016186291 -0.056576904 -0.004336784 0.036374833 -0.02589907 0.08225201 0.13824524 0.1342329
-0.09790376 -0.009767505 0.09211383 -0.01098401 0.056863423 -0.07287366 -0.095083565 -0.07032231
0.050263938 -0.089372404 -0.024768975 -0.045117207 -0.056942515 -0.09111876 -0.03325891 0.06998694
-0.013728666 -0.036405478 0.026590442 0.03251139 0.06113025 -0.0678232 -0.121108875 -0.11965529
-0.023690978 0.10113855 0.080351 -0.041010518 0.025799045 0.07906071 0.1131981 0.02156507
0.09234606 -0.010681434 0.047455862 -0.07469796 -0.089662455 0.081508674 0.06312741 -0.005169328
-0.062978365 0.1128362 -0.06605602 -0.038567342 -0.03949714 0.012946288 -0.075002655 -0.04107261
-0.03282613 0.12552756 0.021855243 -0.008027959 -0.051021885 -0.09439793 0.109923825 0.014118676
00000000: 924d 8b3d f169 453c 059e debd 4857 c73d
00000010: b5c3 023c 3a4c 81bc 4e1a 923d bab8 9ebd
00000020: 6e67 993d e3ea e5bd b818 0a39 adcb 7b3c
00000030: b2b3 f03a 5d38 a5bd 9c8a e13d a543 d2bd
00000040: 516a b3bd 2be4 c0bd 702d 99bc 96dd 903d
00000050: 8f23 403d b4ba a83d 867c bc3d 2837 6a3c
00000060: f7bf e33d f809 6cbd 8ebc 04bd 7c32 e33c
00000070: 5ec5 9ebc 99b1 083d ddb9 c13b e2f3 b93d
00000080: feac a73d 68aa 2dbc a54e e53c 6019 7338
00000090: eca8 26bb 1d9f 793d 2d8e 993d 1fd8 94bd
000000a0: e5b0 ffbb aae1 a63a c678 5c3d 283d 93bd
000000b0: 6e3c e9ba 8be9 503c 03c5 d8bd 8ecc 9f3d
000000c0: b2fd 6bbd ccac c7b9 8b6d 9b3d 1ce2 3ebd
000000d0: 3735 debd 3e40 323d acb1 18bd 7a3f 0c3e
000000e0: be88 2a3d 0818 eb3d a88c 4cbd 5387 673c
000000f0: 250f 013e 6a79 0cbd 4a5f 8abd 3fa6 e9bd
00000100: 6dc5 fabd 9e35 e7bd d9c6 3fbd 2dde e33c
00000110: 38a3 b83d 210b 8bbd 10f3 413d d7b1 c13d
00000120: 5607 a33d 3f35 b63c e80d 343d 5b9d 443d
00000130: c812 bdbd 2aa9 9d3d cb2f a6bd b29e debc
00000140: edee ee3d 190f 35bd 5fca f5bc eda6 7b3d
00000150: 5f23 b2bd f9eb 7d3d 8dad b43d aab5 a73c
00000160: e441 10bc 90a2 cebd 3e23 95bc 600d 8dbd
00000170: 7e28 04bc 238f 9fbc f769 023d 82f5 3f3d
00000180: d5fd a8bc 7429 8ebd 66b6 c73d 067c a4bd
00000190: 5270 a7bd b8a5 0dbc f04b dfbc 3024 f73d
000001a0: 8885 aabd 7c4c 033d e0e5 0e3e b4de 3a3a
000001b0: d293 023e eee2 523c afc3 f5bd b4c7 c4ba
000001c0: 01a1 583d f2ce e3bd 7982 c3bd c22d c83d
000001d0: ff8c ae3d 89f7 88bd d4fd e63d f7ce 4a3d
000001e0: 5447 0f3d bcb4 a6bd 3bb0 92bd 1e64 57bd
000001f0: e16f 443c 2490 c0bb 3fa6 c1bd c046 80bc
00000200: 3de6 2d3d 492d efbd 4ab8 08bd 90b8 ea3c
00000210: c71b d6bd 9cde 0dbe 55f6 9d3d 3530 88bd
00000220: 2e5e b03d b7a5 e1bd e7da 9abd 2228 9bba
00000230: 85a9 cc3d 2d80 473d defa dc3c 1f8a 8a3d
00000240: 5953 323d 3340 893d daf8 503d 61dc 47bd
00000250: 3ef3 843d 9e8a cdbd fadb e9bc 5ca9 da3d
00000260: b89a 9cbc c044 8abb 3340 753a 40c2 9b3d
00000270: 0bf5 f8bd e693 b63d ec4a 30bd 21c9 8a3a
00000280: 3a93 833d 3ed6 dcbd 3454 c1bd db43 ca3d
00000290: 5654 e9bc 06fe 1d3d fe02 09bd f349 a93d
000002a0: 73a3 0f3d 6791 093e d4f3 81bb f4c5 b9bd
000002b0: fcf7 12be d968 5fbc 58ed dbbd e13c e8bc
000002c0: 220f b03d 215e e6bc b37c 12be 5c30 0cbe
000002d0: 222f d1bc 1ad9 cdbc d00b b03c 3810 c1bd
000002e0: 6b32 d13d b28a a6bd 3f0d a63d 5fc4 af3d
000002f0: 5176 cabd 35bd ff3d 9057 0ebe baa9 b63d
00000300: 1d99 84bc 2fbd 67bd 951b 8ebb c7fd 143d
00000310: 492a d4bc be73 a83d 2990 0d3e 5974 093e
00000320: c481 c8bd e307 20bc 2da6 bc3d 47f6 33bc
00000330: 9fe9 683d c93e 95bd 2cbb c2bd 2505 90bd
00000340: 8fe1 4d3d e108 b7bd 4ee8 cabc d2cc 38bd
00000350: 8e3c 69bd 799c babd 7f3a 08bd 5055 8f3d
00000360: 33ee 60bc e91d 15bd 33d4 d93c aa2a 053d
00000370: b763 7a3d e4e6 8abd ee07 f8bd d50d f5bd
00000380: 9513 c2bc ba21 cf3d 118f a43d a5fa 27bd
00000390: 8558 d33c 95ea a13d 68d4 e73d 3ba9 b03c
000003a0: ee1f bd3d 2e01 2fbc 1461 423d 3efb 98bd
000003b0: f3a0 b7bd 05ee a63d f248 813d 7763 a9bb
000003c0: cdfa 80bd aa16 e73d 6148 87bd caf8 1dbd
000003d0: c1c7 21bd ab1c 543c fe9a 99bd c13b 28bd
000003e0: b174 06bd 4c8a 003e c409 b33c b387 03bc
000003f0: 53fc 50bd b453 c1bd be1f e13d 0552 673c

lstm.bias_hh_l0 f4 [256]
0.05037836 -0.039696313 -0.08040797 -0.016636679 -0.04465451 0.13976559 -0.05573212 0.080131546
0.07861882 0.031083796 0.09450041 -0.098196976 -0.016158279 -0.022498826 0.05895669 0.05787782
-0.041074935 -0.05422178 -0.06271831 0.10363153 -0.07903892 0.011451949 0.10427703 0.069934234
0.029966438 -0.030271083 -0.04143644 -0.07515599 0.039159972 0.02199886 0.04195972 0.0785038
-0.06758222 0.09348411 0.024005448 0.020291662 -0.0023913188 0.07670839 0.07304727 0.11478532
0.012586206 -0.01009418 -0.046168804 -0.092954725 0.108052224 0.07368851 0.0072963787 0.06888035
0.0023059659 -0.023258956 0.118760236 -0.08953996 0.0740863 0.089042574 -0.027503176 0.03503406
0.11297171 -0.06908125 0.1429354 0.0067538656 0.010186592 0.056538083 -0.048036464 0.09670863
-0.09452203 0.04954568 0.016884413 0.0642834 0.059697863 0.05074025 -0.085792996 0.11476102
0.07388541 0.008222533 -0.07405088 -0.07842199 0.019013211 0.0051322924 0.07109517 0.014872289
-0.063058876 -0.057082076 -0.0861175 -0.069815576 -0.10345449 0.01990918 0.09762382 -0.1037901
0.008961822 -0.073616 0.12716375 0.06623049 -0.11434727 -0.035795428 -0.036849923 0.0014898119
0.05654166 -0.06354584 -0.13164176 0.08775468 -0.12937133 -0.035359714 0.057031408 -0.007889641
0.03804306 -0.037840717 -0.0020140377 0.05410993 -0.0983065 0.020968735 0.008234459 -0.09344858
0.11451058 -0.004092761 -0.09866727 0.060641095 0.08429905 0.0043536406 -0.023090385 -0.0027392067
0.08735641 -0.0007061502 0.010396559 -0.08772675 -0.021778004 -0.111917965 0.023216879 0.11537854
0.06929462 0.052781474 -0.0012439117 0.07427627 -0.057919748 -0.055133965 -0.0028574993 -0.12255177
0.023108084 -0.10861226 0.13681732 0.088412836 0.08213646 -0.045904156 -0.011838676 -0.083635055
-0.11328842 -0.09286278 -0.13364854 -0.13545386 -0.1267832 -0.043290146 0.016028147 -0.045798004
-0.020792574 -0.0022874468 -0.022960924 0.037877224 0.039988536 0.012631964 -0.046027422 -0.085361585
-0.13411473 0.04280028 0.017163346 0.023709614 0.030595988 -0.11619733 -0.109456755 -0.07297964
0.019715922 0.08837002 0.07529885 0.07340498 0.055171076 -0.09091756 -0.089130014 0.035535835
-0.037827995 0.07661669 0.047645178 -0.031465493 0.014961002 0.021857917 0.038574576 -0.10257724
-0.09536017 -0.009047098 0.018173195 -0.0047417805 -0.024835939 0.10446478 0.034112643 -0.119240716
-0.05246728 -0.08515807 -0.11178645 0.0060016233 -0.084949926 0.1270435 -0.036582552 0.08613259
0.0038676676 0.1067748 -0.085956 0.020060515 -0.0461616 -0.07194043 -0.05599179 -0.101226054
0.035126697 0.008072139 -0.07835714 -0.044105362 0.0444358 0.13166112 0.096443966 -0.11959862
0.09493311 -0.028034432 0.054245017 0.11563713 0.022689825 0.016445223 0.09229791 -0.0044412836
-0.028383221 -0.08269912 0.078520216 -0.08213956 -0.065589555 0.11136881 0.04638356 -0.055553786
0.07023932 -0.07400178 0.011324989 -0.023825869 0.02909737 -0.028515216 -0.10816512 0.051474348
-0.060695805 0.10406493 -0.08994902 -0.08049757 -0.037605558 -0.025102137 0.09500264 -0.09770756
-0.016207572 -0.06497237 -0.030856736 -0.073375 0.087178975 -0.0325303 -0.07085024 -0.04105774
00000000: 8a59 4e3d 9a98 22bd efac a4bd a549 88bc
00000010: a6e7 36bd b61e 0f3e 5d47 64bd 021c a43d
00000020: e702 a13d 72a3 fe3c 6e89 c13d 7f1b c9bd
00000030: 5e5e 84bc 754f b8bc 927c 713d 4b11 6d3d
00000040: 313e 28bd a817 5ebd 7572 80bd c53c d43d
00000050: 28df a1bd f5a0 3b3c 328f d53d ae39 8f3d
00000060: 2d7c f53c 10fb f7bc 42b9 29bd 62eb 99bd
00000070: 3566 203d f436 b43c f5dd 2b3d 9ac6 a03d
00000080: 8c68 8abd 9974 bf3d 13a7 c43c b33a a63c
00000090: acb7 1cbb 4a19 9d3d cf99 953d 9114 eb3d
000000a0: 6036 4e3c 0f62 25bc 801b 3dbd 0c5f bebd
000000b0: 7c4a dd3d 00ea 963d 7616 ef3b 2411 8d3d
000000c0: b01f 173b 9189 bebc 9138 f33d ba60 b7bd
000000d0: 8fba 973d f45b b63d 574e e1bc e07f 0f3d
000000e0: b65d e73d 787a 8dbd a85d 123e 884f dd3b
000000f0: aae5 263c 7a94 673d e2c1 44bd 2d0f c63d
00000100: c494 c1bd 69f0 4a3d 2e51 8a3c 04a7 833d
00000110: bf85 743d 02d5 4f3d 3db4 afbd d307 eb3d
00000120: 3c51 973d ceb7 063c fda7 97bd b59b a0bd
00000130: 98c1 9b3c ca2c a83b 589a 913d e7aa 733c
00000140: 0325 81bd e5ce 69bd 5f5e b0bd 78fb 8ebd
00000150: f3df d3bd 9418 a33c ffee c73d e78f d4bd
00000160: 9bd4 123c fcc3 96bd 3737 023e daa3 873d
00000170: e72e eabd 3a9e 12bd f2ef 16bd cb45 c33a
00000180: 3a98 673d 5224 82bd 19cd 06be bab8 b33d
00000190: eb79 04be 59d5 10bd c499 693d 8e43 01bc
000001a0: 0ad3 1b3d defe 1abd f2fd 03bb 60a2 5d3d
000001b0: eb54 c9bd a0c6 ab3c d3e9 063c f861 bfbd
000001c0: 8684 ea3d 911c 86bb 1112 cabd cc62 783d
000001d0: fba4 ac3d fca8 8e3b 0c28 bdbc 4384 33bb
000001e0: ebe7 b23d f01c 39ba 5456 2a3c 15aa b3bd
000001f0: c967 b2bc 3f35 e5bd 5331 be3c 954b ec3d
00000200: 56ea 8d3d 6331 583d c00a a3ba 281e 983d
00000210: 423d 6dbd 27d4 61bd e244 3bbb 6cfc fabd
00000220: 2a4d bd3c 1b70 debd d719 0c3e ca11 b53d
00000230: 2937 a83d ff05 3cbd 02f7 41bc db48 abbd
00000240: c203 e8bd d72e bebd 2adb 08be 6bb4 0abe
00000250: 75d3 01be 0251 31bd 764d 833c b096 3bbd
00000260: 3055 aabc fde8 15bb 8c18 bcbc 2625 1b3d
00000270: 05cb 233d 4cf6 4e3c 4087 3cbd 0ed2 aebd
00000280: 5f55 09be 594f 2f3d 259a 8c3c aa3a c23c
00000290: 70a4 fa3c def8 edbd dd2a e0bd 5976 95bd
000002a0: 4983 a13c 57fb b43d 4936 9a3d 5a55 963d
000002b0: 11fb 613d fc32 babd cc89 b6bd 068e 113d
000002c0: 87f1 1abd 36e9 9c3d 9727 433d f6e1 00bd
000002d0: fe1e 753c 600f b33c 6000 1e3d 0414 d2bd
000002e0: 314c c3bd 483a 14bc f4df 943c f060 9bbb
000002f0: bd74 cbbc a1f1 d53d b3b9 0b3d 7a34 f4bd
00000300: eee7 56bd 5b67 aebd 4bf0 e4bd 44a9 c43b
00000310: 3afa adbd b117 023e 96d7 15bd 4966 b03d
00000320: b278 7d3b bfac da3d b309 b0bd f355 a43c
00000330: f213 3dbd 8155 93bd a657 65bd 9b4f cfbd
00000340: 03e1 0f3d 0141 043c b579 a0bd d3a7 34bd
00000350: 5002 363d 2cd2 063e 6a84 c53d 1ff0 f4bd
00000360: 4a6c c23d 77a8 e5bc 0630 5e3d 29d3 ec3d
00000370: 03e0 b93c 22b8 863c b006 bd3d 3088 91bb
00000380: ee83 e8bc 285e a9bd 35cf a03d c938 a8bd
00000390: d153 86bd 5515 e43d b0fc 3d3d 5e8c 63bd
000003a0: a2d9 8f3d 3f8e 97bd 728c 393c 782e c3bc
000003b0: 9c5d ee3c be98 e9bc ad85 ddbd c4d6 523d
000003c0: 2a9c 78bd fe1f d53d 3137 b8bd e9db a4bd
000003d0: 4908 1abd ffa2 cdbc be90 c23d e71a c8bd
000003e0: bec5 84bc 3c10 85bd 44c7 fcbc a245 96bd
000003f0: e48a b23d 7e3e 05bd ee19 91bd 292c 28bd

fc.weight f4 [8, 64]
-0.067602485 0.06566265 -0.09820639 0.039270986 0.06805651 -0.045278154 0.013729201 -0.08347836
-0.064571165 -0.08777152 0.11601665 0.06951896 -0.042098198 0.07539629 0.08116252 0.021427818
-0.09023875 0.022631127 0.087201595 0.12260901 -0.043503076 0.0715834 0.0539591 0.114548184
0.044160087 0.007792545 0.1350513 -0.101641536 -0.11790129 -0.10018497 -0.034984205 0.006476603
-0.03317026 -0.10933203 -0.08996762 0.00047227263 -0.014957231 0.025471894 0.0075814133 -0.06220964
0.08717607 0.07795613 -0.073715664 -0.1280175 -0.022581726 -0.014786161 -0.11432275 0.050946373
0.0039034546 -0.05433721 -0.12895031 -0.01841509 -0.009131689 -0.0168563 0.0065823207 -0.07626123
-0.06838645 -0.019349258 0.030922264 0.1272189 0.070531465 -0.08614526 -0.026531696 0.015975857
0.009237251 -0.07334285 -0.038428567 -0.030765554 0.13738932 0.027535371 -0.096422434 0.08211322
0.033575892 0.1259472 0.05749064 -0.13659607 -0.0040907674 -0.021708265 0.020770933 0.007013808
-0.03422878 0.052283246 0.0795755 0.06325771 -0.09218509 0.023403162 -0.07758583 -0.060731377
0.017079974 -0.056488056 -0.054566458 -0.114858806 0.11791137 -0.1327767 -0.06642923 0.04486033
0.009497292 -0.0025863592 -0.001447169 -0.13606904 0.012759104 0.09917981 -0.09107211 0.100307405
-0.014683524 -0.0040025553 0.031268936 0.010163838 0.0063390797 -0.033259016 0.117853805 0.05960466
0.00918612 -0.08268071 0.0954979 -0.07275995 -0.08773745 0.023178186 -0.076601 -0.059131972
0.082883656 -0.10279094 -0.110463776 0.05946599 0.087505415 -0.024058215 0.12243061 0.12669954
-0.04003702 -0.07555523 0.062345285 -0.14106143 0.026813837 -0.037397698 0.011165243 -0.044355404
-0.13791104 -0.012456414 -0.13300535 0.06362899 -0.114365116 0.07034221 -0.006600435 -0.099856906
0.08063078 0.020851843 -0.06344248 0.113553844 -0.08569531 0.07189927 0.0030124485 -0.026616096
0.02814784 0.00093901623 -0.018687665 0.045324925 0.019012941 -0.11555895 -0.09960521 0.023824617
0.095538326 -0.100700155 0.021095527 -0.077491716 -0.08559819 0.10036565 -0.08224847 -0.074199595
-0.019146 -0.14199229 0.04516563 0.01286715 -0.043181133 -0.06508651 0.07414045 -0.13396181
-0.02502207 -0.11584329 0.053275727 0.11376694 -0.015468869 0.084006794 -0.03005495 -0.0023129066
-0.07486414 0.06266577 -0.022584615 0.015172304 -0.09825902 0.099091075 0.023666479 0.07540633
0.08895584 0.11285841 -0.006595808 -0.051968213 -0.0058801416 -0.0638089 0.026128456 0.07094295
0.015779793 -0.02677241 -0.019521153 0.04442726 0.08295007 0.13667127 -0.111010976 0.04270215
0.02705183 -0.0038369833 0.13045454 0.105381 0.089084424 0.08854092 -0.0049270773 -0.06862845
0.019605879 0.12525967 0.025319148 0.019707022 0.09908136 0.047740538 0.0939967 0.020373736
-0.09800332 -0.09803614 -0.058103945 0.07346276 0.039952446 0.0046212766 0.13858199 -0.14003754
0.024594927 -0.12249734 -0.047747366 0.058119956 0.10097827 0.06697177 0.12558499 0.048695385
-0.013953355 -0.07828581 -0.02427459 0.01199632 0.06398245 0.017861828 0.05923163 -0.09127373
0.044472847 0.0072809476 -0.08752558 0.09770915 -0.017707773 0.039619904 -0.04822189 -0.053954113
00000000: 2c73 8abd 247a 863d 6f20 c9bd 9dda 203d
00000010: 3661 8b3d 9675 39bd 71f0 603c b4f6 aabd
00000020: e33d 84bd 8ec1 b3bd 239a ed3d f55f 8e3d
00000030: 296f 2cbd 5f69 9a3d 8938 a63d 6489 af3c
00000040: 18cf b8bd ea64 b93c c096 b23d 6f1a fb3d
00000050: 4830 32bd 519a 923d 3804 5d3d 3d98 ea3d
00000060: 35e1 343d 9b58 ff3b e34a 0a3e 7029 d0bd
00000070: 3b76 f1bd c72d cdbd 994b 0fbd af39 d43b
00000080: 8add 07bd 79e9 dfbd f240 b8bd 5c9b f739
00000090: 2c0f 75bc 6faa d03c 816d f83b 89cf 7ebd
000000a0: 5e89 b23d 77a7 9f3d 3df8 96bd 0517 03be
000000b0: 50fd b8bc a741 72bc 0c22 eabd 25ad 503d
000000c0: 1ad1 7f3b b290 5ebd 8d0b 04be 3edb 96bc
000000d0: 149d 15bc 3916 8abc 82b0 d73b d92e 9cbd
000000e0: 320e 8cbd 5682 9ebc b050 fd3c ac45 023e
000000f0: cd72 903d ed6c b0bd 0059 d9bc cddf 823c
00000100: d757 173c c734 96bd 4667 1dbd 0b08 fcbc
00000110: c9af 0c3e dc91 e13c 2079 c5bd fa2a a83d
00000120: e086 093d 4ef8 003e 4e7b 6b3d d7df 0bbe
00000130: d80b 86bb 88d5 b1bc ce27 aa3c 16d4 e53b
00000140: 7a33 0cbd f526 563d 7bf8 a23d 428d 813d
00000150: 89cb bcbd fdb7 bf3c 52e5 9ebd 77c1 78bd
00000160: 4deb 8b3c 0560 67bd 1481 5fbd 183b ebbd
00000170: 847b f13d 9ef6 07be 0c0c 88bd 77bf 373d
00000180: 889a 1b3c e87f 29bb efae bdba af55 0bbe
00000190: 900b 513c c91e cb3d 0484 babd f86d cd3d
000001a0: 2a93 70bc de27 83bb db13 003d 3a86 263c
000001b0: 0eb8 cf3b 9b3a 08bd 565d f13d 0424 743d
000001c0: 6181 163c 8154 a9bd 6794 c33d 2b03 95bd
000001d0: b1af b3bd 2ee0 bd3c fce0 9cbd 5e34 72bd
000001e0: e8be a93d 0e84 d2bd d53a e2bd 9c92 733d
000001f0: 0a36 b33d bc15 c5bc e6bc fa3d 86bd 013e
00000200: dcfd 23bd b3bc 9abd c55d 7f3d 6872 10be
00000210: b1a8 db3c 542e 19bd 6cee 363c 03ae 35bd
00000220: 8d38 0dbe fd15 4cbc 8e32 08be ea4f 823d
00000230: 4238 eabd 940f 903d 7648 d8bb c781 ccbd
00000240: c021 a53d 7cd1 aa3c 22ee 81bd eb8e e83d
00000250: 0681 afbd ed3f 933d 806c 453b 000a dabc
00000260: 4d96 e63c 5028 763a e016 99bc a1a6 393d
00000270: 07c1 9b3c 2caa ecbd d1fd cbbd d82b c33c
00000280: 99a9 c33d e23b cebd 87d0 ac3c fab3 9ebd
00000290: 1b4e afbd 828c cd3d e371 a8bd f5f5 97bd
000002a0: 12d8 9cbc 6d66 11be 98ff 383d bdd0 523c
000002b0: b3de 30bd 134c 85bd f3d6 973d 492d 09be
000002c0: 16fb ccbc 3f3f edbd a637 5a3d a4fe e83d
000002d0: 2471 7dbc c10b ac3d cc35 f6bc 2294 17bb
000002e0: 5f52 99bd e956 803d 5f03 b9bc 4195 783c
000002f0: 063c c9bd 43f0 ca3d 34e0 c13c a26e 9a3d
00000300: 7b2e b63d 4f22 e73d a621 d8bb 9fdc 54bd
00000310: 34ae c0bb 3eae 82bd 580b d63c 8a4a 913d
00000320: a044 813c d051 dbbc d3ea 9fbc 5cf9 353d
00000330: bae1 a93d 8ef3 0b3e b959 e3bd 73e8 2e3d
00000340: cd9b dd3c e675 7bbb e095 053e fed1 d73d
00000350: e571 b63d f154 b53d 5273 a1bb 138d 8cbd
00000360: 829c a03c 1244 003e 1a6a cf3c 9f70 a13c
00000370: 2beb ca3d 958b 433d 5881 c03d d2e6 a63c
00000380: f7b5 c8bd 2cc7 c8bd 67fe 6dbd a573 963d
00000390: 2da5 233d 146e 973b 70e8 0d3e 0066 0fbe
000003a0: 4d7b c93c e3df fabd be92 43bd 310f 6e3d
000003b0: b2cd ce3d 7f28 893d 5a99 003e d074 473d
000003c0: 9d9c 64bc 5054 a0bd 81db c6bc 378c 443c
000003d0: 3b09 833d f852 923c de9c 723d b9ed babd
000003e0: 2929 363d 0495 ee3b 9c40 b3bd bc1b c83d
000003f0: e40f 91bc 7b48 223d 5184 45bd fdfe 5cbd

fc.bias f4 [8]
0.018545631 0.029964266 0.07679588 -0.13760617 0.008998041 0.060954373 -0.031928062 0.025964232
00000000: 02ed 973c 9f77 f53c 2947 9d3d a2e8 0cbe
00000010: 856c 133c 4bab 793d 00c7 02bd f1b2 d43c
