data/processed/ml_engine/model.pt (torch, 650039 bytes, 7 tensors)

embedding.weight f4 [2000, 64]
0	0x00000000	0.0
1	0x00000000	0.0
2	0x00000000	0.0
3	0x00000000	0.0
4	0x00000000	0.0
5	0x00000000	0.0
6	0x00000000	0.0
7	0x00000000	0.0
8	0x00000000	0.0
9	0x00000000	0.0
10	0x00000000	0.0
11	0x00000000	0.0
12	0x00000000	0.0
13	0x00000000	0.0
14	0x00000000	0.0
15	0x00000000	0.0
16	0x00000000	0.0
17	0x00000000	0.0
18	0x00000000	0.0
19	0x00000000	0.0
20	0x00000000	0.0
21	0x00000000	0.0
22	0x00000000	0.0
23	0x00000000	0.0
24	0x00000000	0.0
25	0x00000000	0.0
26	0x00000000	0.0
27	0x00000000	0.0
28	0x00000000	0.0
29	0x00000000	0.0
30	0x00000000	0.0
31	0x00000000	0.0
32	0x00000000	0.0
33	0x00000000	0.0
34	0x00000000	0.0
35	0x00000000	0.0
36	0x00000000	0.0
37	0x00000000	0.0
38	0x00000000	0.0
39	0x00000000	0.0
40	0x00000000	0.0
41	0x00000000	0.0
42	0x00000000	0.0
43	0x00000000	0.0
44	0x00000000	0.0
45	0x00000000	0.0
46	0x00000000	0.0
47	0x00000000	0.0
48	0x00000000	0.0
49	0x00000000	0.0
50	0x00000000	0.0
51	0x00000000	0.0
52	0x00000000	0.0
53	0x00000000	0.0
54	0x00000000	0.0
55	0x00000000	0.0
56	0x00000000	0.0
57	0x00000000	0.0
58	0x00000000	0.0
59	0x00000000	0.0
60	0x00000000	0.0
61	0x00000000	0.0
62	0x00000000	0.0
63	0x00000000	0.0
64	0xbf8ef2e2	-1.1167872
65	0x3f4fbf37	0.81151146
66	0xbe4b23d1	-0.19837882
67	0xbf726f13	-0.94700736
68	0x3ebf28d1	0.37335828
69	0x3f5593d9	0.8342872
70	0x3e111078	0.14166439
71	0xbf8d3a1b	-1.1033357
72	0xbe8f7e93	-0.28026256
73	0x3f2a0450	0.6641283
74	0x3f40fab5	0.7538255
75	0xbef8057f	-0.48441693
76	0x3eccaef3	0.39977226
77	0xbf53c0af	-0.82715887
78	0x400fc905	2.2466443
79	0xbfc655ef	-1.5494975
80	0x3f0fe5b2	0.5620986
81	0x3f08d6fb	0.53453034
82	0x3ff454a8	1.9088335
83	0xbf323e2d	-0.6962612
84	0x3fffb6f9	1.9977714
85	0xbf5ca698	-0.861917
86	0x3edcd095	0.43127885
87	0x3cd454d3	0.025919354
88	0xbea3033e	-0.3183841
89	0xbfa1142d	-1.2584282
90	0x3fb07b63	1.3787655
91	0xbf05a01d	-0.5219744
92	0xbf5de20c	-0.86673045
93	0x3f4b4673	0.7940437
94	0x3eed07f0	0.46295118
95	0x3de26b0c	0.11055574
96	0x3e822097	0.2541549
97	0xbff85eeb	-1.9403967
98	0x3f1095e8	0.5647874
99	0x3f618dd7	0.88107055
100	0x3d818e17	0.063259296
101	0x3fd4173c	1.656959
102	0xbfe3960b	-1.7780164
103	0xc0139274	-2.3058138
104	0xbebd1c26	-0.36935538
105	0x3dd26fb1	0.1027521
106	0x3f8295bb	1.0201944
107	0xbddbc46a	-0.107308224
108	0x3e363674	0.1779421
109	0xbf6939ab	-0.9110362
110	0x3ed8aa72	0.4231754
111	0xbf1ebbca	-0.62005293
112	0x3f4011bb	0.75027055
113	0xbfaf970e	-1.3717973
114	0xbf3f0711	-0.7462016
115	0xbd180645	-0.037115354
116	0xbfbfda4a	-1.4988492
117	0x3f2231c2	0.63357174
118	0xbe915eab	-0.28392538
119	0xbf5f1e97	-0.8715605
120	0x3f928218	1.1445951
121	0x400e42b2	2.2228208
122	0x3efab3e7	0.4896538
123	0xbcf7dc10	-0.030256301
124	0xbf8f5837	-1.1198796
125	0xbd2bad72	-0.041913457
126	0x3ebbd296	0.36684102
127	0x3ee177ee	0.44036812
128	0xbf17cec0	-0.5929985
129	0xbf519113	-0.8186199
130	0xbf4c9f37	-0.7993044
131	0xc0240659	-2.5628874
132	0xbec8f75b	-0.39251217
133	0x3fd1b0db	1.6382097
134	0x3f6cabd3	0.9244968
135	0xbf11e364	-0.56987596
136	0x3f5b5771	0.856803
137	0x3f03af97	0.51439804
138	0x400c413d	2.1914818
139	0xbf1fc06f	-0.62403005
140	0x3f9d42af	1.2285975
141	0x3e3c52d1	0.18390967
142	0xbf4feb8d	-0.81218797
143	0xbf1d485f	-0.61438555
144	0xbd88766d	-0.06663213
145	0x3f33380f	0.70007414
146	0x3e398d92	0.18120411
147	0xbd96999d	-0.07353518
148	0xbf0fa663	-0.5611326
149	0xbe57530e	-0.21027777
150	0x3fc2e205	1.5225226
151	0x3e85aea2	0.26109797
152	0xbfabcbcd	-1.342157
153	0x3f725d82	0.9467393
154	0x3f858fcc	1.0434508
155	0x3f80396a	1.0017521
156	0xbd9b87f2	-0.07594289
157	0xbf231b78	-0.6371379
158	0x3e01bce9	0.1266972
159	0x3fe9ae05	1.8256232
160	0x3f767700	0.9627533
161	0xbf0f3067	-0.5593323
162	0xbf2b1abc	-0.6683767
163	0xc0068bff	-2.1022947
164	0x3e992043	0.29907426
165	0xbf4804f3	-0.7813255
166	0x3ec43019	0.38317946
167	0xbfb4c789	-1.4123393
168	0x3ffdb34c	1.9820342
169	0xbe63c15b	-0.22241728
170	0xbd8cbda2	-0.06872107
171	0xbd3d27f3	-0.046180677
172	0x4002edd7	2.0457666
173	0x3f3869c6	0.720364
174	0x3fe675ae	1.8004663
175	0xbea7c17a	-0.32764798
176	0x3fef816e	1.8711374
177	0x3f1da1bd	0.6157492
178	0x40490580	3.1409607
179	0xbf2d3e65	-0.6767333
180	0xbc24d1c8	-0.010059781
181	0x3e7f2283	0.24915509
182	0xbf1cf3e8	-0.6130967
183	0x3f1e609d	0.6186617
184	0x3f08e5aa	0.5347544
185	0x3d663d8a	0.056211032
186	0xbfbef834	-1.4919496
187	0x3fe2fe7a	1.773391
188	0x3f1e7f74	0.6191323
189	0x3c81f664	0.015864559
190	0xc009fd8b	-2.1561
191	0xbfc91d3b	-1.5712045
192	0xbe967a21	-0.29390052
193	0xbf7cf5ff	-0.9881286
194	0x3edc67f5	0.43048063
195	0xbdda0199	-0.10644836
196	0x3eba70c1	0.3641415
197	0xbf669d68	-0.9008393
198	0x3f9d6e69	1.229932
199	0xbe4cde8b	-0.20006768
200	0x3feeb4b6	1.8648899
201	0xbe144f78	-0.1448344
202	0x3da1e4c2	0.0790496
203	0x3f65ec29	0.89813477
204	0xbeaa3a70	-0.3324771
205	0x3fa1af19	1.263156
206	0x4026812a	2.6016335
207	0x3fbc167a	1.4694359
208	0xbf05d778	-0.52281904
209	0x3ef8479a	0.48492128
210	0x3e89b764	0.26897728
211	0x3cbb2c88	0.022848383
212	0x3febdbb9	1.8426429
213	0x3eec0a6a	0.46101695
214	0xbda9ddf3	-0.082942866
215	0xbdf083b8	-0.11743873
216	0x3f8ed885	1.1159827
217	0xbff16320	-1.8858376
218	0xc0070fc3	-2.110337
219	0x3f006849	0.50159127
220	0xbfa6c329	-1.3028308
221	0xbe759274	-0.23981649
222	0xbedef072	-0.4354282
223	0x3f4cbf48	0.7997937
224	0x402f8d67	2.7430055
225	0x3e929d03	0.28635415
226	0x3f76fcda	0.9647957
227	0xbf4caa99	-0.7994781
228	0x3e60f3c2	0.21967986
229	0xbfa002af	-1.2500819
230	0xbeee2804	-0.46514904
231	0xbf372c73	-0.715522
232	0x3f4d0c41	0.8009682
233	0x3ffa4061	1.9550897
234	0xbf24e1f2	-0.64407265
235	0x3f92b358	1.1460981
236	0x3e2575ef	0.1615827
237	0x3ec17fb1	0.37792733
238	0x3f46d377	0.7766642
239	0xbd815493	-0.063149594
240	0xbe74b123	-0.23895697
241	0xbfc5058a	-1.5392315
242	0x3f3a12e1	0.72685057
243	0xbfa06eb0	-1.2533779
244	0x3f472556	0.77791345
245	0x3f066ed5	0.52512866
246	0x3fba79af	1.4568385
247	0x3f39c10b	0.72560185
248	0x3f5a5a36	0.852939
249	0xbfbc3151	-1.470255
250	0x3e61e330	0.22059321
251	0x3fd058d2	1.6277106
252	0x3f9c0ce2	1.2191432
253	0xbf4a85bc	-0.7911031
254	0x3f815f40	1.0107193
255	0x3fc3c0fa	1.5293267

lstm.weight_ih_l0 f4 [256, 64]
0	0xbd58fb79	-0.052974198
1	0xbdfff75e	-0.124983534
2	0x3d99f1e2	0.075168386
3	0x3cd3a795	0.025836745
4	0x3c7a9d0b	0.015296231
5	0xbce417a1	-0.027843298
6	0xbdf20f82	-0.11819364
7	0xbb444b27	-0.002995202
8	0xbd979893	-0.07402148
9	0x3ce17b59	0.027524637
10	0xbc8feb01	-0.017568113
11	0xbd413fe5	-0.047180075
12	0x3d4ce70f	0.050025042
13	0x3d9d45d5	0.07679335
14	0xbc29714c	-0.0103419535
15	0xbdbecdd5	-0.09316603
16	0xbe01558b	-0.12630288
17	0x3db70481	0.08936406
18	0x3d960a0f	0.07326137
19	0x3cbc21ff	0.02296543
20	0x3dd7dfd9	0.105407424
21	0xbd673ad1	-0.056452576
22	0xbde19f9e	-0.11016773
23	0x3d3c4dbd	0.045972575
24	0x3ca9c67d	0.02072453
25	0xbc06482a	-0.008195916
26	0xbc9a7d66	-0.018858623
27	0xbdb6fea0	-0.089352846
28	0xbdcf44ca	-0.10120542
29	0x3dbc726a	0.0920151
30	0xbd7086ef	-0.058722433
31	0xbe0a30d8	-0.13495195
32	0x3d9eba48	0.07750374
33	0x3d851b03	0.06499293
34	0xbc877a4c	-0.016537808
35	0x3db518e4	0.08842638
36	0x3d1079b5	0.03527232
37	0x3db78fc7	0.0896297
38	0xbca44d57	-0.02005641
39	0xbce87bcd	-0.028379345
40	0xbdbaa4fc	-0.091134995
41	0x3da8dbf6	0.08245079
42	0x3db27060	0.0871284
43	0x3d65e12f	0.056122955
44	0x3d809f66	0.06280403
45	0x3dd5331e	0.104101405
46	0xbd06d11e	-0.032914273
47	0x3d9808ae	0.074235305
48	0x3ca8c2d0	0.020600706
49	0x3ca3c4be	0.019991275
50	0x3db38b9a	0.08766861
51	0xbd659fde	-0.056060664
52	0xbe04655e	-0.12929294
53	0x3d981e35	0.074276365
54	0x3d99a14a	0.075014666
55	0xbd5efaa0	-0.054438233
56	0xbda11db7	-0.07866996
57	0xbcbe46b5	-0.023227075
58	0xbb17d0dc	-0.0023165261
59	0x3d2be45b	0.041965824
60	0xbb2a8ad0	-0.002602268
61	0x3d4dbe89	0.050230537
62	0xbdffcec2	-0.12490608
63	0xbdedf25d	-0.11618493
64	0xbdb807b2	-0.08985843
65	0xbd284a6e	-0.041086607
66	0xbd7c0aaa	-0.061533608
67	0x3b90c3fd	0.004417895
68	0xbd85bd80	-0.06530285
69	0x3c1d3c44	0.009596888
70	0x3d53d7e2	0.051719554
71	0xbd001ed3	-0.031279396
72	0xbda897a6	-0.0823205
73	0xbdad6920	-0.08467317
74	0x3dee78bd	0.11644123
75	0x3d53b804	0.051689163
76	0xbd856ef0	-0.065153
77	0xbdf3f08f	-0.11911117
78	0xbdea7b7f	-0.11449336
79	0x3d5ed732	0.054404445
80	0xbdb3f982	-0.08787824
81	0xbccd45cd	-0.025057698
82	0x3daad968	0.08342248
83	0x3c1855b7	0.00929778
84	0x3c8b8bfb	0.017034521
85	0xbdb04f28	-0.08608848
86	0xbdb3b562	-0.087748304
87	0xbdb16985	-0.086627044
88	0x3ce2bb6d	0.027677262
89	0x3dbfd525	0.09366826
90	0x3d4fbb16	0.05071553
91	0xbdc15283	-0.09439566
92	0x3d039332	0.0321228
93	0xbce1c46c	-0.027559482
94	0x3e07f958	0.13278711
95	0xbd4a2642	-0.04935289
96	0xbdbf0c41	-0.09328509
97	0x3dcf811b	0.10132047
98	0x3d970b2c	0.07375178
99	0x3d51d510	0.051228583
100	0xbdbdd998	-0.09270018
101	0xbd69f89e	-0.057121865
102	0xbd47cc03	-0.048778545
103	0xbb930e0f	-0.00448776
104	0x3d9778a4	0.07396057
105	0x3d8706ae	0.06593071
106	0xbd07aad9	-0.033121917
107	0x3b10b29e	0.002207912
108	0x3dc028a7	0.09382754
109	0xbdde0579	-0.108408876
110	0xbde2194f	-0.110399835
111	0x3c33fe9c	0.010985997
112	0xbd8edc46	-0.069756076
113	0xbd363ad7	-0.044489708
114	0x3d227209	0.039659534
115	0xbe140f4a	-0.14458957
116	0xbd6a2481	-0.05716372
117	0x3d27a233	0.04092617
118	0xbe00d909	-0.12582792
119	0x3db3804e	0.087647066
120	0x3dc8a7b7	0.09797614
121	0x3de5276d	0.111891605
122	0x3d097005	0.033554096
123	0xbdaa6400	-0.08319855
124	0xbb7bb2e3	-0.0038406185
125	0x3ddfff51	0.109373696
126	0xbd04ef61	-0.032454852
127	0x3ca082e2	0.01959366
128	0x3cac75aa	0.0210522
129	0xbd93c04b	-0.07214411
130	0xbd449a16	-0.04799851
131	0xbe0de8d6	-0.13858351
132	0x3dd4eddb	0.1039693
133	0x3de76be3	0.11299875
134	0xbdf35562	-0.1188152
135	0x3e1868de	0.14883754
136	0x3d9900de	0.074708685
137	0xbd56738b	-0.052356284
138	0x3d02d696	0.031942926
139	0xbd4790c7	-0.048722055
140	0x3de7535d	0.11295197
141	0x3d9d7da9	0.076899834
142	0xbd47f398	-0.048816293
143	0xbdfd41d3	-0.123660706
144	0x3dcebd2a	0.10094674
145	0xbdfe2354	-0.12409082
146	0x3d471399	0.048602674
147	0xbda7ec6c	-0.08199391
148	0xbb419186	-0.0029536202
149	0xbde54a25	-0.111957826
150	0xbd6e0c61	-0.058117274
151	0xbd876c6b	-0.06612476
152	0xbd7dfc36	-0.062008105
153	0xbddd89d6	-0.10817306
154	0xbd7b41e2	-0.061342128
155	0x3dd32538	0.10309833
156	0xbdb76815	-0.08955399
157	0x3d4e248e	0.05032783
158	0xbdaff041	-0.08590747
159	0xbbbb809a	-0.0057221176
160	0xbddbef3b	-0.10738989
161	0xbc53203d	-0.012886104
162	0x3d86368f	0.06553375
163	0x3dfe50fa	0.12417789
164	0xbd90df13	-0.07073798
165	0x3daf6267	0.08563691
166	0xbde6909a	-0.11258049
167	0x3d7f87f3	0.06238551
168	0xbdbc5d46	-0.09197478
169	0xbdde0b40	-0.108419895
170	0xbd9c552b	-0.07633432
171	0x3cc619d3	0.024182236
172	0x3ca0cdc4	0.019629367
173	0x3d8c8769	0.06861765
174	0xbdbcb0a7	-0.09213381
175	0x3d327bcb	0.04357509
176	0xbde697d7	-0.1125943
177	0xbb74f0e8	-0.0037375037
178	0xbd506a8b	-0.050882857
179	0x3de8ea62	0.1137283
180	0x3ce3c3b2	0.027803276
181	0xbda3ef8e	-0.08004676
182	0xbdb7fdb3	-0.08983936
183	0xbda28212	-0.07934965
184	0x3d1834e1	0.037159804
185	0x3cb895c8	0.022532359
186	0x3e121fe0	0.14269972
187	0x3d81b1f2	0.063327685
188	0xbcea2e3b	-0.028586498
189	0xbe083ac2	-0.13303664
190	0xbc231b4a	-0.009955237
191	0xbdb1644f	-0.086617105
192	0xbdca00db	-0.098634444
193	0x3d45e055	0.048309643
194	0x3c9e2ee2	0.019309465
195	0xbd982144	-0.0742822
196	0x3d499545	0.04921462
197	0x3db99ebc	0.09063479
198	0x3cd7f40e	0.026361492
199	0x3d82b0d0	0.063813806
200	0x3d6b3286	0.05742123
201	0x3ddaf6c4	0.10691598
202	0x3dc519b1	0.09624041
203	0x3d3d6a81	0.04624415
204	0xbde82058	-0.11334294
205	0xbde00a46	-0.109394595
206	0xbdfbc1a2	-0.12292792
207	0xbd166c44	-0.036724344
208	0xbd9032c9	-0.070409365
209	0x3d0e8603	0.034795772
210	0x3db791a5	0.08963326
211	0x3d5a5484	0.053303257
212	0xbd57dc12	-0.05270011
213	0x3caa1600	0.020762444
214	0x3d7e6791	0.062110487
215	0x3da0d04c	0.078522295
216	0x3d643aa1	0.055719975
217	0xbdc94404	-0.09827426
218	0x3dbeb327	0.09311514
219	0xbc78d165	-0.015186642
220	0xbda20769	-0.079115696
221	0x3dc914d9	0.098184295
222	0xbdd818f4	-0.105516344
223	0xbe09715b	-0.13422148
224	0xbe0ba34b	-0.1363651
225	0x3d4d0bf2	0.05006022
226	0xbc3c8859	-0.011507117
227	0xbd104228	-0.03521934
228	0x3d9cedef	0.0766257
229	0x3d8201b2	0.063479796
230	0xbb29da9c	-0.0025917655
231	0xbd9bdc68	-0.076103985
232	0x3d4d76b8	0.050162047
233	0xbdd211bc	-0.10257289
234	0x3cdee3df	0.027208267
235	0xbd614235	-0.05499478
236	0xbdcb4682	-0.09925558
237	0xbdf7c67b	-0.12098404
238	0x3d294010	0.04132086
239	0x3d88afd2	0.0667416
240	0xbd913a0b	-0.07091149
241	0xbe0f695d	-0.14005037
242	0xbcdd614a	-0.02702393
243	0x3d6d4533	0.05792732
244	0x3ddbd390	0.10733712
245	0xbcb0c553	-0.021578467
246	0x3e0aace1	0.1354251
247	0xbd4f6f18	-0.050643057
248	0xbe00dfa0	-0.12585306
249	0x3d663cbf	0.056210276
250	0x3dad267d	0.08454607
251	0x3ca4cd39	0.020117389
252	0xbd2922ed	-0.041293073
253	0x3cba29a2	0.02272493
254	0xbc76b880	-0.015058637
255	0x3cce2111	0.025162252

lstm.weight_hh_l0 f4 [256, 64]
0	0xbd3138fb	-0.04326723
1	0x3dad8a65	0.08473662
2	0x3d2e6c53	0.042583775
3	0x3e117ee8	0.14208567
4	0xbbea2253	-0.007145205
5	0xbe027148	-0.12738526
6	0x3cf4f873	0.029903626
7	0x3c817b57	0.015805883
8	0x3c15a1ec	0.009132843
9	0xbcc0d1a9	-0.023537474
10	0x3d938ea2	0.072049394
11	0x3b2b267c	0.0026115468
12	0xbd26d97f	-0.040734764
13	0xbbf62b90	-0.0075125173
14	0xbdba01e2	-0.0908239
15	0x3c5625a4	0.013070498
16	0xbda44d36	-0.08022539
17	0xbbc8484a	-0.006112133
18	0x3daf2b59	0.0855319
19	0xbe0087b5	-0.12551768
20	0x3cb82322	0.02247769
21	0xbdaff564	-0.085917264
22	0x3cba902b	0.022773823
23	0x3e007695	0.12545235
24	0xbdcbb24a	-0.09946115
25	0xbc19bb3a	-0.009383017
26	0x3d02c08a	0.0319219
27	0xbcd9d8e6	-0.026592683
28	0xbde4fae8	-0.11180669
29	0xbd0a36a9	-0.033743534
30	0xbdc8bf58	-0.09802121
31	0x3d934cdb	0.071923934
32	0x3c9dee18	0.019278571
33	0xbdaa8b31	-0.0832733
34	0x3de21a56	0.110401794
35	0xbd9457a2	-0.07243277
36	0x3d929df1	0.07159031
37	0xbdb2d18e	-0.08731376
38	0x3dc4e018	0.09613055
39	0xbbfbf115	-0.0076886513
40	0xbd803152	-0.06259407
41	0x3d8bcf5a	0.068266585
42	0xbdc897eb	-0.09794601
43	0xbe0d10fc	-0.1377601
44	0x3dac1ace	0.0840355
45	0xbb64bf70	-0.0034904145
46	0x3b5d323e	0.003375187
47	0xbdc5e859	-0.096634574
48	0x3cd4aee5	0.025962302
49	0xbd7ca979	-0.06168506
50	0xbdcbb17b	-0.09945961
51	0x3ccad5a0	0.024760067
52	0x3dce4544	0.10071805
53	0x3c87f5ab	0.016596636
54	0xbcb8af0e	-0.02254441
55	0xbe02fb03	-0.12791066
56	0xbc418608	-0.011811741
57	0x3b79445a	0.0038035125
58	0x3bab690d	0.005231029
59	0x3ddfde38	0.10931057
60	0x3ddc7230	0.10763967
61	0x3d96abe0	0.07357001
62	0x3cef80d9	0.029236244
63	0xbd1379bd	-0.03600477
64	0x3da07242	0.07834293
65	0x3dd2d252	0.10294022
66	0x3d15ab59	0.036540363
67	0xbd1517ea	-0.03639976
68	0x3b5bd1ac	0.0033541722
69	0x3d87816c	0.06616482
70	0x3e150ab4	0.14554864
71	0xbdc20ef3	-0.094755076
72	0x3de991a2	0.114047304
73	0xbd232b36	-0.03983613
74	0x3db0ccbc	0.086328
75	0xbbc83eb4	-0.0061109904
76	0xbd252da2	-0.040326722
77	0xbcac578d	-0.021037841
78	0xbd9f79ba	-0.077868894
79	0x3d18114d	0.037125874
80	0x3d69c226	0.05706992
81	0x3cb210b5	0.021736482
82	0x3bc59eb4	0.006030882
83	0x3bde2e6f	0.0067804377
84	0x3d8f5733	0.06999054
85	0xbe033b34	-0.12815553
86	0xbd8f99eb	-0.070117794
87	0x3dda62be	0.10663365
88	0xb90d1acc	-0.0001345679
89	0x3dea1dc2	0.11431457
90	0xbe0c4922	-0.13699773
91	0x3e03e1fb	0.12879173
92	0x3dbcdff9	0.09222407
93	0xbd9b6815	-0.075882114
94	0xbe08a12d	-0.13342734
95	0xbdaf9912	-0.08574118
96	0xbd4b16d8	-0.049582332
97	0xbd8f0b99	-0.06984634
98	0x3ca04191	0.019562514
99	0x3dc470d1	0.095918305
100	0x3dbd7b26	0.09252004
101	0xbe0016dc	-0.1250872
102	0xbd4fdba7	-0.050746586
103	0xbd351927	-0.04421344
104	0x3e074e81	0.1321354
105	0x3cd266cb	0.025683781
106	0x3dbc0e3a	0.09182401
107	0x3af0efbd	0.0018381994
108	0x3d2a34ba	0.04155419
109	0xbd3dd41c	-0.04634486
110	0x3d73e78d	0.059546996
111	0x3bd72583	0.006565751
112	0xbd91eef6	-0.07125656
113	0x3d60473a	0.054755427
114	0xbd626360	-0.055270553
115	0x3cbf4945	0.023350367
116	0x3d109d2a	0.035306133
117	0x3d7f2d05	0.062298793
118	0x3cf7daf0	0.030255765
119	0x3d55dae0	0.05221069
120	0x3c1b2408	0.00946904
121	0x3d318af7	0.043345418
122	0x3d044549	0.032292638
123	0x3d0adfc0	0.03390479
124	0x3d76800a	0.0601807
125	0x3e0483a2	0.12940839
126	0xbdfd6276	-0.123722956
127	0x3d4e1ce6	0.05032053
128	0xbc5cd373	-0.013478148
129	0xbcca4010	-0.02468875
130	0x3dc4f969	0.09617884
131	0xbcebe1b5	-0.028794149
132	0x3dcdc615	0.10047547
133	0xbcbb6ed5	-0.022879997
134	0xbbc47d4a	-0.005996381
135	0x3bf539d8	0.007483702
136	0x3e09ba61	0.13450004
137	0x3b8c969a	0.004290414
138	0x3c0e9afd	0.008703944
139	0xbd928ced	-0.07155786
140	0xbdb65283	-0.089024566
141	0x3d5446fb	0.051825505
142	0x3d812e56	0.06307666
143	0xbdd9958a	-0.106242254
144	0xbc05b63a	-0.008161122
145	0x3d333779	0.043754075
146	0x3d4855b1	0.048909847
147	0x3c509f80	0.01273334
148	0xbdfca8e6	-0.12336902
149	0xbd55f9b5	-0.052240092
150	0xbdf1bc1f	-0.118034594
151	0x3d7c43d0	0.06158811
152	0x3cefeef9	0.029288756
153	0x3c903da7	0.017607523
154	0xbd816631	-0.063183196
155	0x3e054e01	0.13018037
156	0x3db9d7d5	0.0907437
157	0x3dfe300c	0.12411508
158	0xbcac38f1	-0.021023246
159	0x3c467e8e	0.012115134
160	0xbd04d97b	-0.032433968
161	0x3d29adca	0.041425504
162	0x3d53a4a6	0.051670693
163	0x3dded4e1	0.10880447
164	0xbcce9fda	-0.025222708
165	0xbd99658a	-0.0749007
166	0xbe10f44f	-0.14155696
167	0x3dc6d351	0.09708274
168	0x3dcc3fae	0.099730834
169	0xbd53d555	-0.05171712
170	0x3d5ff2aa	0.05467478
171	0x3dbd7a4f	0.09251844
172	0xbd2c2a9f	-0.042032834
173	0x3daf1260	0.08548427
174	0xbdb34922	-0.08754183
175	0xbd39f052	-0.045395203
176	0x3da43ab6	0.08019011
177	0xbd52caa6	-0.05146279
178	0xbd70f371	-0.058825914
179	0x3c7a536c	0.015278678
180	0xbd4a4d45	-0.049390096
181	0x3b0f4a9b	0.0021864537
182	0xbce8323e	-0.02834427
183	0x3cf3d5e1	0.029765071
184	0xbdbe85eb	-0.093028866
185	0x3dd33dd2	0.10314526
186	0x3cda953f	0.026682494
187	0x3d83e060	0.064392805
188	0xbd3b355c	-0.045705184
189	0xbdd87595	-0.10569302
190	0x3cf1cefa	0.02951764
191	0x3dde1663	0.10844114
192	0xbd2f3df3	-0.04278369
193	0xbd884de9	-0.06655485
194	0x3c967501	0.018366339
195	0x3e10ee38	0.14153373
196	0xbc281e1d	-0.010261086
197	0xbd10bcbc	-0.03533624
198	0x3da71fd8	0.081603706
199	0xbbfd628a	-0.007732694
200	0xbd43aa41	-0.04776979
201	0xbb9b2e82	-0.004735769
202	0xbd93c817	-0.072158985
203	0xbd72af03	-0.059248935
204	0xbd4f4cd0	-0.050610363
205	0xbce21a55	-0.027600447
206	0x3de589a5	0.11207894
207	0xbcdc624a	-0.026902337
208	0xbdafb015	-0.08578507
209	0xbd3f246c	-0.046665594
210	0x3d032a7c	0.032022938
211	0xbe0cf317	-0.13764606
212	0xbe0d7554	-0.13814288
213	0xbc1f9233	-0.009739446
214	0x3d091eec	0.033476755
215	0xbccd4ff4	-0.025062539
216	0x3d92d62f	0.071697585
217	0x3d873dd3	0.06603589
218	0xbd238724	-0.039923802
219	0xbca3eaba	-0.020009387
220	0xbda9b142	-0.08285762
221	0x3df2d02f	0.11856114
222	0x3c6cedc4	0.014460985
223	0xbd957f2d	-0.072996475
224	0xbe1c4e5e	-0.1526427
225	0xbc303e41	-0.01075703
226	0x3c8072f5	0.015679816
227	0xbd12ffff	-0.03588867
228	0x3da005f1	0.07813633
229	0xbe11ed21	-0.14250614
230	0xbd308344	-0.043093935
231	0xbc1450e8	-0.009052493
232	0xbd03be05	-0.03216364
233	0xbc3ee1e9	-0.011650541
234	0xbcb0415d	-0.021515543
235	0x3da605e1	0.0810659
236	0xbddc5907	-0.10759168
237	0x3d219512	0.039448805
238	0xbdd3ed78	-0.10348028
239	0x3dbe7a60	0.09300685
240	0xbdb39403	-0.08768465
241	0xbd9a7345	-0.07541517
242	0xbd71e1a3	-0.059053075
243	0xbdfdcbea	-0.12392409
244	0x3da4d859	0.080490775
245	0xbc344b0e	-0.011004223
246	0x3d6eaae8	0.058268458
247	0xbe0ebb17	-0.13938557
248	0x3db67725	0.08909444
249	0xbe0b1f72	-0.13586214
250	0x3dbbda58	0.09172505
251	0xbca5ef92	-0.020255838
252	0xbd63827c	-0.05554436
253	0x3bff507a	0.007791576
254	0xbe0b5c39	-0.13609399
255	0xbd4da519	-0.050206278

lstm.bias_ih_l0 f4 [256]
0	0x3d9f047e	0.07764529
1	0x3cb06ed0	0.021537215
2	0xbdcb1536	-0.09916155
3	0x3ddab194	0.106784016
4	0x3c8f2b3d	0.017476672
5	0xbbd76d0e	-0.0065742796
6	0x3da56e8e	0.08077727
7	0xbd8b3d09	-0.06798751
8	0x3dad003a	0.08447309
9	0xbdd27d92	-0.10277857
10	0x3c1c26eb	0.009530763
11	0x3ccecddd	0.025244648
12	0x3c356930	0.011072442
13	0xbd91ae2f	-0.07113301
14	0x3df4bbb9	0.11949868
15	0xbdbe93a7	-0.09305506
16	0xbd9f93b5	-0.07791845
17	0xbdad680d	-0.08467112
18	0xbc14ae47	-0.009074754
19	0x3da43c50	0.08019316
20	0x3d67458d	0.056462813
21	0x3dbc31ae	0.09189163
22	0x3dcfd385	0.10147766
23	0x3cc3de10	0.023909599
24	0x3df79af0	0.12090099
25	0xbd4400a9	-0.047852192
26	0xbcba84c8	-0.022768393
27	0x3d18a0d9	0.03726277
28	0xbc1dcefb	-0.0096318675
29	0x3d304ad3	0.043040108
30	0x3c7d8ddd	0.015475717
31	0x3dcd9ad5	0.100392975
32	0x3dbb30d4	0.091401726
33	0xbab5dba8	-0.0013874667
34	0x3d19b606	0.037527107
35	0x3c1b4803	0.009477618
36	0x3be4fc0c	0.006988054
37	0x3d908081	0.0705576
38	0x3dacdb9d	0.084403254
39	0xbd81c1fb	-0.06335827
40	0x3aeec556	0.001821677
41	0x3c30d34c	0.010792565
42	0x3d8189f3	0.0632514
43	0xbd7f0045	-0.062256116
44	0x3bf5d3bf	0.0075020487
45	0x3cb6c44d	0.0223104
46	0xbdc50243	-0.09619572
47	0x3db391b1	0.08768023
48	0xbd4563ce	-0.048190884
49	0x3c196519	0.0093624825
50	0x3daf3be7	0.08556347
51	0xbd177600	-0.036977768
52	0xbdcabfe4	-0.098998815
53	0x3d59e331	0.053195182
54	0xbce271d9	-0.027642177
55	0x3e162ca4	0.14665467
56	0x3d524012	0.051330633
57	0x3dfead6d	0.12435422
58	0xbd267990	-0.040643275
59	0x3cc322e4	0.023820348
60	0x3e0ae243	0.13562874
61	0xbccb3bd8	-0.02480881
62	0xbd6ce9c5	-0.057840127
63	0xbdd5fd23	-0.104486726
64	0xbde6f925	-0.11277989
65	0xbdd397de	-0.10331701
66	0xbd18652f	-0.03720587
67	0x3d190fac	0.03736846
68	0x3dcc2d2c	0.09969553
69	0xbd6ff5f8	-0.058584183
70	0x3d68f9fa	0.05687902
71	0x3dd53e84	0.104123145
72	0x3db6d0a6	0.08926515
73	0x3d025b84	0.031825557
74	0x3d5b0551	0.053471867
75	0x3d6cabd9	0.057781074
76	0xbdaa956e	-0.08329283
77	0x3db143c2	0.08655502
78	0xbd92c27e	-0.07166003
79	0xbc8f1740	-0.017467141
80	0x3e0178e9	0.1264378
81	0xbd0dbeae	-0.034605674
82	0xbca6538a	-0.020303506
83	0x3d915376	0.07095997
84	0xbd9e62aa	-0.077336624
85	0x3d92ae89	0.07162196
86	0x3dc821a0	0.097720385
87	0x3cf6ec56	0.03014199
88	0x3a6ab71f	0.0008953679
89	0xbdba6ea3	-0.091031335
90	0xbc0c189e	-0.008550791
91	0xbd72c5c7	-0.059270646
92	0x3ae2b032	0.0017294942
93	0xbc1fa42a	-0.00974373
94	0x3d2941b5	0.04132243
95	0x3d67d11e	0.056595914
96	0xbc342bfb	-0.010996814
97	0xbd76260f	-0.06009489
98	0x3ddb920a	0.10721214
99	0xbd910b7f	-0.07082271
100	0xbd93a65c	-0.07209465
101	0x3a84ded1	0.0010137205
102	0xbc91700f	-0.017753629
103	0x3e052185	0.13001068
104	0xbd96a2f7	-0.07355302
105	0x3d2ac042	0.041687258
106	0x3e18a624	0.14907128
107	0x3c2a7517	0.010403893
108	0x3e0c25c4	0.13686281
109	0x3cb8af4f	0.022544531
110	0xbde1f532	-0.110330954
111	0x3c06df99	0.008232021
112	0x3d7f7f8a	0.06237749
113	0xbdcfc3c3	-0.101447605
114	0xbdaf8689	-0.085705824
115	0x3ddc050c	0.1074315
116	0x3dc22583	0.09479811
117	0xbd6a2044	-0.057159677
118	0x3dfae274	0.12250224
119	0x3d72a6f0	0.059241235
120	0x3d37379c	0.044730768
121	0xbd92f3fa	-0.07175441
122	0xbd7f0585	-0.062261123
123	0xbd3032bb	-0.04301713
124	0x3cb15cf9	0.021650778
125	0x3b72efba	0.0037069158
126	0xbdad921b	-0.08475133
127	0xbbc42115	-0.005985389
128	0x3d549f8d	0.051909972
129	0xbe0114ad	-0.12605543
130	0xbcc5b284	-0.024132974
131	0x3d1b4bf4	0.03791423
132	0xbde9166c	-0.1138123
133	0xbe172383	-0.1475964
134	0x3db0e7d4	0.08637968
135	0xbd9b3985	-0.0757933
136	0x3dc3a18a	0.095522955
137	0xbdf52b59	-0.119711585
138	0xbd87fe17	-0.06640261
139	0xbc306887	-0.010767109
140	0x3ddfd76c	0.1092976
141	0x3d21c3af	0.03949326
142	0x3d13f40f	0.036121424
143	0x3d6eb645	0.058279295
144	0x3d0b4d78	0.034009427
145	0x3d6c8c2d	0.05775087
146	0x3d2a7ebd	0.041624773
147	0xbd6dccf6	-0.058056794
148	0x3d63e534	0.055638507
149	0xbde0ce10	-0.10976803
150	0xbd1a6372	-0.037692495
151	0x3dedbd29	0.11608345
152	0xbce9dd8c	-0.028548025
153	0xbc62a5f3	-0.013833511
154	0xbc09c49d	-0.008408693
155	0x3daec76b	0.0853413
156	0xbe063d1d	-0.1310925
157	0x3dc9ead4	0.09859243
158	0xbd568877	-0.052376237
159	0xbc0aa302	-0.008461716
160	0x3d60ceab	0.054884594
161	0xbdef831e	-0.116949305
162	0xbdadd6c0	-0.08488226
163	0x3ddd07d1	0.107925065
164	0xbd1b3866	-0.037895583
165	0x3cef5489	0.029215114
166	0xbd2e8e64	-0.042616263
167	0x3dbbf227	0.09177046
168	0x3d362ce7	0.044476416
169	0x3e131b51	0.14365889
170	0x3baec107	0.0053330692
171	0xbdccdf6d	-0.100035526
172	0xbe1c45aa	-0.1526095
173	0xbcbd221a	-0.02308755
174	0xbdef53b1	-0.11685885
175	0xbc9adc63	-0.018903917
176	0x3dc2d6d5	0.09513632
177	0xbc98c739	-0.018649684
178	0xbe1c2fa4	-0.15252548
179	0xbe15d16d	-0.14630671
180	0xbc857624	-0.016291685
181	0xbd0d2297	-0.034456816
182	0x3c48450f	0.012223496
183	0xbdd436ef	-0.1036204
184	0x3dbdb899	0.09263725
185	0xbdb997de	-0.090621695
186	0x3db8adf7	0.09017556
187	0x3dc33d44	0.0953317
188	0xbdddc74b	-0.10829028
189	0x3e096e6d	0.1342103
190	0xbe1819fd	-0.14853664
191	0x3da362d3	0.079778336
192	0xbbd5c471	-0.006523662
193	0xbd4052f2	-0.046954103
194	0x3baf473f	0.0053490694
195	0x3d3c9fdd	0.046050895
196	0xbc854f6c	-0.016273223
197	0x3dbbdec5	0.09173349
198	0x3e176ac9	0.14786829
199	0x3e133feb	0.14379852
200	0xbdb49673	-0.088177584
201	0xb9bd0306	-0.00036051142
202	0x3dd07d01	0.101800926
203	0xba8f960c	-0.0010954752
204	0x3d879b7d	0.06621454
205	0xbd819457	-0.06327122
206	0xbdae9f4f	-0.085264795
207	0xbd7803c6	-0.060550474
208	0x3d760458	0.060062736
209	0xbda33282	-0.07968618
210	0xbc760171	-0.015014992
211	0xbd117580	-0.035512447
212	0xbd41beb1	-0.047300998
213	0xbda6cbc7	-0.08144336
214	0xbcc1adce	-0.023642447
215	0x3da31d00	0.07964516
216	0xbb845c94	-0.0040393565
217	0xbcd9ab77	-0.026571019
218	0x3d149e25	0.03628363
219	0x3d2cc285	0.042177696
220	0x3d912fc4	0.07089189
221	0xbd6dd1c3	-0.058061372
222	0xbde47a39	-0.111561246
223	0xbde12c4f	-0.10994779
224	0xbc65fd4f	-0.014037444
225	0x3de2d433	0.1107563
226	0x3db87c3e	0.09008072
227	0xbd00781e	-0.031364553
228	0x3d112924	0.035439625
229	0x3db5cc6e	0.088768825
230	0x3dfb8c7b	0.12282654
231	0x3cffa3c8	0.031206027
232	0x3dd120b7	0.10211318
233	0xba78c2a6	-0.0009489454
234	0x3d69e478	0.05710265
235	0xbd85046e	-0.064949855
236	0xbda3e607	-0.080028586
237	0x3dbae205	0.09125141
238	0x3d94fa46	0.07274298
239	0x3b97a0e0	0.004627332
240	0xbd5a6c7f	-0.053326126
241	0x3dfb235d	0.122626044
242	0xbd668699	-0.056280706
243	0xbcec097b	-0.028813114
244	0xbcf3f927	-0.029781891
245	0x3cb9fce2	0.022703592
246	0xbd85a716	-0.0652601
247	0xbd004c03	-0.03132249
248	0xbcbd0564	-0.02307386
249	0x3e0a8398	0.13526762
250	0x3d00ef76	0.031478368
251	0x3ad35b62	0.0016125257
252	0xbd298c39	-0.041393492
253	0xbdadac16	-0.084800884
254	0x3df52c05	0.11971287
255	0x3cc3667f	0.023852585

lstm.bias_hh_l0 f4 [256]
0	0x3d75c765	0.06000461
1	0xbcf7775b	-0.03020828
2	0xbd912420	-0.070869684
3	0xbbeb81ee	-0.0071871197
4	0xbd1002f5	-0.03515907
5	0x3e188cd5	0.14897473
6	0xbd3d9ede	-0.046294086
7	0x3db797b3	0.08964481
8	0x3db49bb3	0.0881876
9	0x3d262c5b	0.040569644
10	0x3dd4c93f	0.10389947
11	0xbdb4e17e	-0.08832072
12	0xbbe2d406	-0.006922248
13	0xbc544d86	-0.012957936
14	0x3d8bef67	0.06832772
15	0x3d8a38a4	0.067490846
16	0xbd0090fb	-0.031388264
17	0xbd371f6d	-0.044707704
18	0xbd5979c4	-0.05309464
19	0x3de79b7f	0.113089554
20	0xbd8e4e29	-0.069485016
21	0x3cabac60	0.020956218
22	0x3de8e631	0.113720305
23	0x3da2ea4d	0.079548456
24	0x3d227409	0.03966144
25	0xbca7e874	-0.020496584
26	0xbd023f18	-0.031798452
27	0xbd866792	-0.06562723
28	0x3d485525	0.048909325
29	0x3d01b4b4	0.031666473
30	0x3d530a32	0.051523395
31	0x3db46d8d	0.08809958
32	0xbd6dc96f	-0.05805343
33	0x3dd25278	0.10269636
34	0x3d09623d	0.033540953
35	0x3cf36528	0.029711321
36	0x3be9f4ac	0.007139763
37	0x3db0ca3c	0.08632323
38	0x3da8e73f	0.08247232
39	0x3dfe2ab5	0.124104895
40	0x3cb5f3be	0.022210952
41	0xba16af77	-0.0005748192
42	0xbd168060	-0.03674352
43	0xbdaaa207	-0.083316855
44	0x3df04cab	0.11733373
45	0x3daa7de2	0.083247915
46	0x3c8ad09e	0.01694518
47	0x3da0d647	0.0785337
48	0x3c402f80	0.011730075
49	0xbc5d70a5	-0.013515626
50	0x3e038375	0.12843116
51	0xbda3aaad	-0.07991538
52	0x3dab2fe2	0.08358742
53	0x3dca2d6e	0.09871946
54	0xbc925cd6	-0.017866533
55	0x3d373484	0.044727817
56	0x3dfb395f	0.12266802
57	0xbd73ca27	-0.05951896
58	0x3e1be26e	0.15223095
59	0x3c86b31b	0.016442826
60	0x3ca20bcc	0.019781016
61	0x3d8737fc	0.06602475
62	0xbd1ced10	-0.038312018
63	0x3dd9b849	0.10630853
64	0xbdadc87b	-0.08485504
65	0x3d722bea	0.05912391
66	0x3cd91482	0.026499037
67	0x3d973751	0.07383598
68	0x3d8dccd4	0.069238335
69	0x3d75f54c	0.060048386
70	0xbd9c30c9	-0.076264925
71	0x3dfe9480	0.12430668
72	0x3dab1a8c	0.08354673
73	0x3c91ddb0	0.017805904
74	0xbd842c49	-0.06453759
75	0xbd8c9476	-0.06864254
76	0x3ce5b701	0.028041365
77	0x3c70eb1e	0.014704494
78	0x3da507a5	0.08058099
79	0x3cc95ce5	0.024580428
80	0xbd5a443a	-0.053287722
81	0xbd427e7a	-0.0474839
82	0xbd9c80aa	-0.07641728
83	0xbd76f6ef	-0.060294088
84	0xbdc01f3e	-0.09380959
85	0x3cf1fac0	0.029538512
86	0x3ddb6312	0.107122555
87	0xbdc0c23d	-0.09412048
88	0x3c98e0f9	0.018661963
89	0xbd82900f	-0.06375133
90	0x3e0c1a16	0.13681826
91	0x3d9b4e56	0.07583301
92	0xbdd61f16	-0.10455148
93	0xbcd57f67	-0.026061727
94	0xbce03069	-0.027366834
95	0x3c37d728	0.011220731
96	0x3d878613	0.066173695
97	0xbd5e1bcf	-0.05422574
98	0xbdf9be8c	-0.12194547
99	0x3dc72941	0.097246654
100	0xbdf529df	-0.11970877
101	0xbcd289e8	-0.025700524
102	0x3d8843d9	0.06653566
103	0x3abd9a0e	0.0014465468
104	0x3d43982a	0.047752537
105	0xbce71633	-0.028208828
106	0x3bf60961	0.0075084423
107	0x3d82aa15	0.06380097
108	0xbdb63106	-0.08896069
109	0x3cfb0478	0.03064178
110	0x3c92aee4	0.01790566
111	0xbdab72e7	-0.08371525
112	0x3dfdf3cc	0.12400016
113	0x3bba964e	0.0056941872
114	0xbdb61621	-0.088909395
115	0x3d9008b0	0.07032907
116	0x3dc03d7f	0.093867294
117	0x3c668fb9	0.014072352
118	0xbc5b2b1d	-0.013376978
119	0x3be4fd9f	0.006988242
120	0x3dc6e010	0.09710705
121	0x3c127434	0.008938838
122	0x3ca1e108	0.019760624
123	0xbda01165	-0.07815818
124	0xbc468581	-0.012116791
125	0xbdd194c0	-0.1023345
126	0x3d0740f0	0.033020914
127	0x3e000d9a	0.12505189
128	0x3da146fd	0.07874868
129	0x3d323945	0.043511648
130	0x3c031ac7	0.00800199
131	0x3dab15ff	0.08353805
132	0xbd899945	-0.06718687
133	0xbd8373e2	-0.06418587
134	0x3bd17574	0.0063921753
135	0xbe0702dc	-0.13184685
136	0x3d052d4d	0.032513905
137	0xbdf1f5bd	-0.11814449
138	0x3e15883f	0.14602755
139	0x3da17158	0.07882947
140	0x3dbb6510	0.091501355
141	0xbd61c27d	-0.05511712
142	0xbb30721a	-0.0026923479
143	0xbdbe77d8	-0.09300202
144	0xbdfb86b1	-0.1228155
145	0xbdd128f5	-0.1021289
146	0xbe1279b2	-0.14304236
147	0xbe143092	-0.14471653
148	0xbe0b53c9	-0.1360618
149	0xbd57d7e3	-0.05269612
150	0x3be18a2b	0.006882926
151	0xbd156f18	-0.0364829
152	0xbcf79804	-0.030223854
153	0xbc42fdd1	-0.011901335
154	0xbd04526e	-0.032305174
155	0x3d412f7a	0.047164418
156	0x3cf9814e	0.030457165
157	0x3cb4d6dc	0.02207511
158	0xbd62c4cb	-0.055363458
159	0xbdc25194	-0.09488216
160	0xbe12eb52	-0.1434758
161	0x3d09f59d	0.0336815
162	0x3cda8ff4	0.02667997
163	0x3d06a540	0.03287244
164	0x3cad87fc	0.021183006
165	0xbe009160	-0.12555456
166	0xbdf2f090	-0.1186229
167	0xbd82ce25	-0.06386975
168	0x3cee9636	0.02912436
169	0x3dc80f2c	0.09768519
170	0x3dad4196	0.08459775
171	0x3d833be1	0.06407905
172	0x3d3cc453	0.046085667
173	0xbdcd8e67	-0.10036927
174	0xbdc9f025	-0.09860257
175	0x3d383e45	0.04498126
176	0xbceac449	-0.02865805
177	0x3db04ef0	0.08608806
178	0x3d1c5bd1	0.0381735
179	0xbd276635	-0.040868957
180	0x3cc6487d	0.024204487
181	0x3c4d4697	0.012529037
182	0x3cf01778	0.029308066
183	0xbde53abb	-0.111928426
184	0xbdd6c603	-0.104869865
185	0xbc9651d8	-0.018349573
186	0x3cdf62cd	0.027268792
187	0x3b9c2d73	0.00476616
188	0xbd0c5c51	-0.034267727
189	0x3de91147	0.113802485
190	0x3cc96008	0.024581924
191	0xbe03bdb1	-0.1286533
192	0xbd2f53ed	-0.042804647
193	0xbd9ab23c	-0.07553527
194	0xbdd11a1d	-0.10210059
195	0x3c806e80	0.01567769
196	0xbd9a4384	-0.07532409
197	0x3e0bcd35	0.13652499
198	0xbcdcda31	-0.02695951
199	0x3dc3fd6d	0.095698215
200	0x3c5eb8b3	0.01359384
201	0x3dedf0b7	0.11618178
202	0xbd9c32df	-0.076268904
203	0x3cf557b6	0.02994905
204	0xbd16c696	-0.03681048
205	0xbd7f561d	-0.062337983
206	0xbd3d1fef	-0.046173032
207	0xbdbb4c58	-0.09145421
208	0x3d3803cc	0.044925496
209	0x3c9179fa	0.017758358
210	0xbd8c7fd0	-0.06860316
211	0xbd0d5081	-0.034500603
212	0x3d5d802d	0.054077316
213	0x3e10ba82	0.14133647
214	0x3dd93636	0.10606043
215	0xbde1286f	-0.1099404
216	0x3dd64446	0.10462241
217	0xbc95181d	-0.018199975
218	0x3d82f209	0.06393821
219	0x3e004f8b	0.12530343
220	0x3d04ebd3	0.032451462
221	0x3cd6b029	0.026207047
222	0x3dd09465	0.10184554
223	0x3bac9028	0.005266208
224	0xbc996eff	-0.018729685
225	0xbd95abaf	-0.07308137
226	0x3db4bc62	0.08824994
227	0xbd947783	-0.072493576
228	0xbd652ac2	-0.05594898
229	0x3df7f72e	0.12107693
230	0x3d656cd3	0.056011986
231	0xbd3c0f18	-0.045912832
232	0x3da3da6b	0.08000644
233	0xbd839f9f	-0.0642693
234	0x3cabcd01	0.020971777
235	0xbc66a679	-0.014077776
236	0x3d1ea4a7	0.038731243
237	0xbc99c8c0	-0.018772483
238	0xbdc9d459	-0.09854955
239	0x3d7af74e	0.061271004
240	0xbd51130f	-0.051043566
241	0x3de92cb1	0.11385477
242	0xbda4321b	-0.08017369
243	0xbd90e1e3	-0.070743345
244	0xbce47a39	-0.027890312
245	0xbc7b68e3	-0.015344831
246	0x3dd684a6	0.104745194
247	0xbdb42308	-0.08795744
248	0xbbd38707	-0.0064553055
249	0xbd623b43	-0.055232298
250	0xbcadf21c	-0.02123361
251	0xbd82873d	-0.06373451
252	0x3dc642f4	0.09680739
253	0xbcbbde87	-0.022933258
254	0xbd7a1b4f	-0.0610612
255	0xbd004d6d	-0.03132384

fc.weight f4 [8, 64]
0	0xbd7f9565	-0.062398333
1	0x3d65e427	0.056125786
2	0xbdb50721	-0.0883925
3	0x3d48ef47	0.049056318
4	0x3d6f5291	0.05842835
5	0xbd6240a9	-0.055237446
6	0x3cc17da4	0.02361948
7	0xbdbf46a8	-0.093396485
8	0xbd6064e9	-0.054783735
9	0xbdc7ff37	-0.09765475
10	0x3e00a970	0.12564635
11	0x3d95f673	0.07322397
12	0xbd0663e7	-0.032810118
13	0x3d86b616	0.06577699
14	0x3dba9c64	0.091118604
15	0x3c3d95dc	0.011571374
16	0xbdcc3752	-0.09971489
17	0x3c522a29	0.012827435
18	0x3d9ec5a4	0.07752541
19	0x3de735ab	0.11289533
20	0xbd5aaf42	-0.053389795
21	0x3d7d3ecf	0.061827477
22	0x3d34e7be	0.04416632
23	0x3dfedc3b	0.124443494
24	0x3d466812	0.048439093
25	0x3c55c601	0.013047696
26	0x3e13521c	0.14386791
27	0xbdbc29d7	-0.09187668
28	0xbe02df49	-0.12780489
29	0xbdb9866c	-0.09058842
30	0xbd38448c	-0.044987246
31	0xbb5b4565	-0.003345811
32	0xbd30103d	-0.042984236
33	0xbdf44ef2	-0.1192912
34	0xbda457af	-0.08024537
35	0x3c2a18db	0.010381903
36	0xbccbc4e3	-0.024874156
37	0x3c835575	0.01603196
38	0xbb0eaf04	-0.0021771798
39	0xbd576610	-0.05258757
40	0x3dc6d6fb	0.09708973
41	0x3db3cda6	0.08779459
42	0xbd832052	-0.06402649
43	0xbe0cfd4e	-0.13768503
44	0xbd048a37	-0.032358374
45	0xbcca3a38	-0.024685964
46	0xbdfe9bcc	-0.1243206
47	0x3d78238e	0.060580783
48	0x3c610abb	0.0137354685
49	0xbd360d72	-0.044446416
50	0xbe0e1dc5	-0.13878544
51	0xbce783f9	-0.028261172
52	0x39f90926	0.00047499797
53	0xbcdb3d15	-0.026762525
54	0x3b925e32	0.0044667954
55	0xbdb07b01	-0.08617211
56	0xbda03f72	-0.07824601
57	0xbcefbada	-0.029263902
58	0x3d266a56	0.040628754
59	0x3e0c86b8	0.13723266
60	0x3d7b4f9c	0.06135522
61	0xbd9c618f	-0.07635795
62	0xbd12bc39	-0.035824034
63	0x3bc63395	0.0060486295
64	0xb8c28470	-9.275309e-05
65	0xbd82eef7	-0.06393235
66	0xbd43f549	-0.047841344
67	0xbd24806c	-0.040161535
68	0x3e165244	0.1467982
69	0x3d170854	0.036873177
70	0xbdd8add7	-0.10580032
71	0x3dbb65b9	0.091502614
72	0x3cc5d834	0.024150945
73	0x3e0a44de	0.13502833
74	0x3d44e3f7	0.048068967
75	0xbe024811	-0.12722804
76	0xbbe699b4	-0.007037366
77	0xbc48733c	-0.012234505
78	0x3c3b6014	0.011436481
79	0x3c866e4c	0.016410016
80	0xbccb1466	-0.02479
81	0x3d7c9d8c	0.061673686
82	0x3db63c47	0.08898216
83	0x3d94c08d	0.07263289
84	0xbda99b8b	-0.082816206
85	0x3d06526c	0.032793447
86	0xbd8ba682	-0.06818868
87	0xbd8f751c	-0.07004759
88	0x3cda200d	0.026626611
89	0xbd401117	-0.0468913
90	0xbd395791	-0.045249525
91	0xbdfe6d90	-0.12423241
92	0x3e0264c8	0.12733757
93	0xbe11b195	-0.14227898
94	0xbd6a3a48	-0.057184488
95	0x3d5e70ab	0.054306667
96	0x3c9a0633	0.018801784
97	0x3bde4ae8	0.006783832
98	0xbc30254a	-0.010751078
99	0xbe14f370	-0.14545989
100	0x3cb4a362	0.022050563
101	0x3dde5a2c	0.10857043
102	0xbda746d1	-0.08167804
103	0x3dba23ca	0.090888575
104	0xbcc56626	-0.02409656
105	0xbc5bad68	-0.0134080425
106	0x3cb3170b	0.021861574
107	0x3ca05b38	0.019574746
108	0x3c80e09f	0.015732108
109	0xbcc32750	-0.023822457
110	0x3e02364a	0.12716022
111	0x3d4dc234	0.050234035
112	0xb9713704	-0.00023004046
113	0xbdbc9dda	-0.09209795
114	0x3dd6e819	0.10493488
115	0xbd81b7fb	-0.063339196
116	0xbdc6fa3f	-0.097156994
117	0x3d0561ff	0.03256416
118	0xbd897efc	-0.067136735
119	0xbd4bf4e0	-0.049794078
120	0x3dbd2ff8	0.09237665
121	0xbdbf58af	-0.09343087
122	0xbdf58444	-0.11988118
123	0x3d4d0142	0.050050028
124	0x3dc6b977	0.09703343
125	0xbd093a36	-0.03350278
126	0x3e0708a1	0.13186885
127	0x3e0b5a89	0.13608755
128	0xbd4cf0f1	-0.050034467
129	0xbd863cc5	-0.065545596
130	0x3d567738	0.05235979
131	0xbe1aa700	-0.15102768
132	0x3d16c68c	0.036810443
133	0xbce0f4c0	-0.027460456
134	0x3a9c43dc	0.0011922079
135	0xbd0ccfcb	-0.034377854
136	0xbe1774c4	-0.14790636
137	0xbb29b9e6	-0.0025898158
138	0xbe126bdb	-0.14298956
139	0x3d96b2a4	0.07358292
140	0xbdf0444f	-0.11731779
141	0x3da48d28	0.08034736
142	0xbc879df7	-0.016554816
143	0xbdb808d2	-0.08986057
144	0x3db99e11	0.09063352
145	0x3cfc856a	0.030825336
146	0xbd5adb10	-0.05343157
147	0x3dfcf58c	0.12351522
148	0xbd9b0944	-0.07570127
149	0x3da7bbe1	0.08190132
150	0x3c54ef5e	0.012996523
151	0xbd16033e	-0.036624186
152	0x3d1c53ce	0.03816586
153	0x3c3389fb	0.01095819
154	0xbc118628	-0.008882083
155	0x3d10bfca	0.035339154
156	0x3cedd078	0.02903007
157	0xbe00929d	-0.12555929
158	0xbdb77b3f	-0.08959054
159	0x3d0aa4c7	0.03384855
160	0x3dd82373	0.105536364
161	0xbdb9da43	-0.09074833
162	0x3c36b17e	0.011150716
163	0xbdb322d3	-0.087468766
164	0xbd9ad3e6	-0.07559948
165	0x3de20038	0.11035198
166	0xbd940bc8	-0.072288096
167	0xbdac6152	-0.08417
168	0xbceeae00	-0.029135704
169	0xbe1b9fc7	-0.15197669
170	0x3d1015e9	0.035177145
171	0x3cbb4e20	0.022864401
172	0xbd080b90	-0.03321415
173	0xbd6198ad	-0.055077244
174	0x3dac4172	0.0841092
175	0xbe136d59	-0.14397182
176	0xbd0f4888	-0.03498128
177	0xbe00dd61	-0.1258445
178	0x3d819d75	0.06328861
179	0x3dfd7317	0.12375467
180	0xbcd0968f	-0.025462417
181	0x3dc0792c	0.09398112
182	0xbca45642	-0.020060662
183	0x3bfb1d47	0.0076634022
184	0xbd84c967	-0.06483727
185	0x3d94c7fd	0.07264707
186	0xbd055d07	-0.03255942
187	0x3ba90616	0.005158196
188	0xbdb4b85a	-0.08824225
189	0x3db67812	0.0890962
190	0x3d09fd78	0.033688992
191	0x3daef164	0.08542135
192	0x3da1e76e	0.0790547
193	0x3dfb7726	0.12278585
194	0xbc871894	-0.016491212
195	0xbd7d40dc	-0.061829433
196	0x3b83ecf8	0.0040260516
197	0xbd5d2202	-0.05398751
198	0x3c85307b	0.016258469
199	0x3da583ac	0.08081755
200	0x3bc09f55	0.005878369
201	0xbc8b8253	-0.017029917
202	0xbcf0ee32	-0.029410455
203	0x3d5e7ff0	0.05432123
204	0x3da2e385	0.07953552
205	0x3e161d08	0.14659512
206	0xbdf78528	-0.120859444
207	0x3d577cef	0.05260938
208	0x3d176b54	0.03696759
209	0x3bc5c763	0.0060357316
210	0x3e0fc043	0.14038186
211	0x3debfece	0.115232095
212	0x3dcab849	0.09898431
213	0x3dc9a045	0.09845022
214	0x3ba2a123	0.0049630567
215	0xbda0e29a	-0.07855721
216	0x3cf214c0	0.02955091
217	0x3e0a7560	0.13521338
218	0x3d0f9ff8	0.035064667
219	0x3c20e79f	0.009820848
220	0x3ddf4667	0.109021
221	0x3d1af165	0.037827868
222	0x3dd4d7f3	0.103927515
223	0x3cf8713f	0.030327437
224	0xbdb46d7c	-0.08809945
225	0xbdb49db1	-0.0881914
226	0xbd8b377b	-0.067976914
227	0x3d823a22	0.06358744
228	0x3d4c436e	0.049868993
229	0x3c6dbe0c	0.014510643
230	0x3e17ff69	0.14843525
231	0xbe198287	-0.14991198
232	0x3c70d611	0.014699475
233	0xbe078f32	-0.13238218
234	0xbd6c180c	-0.05764012
235	0x3d8b520e	0.0680276
236	0x3de3014d	0.110842325
237	0x3d9d7e10	0.0769006
238	0x3e0ab2ae	0.13544723
239	0x3d1ec979	0.038766358
240	0xbcc30920	-0.023808062
241	0xbdb4a173	-0.088198565
242	0xbc6b01ba	-0.014343673
243	0x3cb34bbc	0.021886699
244	0x3d5d7c28	0.054073483
245	0x3ce331fb	0.027733793
246	0x3d8da169	0.06915552
247	0xbda6b71d	-0.08140395
248	0x3d5f0483	0.054447662
249	0x3c8c994b	0.01716294
250	0xbdc779e0	-0.09740043
251	0x3db3c560	0.08777881
252	0xbbfe9016	-0.007768641
253	0x3cf37608	0.029719368
254	0xbd1cc91e	-0.038277738
255	0xbd34469d	-0.044012655

fc.bias f4 [8]
0	0x3ce98faa	0.028510887
1	0x3ca9e14a	0.020737309
2	0x3d89307b	0.066987
3	0xbe16ced6	-0.14727339
4	0xba55cdc6	-0.0008155968
5	0x3d5395d6	0.051656567
6	0xbd2ac723	-0.041693818
7	0x3d11a98a	0.035562076
