data/processed/ml_engine/model.pt (torch, 650039 bytes, 7 tensors)

embedding.weight f4 [2000, 64]
000000 00 00 00 00 00 00 00 00 00 00 00 00 00 00 00 00
       0.0 0.0 0.0 0.0
000010 00 00 00 00 00 00 00 00 00 00 00 00 00 00 00 00
       0.0 0.0 0.0 0.0
000020 00 00 00 00 00 00 00 00 00 00 00 00 00 00 00 00
       0.0 0.0 0.0 0.0
000030 00 00 00 00 00 00 00 00 00 00 00 00 00 00 00 00
       0.0 0.0 0.0 0.0
000040 00 00 00 00 00 00 00 00 00 00 00 00 00 00 00 00
       0.0 0.0 0.0 0.0
000050 00 00 00 00 00 00 00 00 00 00 00 00 00 00 00 00
       0.0 0.0 0.0 0.0
000060 00 00 00 00 00 00 00 00 00 00 00 00 00 00 00 00
       0.0 0.0 0.0 0.0
000070 00 00 00 00 00 00 00 00 00 00 00 00 00 00 00 00
       0.0 0.0 0.0 0.0
000080 00 00 00 00 00 00 00 00 00 00 00 00 00 00 00 00
       0.0 0.0 0.0 0.0
000090 00 00 00 00 00 00 00 00 00 00 00 00 00 00 00 00
       0.0 0.0 0.0 0.0
0000a0 00 00 00 00 00 00 00 00 00 00 00 00 00 00 00 00
       0.0 0.0 0.0 0.0
0000b0 00 00 00 00 00 00 00 00 00 00 00 00 00 00 00 00
       0.0 0.0 0.0 0.0
0000c0 00 00 00 00 00 00 00 00 00 00 00 00 00 00 00 00
       0.0 0.0 0.0 0.0
0000d0 00 00 00 00 00 00 00 00 00 00 00 00 00 00 00 00
       0.0 0.0 0.0 0.0
0000e0 00 00 00 00 00 00 00 00 00 00 00 00 00 00 00 00
       0.0 0.0 0.0 0.0
0000f0 00 00 00 00 00 00 00 00 00 00 00 00 00 00 00 00
       0.0 0.0 0.0 0.0
000100 e2 f2 8e bf 37 bf 4f 3f d1 23 4b be 13 6f 72 bf
       -1.1167872 0.81151146 -0.19837882 -0.94700736
000110 d1 28 bf 3e d9 93 55 3f 78 10 11 3e 1b 3a 8d bf
       0.37335828 0.8342872 0.14166439 -1.1033357
000120 93 7e 8f be 50 04 2a 3f b5 fa 40 3f 7f 05 f8 be
       -0.28026256 0.6641283 0.7538255 -0.48441693
000130 f3 ae cc 3e af c0 53 bf 05 c9 0f 40 ef 55 c6 bf
       0.39977226 -0.82715887 2.2466443 -1.5494975
000140 b2 e5 0f 3f fb d6 08 3f a8 54 f4 3f 2d 3e 32 bf
       0.5620986 0.53453034 1.9088335 -0.6962612
000150 f9 b6 ff 3f 98 a6 5c bf 95 d0 dc 3e d3 54 d4 3c
       1.9977714 -0.861917 0.43127885 0.025919354
000160 3e 03 a3 be 2d 14 a1 bf 63 7b b0 3f 1d a0 05 bf
       -0.3183841 -1.2584282 1.3787655 -0.5219744
000170 0c e2 5d bf 73 46 4b 3f f0 07 ed 3e 0c 6b e2 3d
       -0.86673045 0.7940437 0.46295118 0.11055574
000180 97 20 82 3e eb 5e f8 bf e8 95 10 3f d7 8d 61 3f
       0.2541549 -1.9403967 0.5647874 0.88107055
000190 17 8e 81 3d 3c 17 d4 3f 0b 96 e3 bf 74 92 13 c0
       0.063259296 1.656959 -1.7780164 -2.3058138
0001a0 26 1c bd be b1 6f d2 3d bb 95 82 3f 6a c4 db bd
       -0.36935538 0.1027521 1.0201944 -0.107308224
0001b0 74 36 36 3e ab 39 69 bf 72 aa d8 3e ca bb 1e bf
       0.1779421 -0.9110362 0.4231754 -0.62005293
0001c0 bb 11 40 3f 0e 97 af bf 11 07 3f bf 45 06 18 bd
       0.75027055 -1.3717973 -0.7462016 -0.037115354
0001d0 4a da bf bf c2 31 22 3f ab 5e 91 be 97 1e 5f bf
       -1.4988492 0.63357174 -0.28392538 -0.8715605
0001e0 18 82 92 3f b2 42 0e 40 e7 b3 fa 3e 10 dc f7 bc
       1.1445951 2.2228208 0.4896538 -0.030256301
0001f0 37 58 8f bf 72 ad 2b bd 96 d2 bb 3e ee 77 e1 3e
       -1.1198796 -0.041913457 0.36684102 0.44036812
000200 c3 f2 10 bf 68 db 5f bf 2b fe 3d bf 6d ba 27 c0
       -0.56620425 -0.8744416 -0.74215955 -2.6207535
000210 a7 25 e6 be 6d 76 ca 3f 67 39 7b 3f 59 fa 02 bf
       -0.449506 1.5817391 0.98134464 -0.5116325
000220 c8 04 68 3f a4 02 11 3f a4 ed 0f 40 c3 63 2e bf
       0.90632296 0.56644654 2.2488794 -0.68120974
000230 42 cd 95 3f 2b d9 77 3e 16 78 51 bf 89 31 27 bf
       1.1703265 0.24203937 -0.8182386 -0.6530996
000240 f8 9d ff bd 92 f0 41 3f 09 59 38 3e c0 86 91 bc
       -0.12481302 0.75757706 0.18002714 -0.01776445
000250 e2 ca 00 bf 50 e7 21 be 5c 8b c9 3f 3a 2d a3 3e
       -0.50309575 -0.15810895 1.5745654 0.31870443
000260 89 f7 b2 bf 58 6f 6f 3f 4e 06 8d 3f 90 24 72 3f
       -1.3981792 0.9352927 1.1017549 0.9458704
000270 06 4a 09 be b9 d9 14 bf c9 76 3c 3e e3 24 e3 3f
       -0.13407144 -0.5814472 0.18404688 1.7745632
000280 b8 fa 67 3f d9 ea 1d bf 72 78 39 bf f4 15 0a c0
       0.9061694 -0.61686474 -0.7244941 -2.15759
000290 11 b1 b6 3e 89 e5 56 bf c6 6a a6 3e 6e 8f ae bf
       0.35681966 -0.8394399 0.32503337 -1.3637521
0002a0 5f e4 ff 3f 9f 24 8e be 8d 71 8e bd 69 62 ab bd
       1.9991568 -0.27762315 -0.06955252 -0.083683796
0002b0 68 9b 06 40 83 e6 29 3f bb 51 df 3f 05 98 c3 be
       2.1032352 0.6636736 1.7446817 -0.3820192
0002c0 cb 9d eb 3f 95 ea 29 3f a2 5b 4c 40 a3 9b 3b bf
       1.840753 0.6637357 3.1930928 -0.7328436
0002d0 52 89 88 bd aa ee 9c 3e a4 57 20 bf 76 25 2c 3f
       -0.06666817 0.30650836 -0.6263373 0.6724466
0002e0 4a f7 12 3f 82 1e fa ba d5 c0 b7 bf 91 62 ea 3f
       0.57408583 -0.0019082578 -1.4355723 1.831133
0002f0 91 d7 14 3f 52 68 96 3d ed a3 0d c0 27 ca cf bf
       0.5814143 0.07344116 -2.2131302 -1.6233567
000300 56 9c 99 be 3d 6c 81 bf e7 6c e8 3e fc 65 07 be
       -0.30002087 -1.0111157 0.45395586 -0.13222498
000310 16 16 ae 3e e9 f5 6c bf 04 6e a0 3f 8a 7f 34 be
       0.34001225 -0.9256273 1.2533574 -0.17626777
000320 62 03 ed 3f d0 b3 f6 bd 71 51 d2 3d 7b 8f 5f 3f
       1.8516657 -0.12046015 0.1026944 0.8732831
000330 0f 21 b6 be db e7 a4 3f 08 f5 25 40 f8 ce b8 3f
       -0.35572097 1.2883257 2.5930805 1.4438162
000340 a2 d3 0b bf b2 e8 01 3f 91 e2 98 3e 88 90 16 3d
       -0.546198 0.5074569 0.29860356 0.03675893
000350 b0 fd ee 3f 3f 31 f5 3e c4 78 8b bd bd 0f c1 bd
       1.8671169 0.47889134 -0.068101436 -0.0942683
000360 41 dd 8b 3f 9d 85 f1 bf 48 79 05 c0 98 69 f8 3e
       1.0926896 -1.88689 -2.0855274 0.48518062
000370 d7 df a9 bf da 54 89 be ac e7 d1 be 35 90 4a 3f
       -1.3271435 -0.2682255 -0.40997064 0.7912629
000380 f8 91 2d 40 e5 d0 85 3e 75 91 70 3f 74 9f 51 bf
       2.7120342 0.26135936 0.9397195 -0.8188393
000390 d1 c6 7a 3e 85 cb a2 bf 86 a4 fa be 6b 57 30 bf
       0.24489905 -1.2718359 -0.48953646 -0.6888339
0003a0 d8 b8 52 3f 9f 34 f7 3f a2 ec 25 bf a3 cb 8e 3f
       0.823133 1.9312934 -0.648142 1.1155895
0003b0 bc 33 3c 3e 3e be b9 3e ea a5 40 3f da 82 b0 bd
       0.1837911 0.36277956 0.75253165 -0.08618708
0003c0 48 72 6e be 46 e9 c1 bf 43 79 40 3f 64 8e a3 bf
       -0.23285782 -1.5149314 0.7518503 -1.2777829
0003d0 1d 39 41 3f 4d a7 0c 3f fc 96 bc 3f b3 a0 3d 3f
       0.7547777 0.5494278 1.4733577 0.7407333
0003e0 8d 52 55 3f 1d fa be bf ec 05 64 3e e3 b6 d1 3f
       0.8332909 -1.4920079 0.22267884 1.6383938
0003f0 0c 8b 9b 3f 3b 74 44 bf a0 ff 7c 3f ff ce c3 3f
       1.2151809 -0.76739854 0.9882755 1.5297545

lstm.weight_ih_l0 f4 [256, 64]
000000 14 d4 44 bd ff 92 07 be 86 7d 49 3d a5 94 60 bc
       -0.048053816 -0.13239668 0.049191974 -0.013707315
000010 2a 13 9c 3b 5a f0 41 bc 77 f2 d0 bd bf c4 86 bc
       0.0047630267 -0.011837089 -0.102024965 -0.016451238
000020 20 25 a4 bd 6c 37 d8 3c 52 22 7d bc f2 23 ba bc
       -0.080148935 0.026393615 -0.015450077 -0.022722218
000030 9a 67 ea 3b 15 27 1e 3d c2 d4 8e 3c 00 b4 88 bd
       0.0071534635 0.03861149 0.017435435 -0.06674957
000040 6c c9 04 be 45 44 da 3d 4c 4c d6 3d 06 ff 72 bb
       -0.12967461 0.10657553 0.10463771 -0.0037078275
000050 ab 9d d9 3d 44 fd 80 bd 53 6b af bd c0 86 0b 3d
       0.10625776 -0.062983066 -0.08565392 0.034064054
000060 03 4b f2 bb 4a 72 0b bd b2 6a ab 3c bb 6d bb bd
       -0.007394196 -0.03404454 0.0209249 -0.09151789
000070 44 d9 07 be 12 ea 00 3e f1 9c 39 bd 16 7c 14 be
       -0.13266474 0.1258929 -0.045315687 -0.1450046
000080 4b d9 63 3d 11 1a cc 3d a1 1b 16 bd d4 66 0c 3e
       0.05562715 0.09965909 -0.036647443 0.13711101
000090 4c 45 12 3d 6a bd cd 3d ea 67 dc 3b d5 ae 55 bd
       0.035710618 0.100458935 0.0067262547 -0.052168686
0000a0 dd 64 c3 bd ed 9c df 3d 4a b8 9a 3d 80 b8 97 3d
       -0.095407225 0.10918603 0.075546816 0.074082375
0000b0 bf 4e be 3d 1a 29 f1 3d 10 a8 fc bc ca ac be 3d
       0.092923634 0.117754176 -0.030841857 0.09310301
0000c0 30 58 b2 3c 7d b2 2f bc f7 b9 bf 3d 01 7e 86 bd
       0.021770567 -0.010723707 0.09361642 -0.06567002
0000d0 5e b3 00 be 14 62 b2 3d 6d 74 98 3d 6a da 02 bd
       -0.12568423 0.08710113 0.074440815 -0.031946577
0000e0 b9 e0 7a bd 24 7f 50 bd c9 ad 90 bc 50 ed 1c 3d
       -0.06124947 -0.0509025 -0.017660992 0.038312256
0000f0 17 35 08 bd ef 8b 97 3d 55 fb bc bd 43 e6 03 be
       -0.033253755 0.07399737 -0.09227625 -0.12880807
000100 4b b4 9f bd 6c 1f d6 bc 4f c8 9e bd d1 1d c2 3c
       -0.0779806 -0.02613803 -0.077530496 0.023695858
000110 b6 74 7d bd b5 b0 93 3c 0a b8 9d 3d 15 a8 3a bd
       -0.061878882 0.018028596 0.07701118 -0.04557045
000120 61 65 74 bd 4e 64 d3 bd 42 4f 04 3e 9d 3d b1 3d
       -0.059666995 -0.10321866 0.1292086 0.0865433
000130 49 3e d7 bd b9 fe 22 be 88 5a 9a bd 92 ca 95 3d
       -0.10509927 -0.15917481 -0.07536799 0.07314028
000140 a2 a5 af bd 67 77 c7 bc 85 77 68 3d 80 c7 35 bc
       -0.08576514 -0.024348928 0.056754608 -0.011094928
000150 ef 76 ae 3b 01 cd 7d bd c2 58 d8 bd 70 01 9b bd
       0.0053242366 -0.061963085 -0.10563804 -0.075686336
000160 b7 bd 28 bc 56 1c aa 3d 36 40 ba 3d fc 87 e9 bd
       -0.010299138 0.08306186 0.090942785 -0.1140289
000170 33 9c 9a 3c 8b d9 03 3c c2 d8 f2 3d db d1 3b bd
       0.01887331 0.008047472 0.118577495 -0.04585443
000180 cf 41 d9 bd 23 03 c1 3d b3 ab 97 3d 08 54 81 3d
       -0.10608255 0.094244264 0.07405796 0.06314856
000190 ad b8 cd bd cb fc 22 bd 54 09 40 bd 77 fa ad bc
       -0.1004499 -0.039791863 -0.046883896 -0.021237595
0001a0 73 79 c1 3d fb 4b 7d 3d d3 dc 74 bc 23 dc 8c 3c
       0.09446993 0.06184004 -0.014945227 0.017194813
0001b0 10 a2 b1 3d 5b 41 a2 bd 5b 1e eb bd 50 eb 92 3c
       0.08673489 -0.07922622 -0.11480399 0.017934471
0001c0 1f 82 d0 bd 89 76 e3 bc ee 15 5d 3d 65 5e 19 be
       -0.10181069 -0.027766483 0.053975992 -0.14977415
0001d0 47 65 2d bd 12 be 40 3d a2 f9 dc bd de bb ef 3d
       -0.042332914 0.047056265 -0.10789801 0.11705755
0001e0 ae 45 fd 3d a9 01 ad 3d 1a fc 19 3d dc 39 87 bd
       0.12366806 0.08447582 0.03759394 -0.06602833
0001f0 ac 86 9f bb 28 79 b9 3d 43 ec 15 3c ea 18 08 3c
       -0.004868349 0.09056312 0.009150567 0.008306721
000200 f4 d1 a9 3c 6d 42 83 bd 1a e8 bf bd c0 fe 12 be
       0.020729996 -0.06409154 -0.09370442 -0.14354992
000210 53 44 ce 3d 1b d3 cd 3d b2 16 e7 bd 9c da 2f 3e
       0.100716256 0.10050031 -0.11283626 0.17173237
000220 3f 1b 43 3d e1 14 0c bd 39 c8 7b 3b bd 43 71 bd
       0.047633406 -0.0341996 0.0038418903 -0.05890249
000230 0a d8 7e 3d 88 e0 a7 3d 2a be 53 bd 4b d9 cf bd
       0.06221775 0.08197123 -0.051695026 -0.10148867
000240 51 80 df 3d 7f 38 a0 bd 4b 39 81 3d ff 57 c9 bd
       0.10913146 -0.07823276 0.06309756 -0.09831237
000250 0c 61 a6 3c e3 e3 b5 bd 90 ac 5b bd 99 3e c4 bd
       0.020309947 -0.088813566 -0.053631365 -0.09582252
000260 2a ef 6f bd be fb b8 bd c7 e8 9b bd cc 2d b5 3d
       -0.058577694 -0.09032391 -0.07612758 0.08846626
000270 6e 84 ff bd db c4 5e 3d 41 07 5c bd 7f e3 97 3c
       -0.12476431 0.054386955 -0.053717855 0.018541096
000280 7c 91 f9 bd 16 a1 3f bc 89 5b 58 3d db 79 07 3e
       -0.12185952 -0.011696121 0.05282167 0.13230078
000290 2b ab 91 bd cd 69 ee 3d 1d 18 05 be 4b 1b 8e 3d
       -0.07112726 0.11641274 -0.1299748 0.069387995
0002a0 42 9d c3 bd 4e 22 cb bd b0 40 86 bd 1e f9 1a bc
       -0.09551479 -0.099186525 -0.06555307 -0.009458808
0002b0 f5 15 20 3d da 4a ae 3d 7c 1f 0c be 85 6a 97 3d
       0.03908344 0.085103706 -0.13683885 0.07393364
0002c0 73 79 e7 bd 21 d9 d8 bc d1 0f 4f bd 09 fa 1c 3e
       -0.113024615 -0.026470723 -0.050552193 0.15329756
0002d0 f2 ff 83 3c 1d 5c 5c bd 84 42 8a bd 4d 69 08 bd
       0.016113255 -0.053798784 -0.06750968 -0.033303548
0002e0 5d ea c4 3d 2f 9c 03 3d ac 09 28 3e ba 8d 9b 3d
       0.09615014 0.03213137 0.1640994 0.075953916
0002f0 94 60 b9 bc 61 47 e8 bd 33 71 39 3d 04 ab a1 bd
       -0.02262906 -0.113417394 0.04527397 -0.07893947
000300 74 5f 99 bd 55 9d 87 3d 34 07 44 3d 45 a1 a5 bd
       -0.07488909 0.066218056 0.047858432 -0.080874
000310 3c 93 18 3c 8e e0 89 3d 38 bd 61 3d 5f 1c 9c 3d
       0.009312447 0.067322835 0.055112094 0.07622599
000320 f9 dc 0c 3d 16 6a 0e 3e 2f 31 d5 3d c4 fd 3f 3d
       0.034390423 0.13907656 0.10409772 0.04687287
000330 a8 99 01 be 3d de 8d bd 80 08 d1 bd 78 92 89 bd
       -0.12656271 -0.06927154 -0.10206699 -0.0671739
000340 51 18 f7 bd 4b 9c 50 3d c2 33 e7 3d e6 6f ac 3d
       -0.12065185 0.050930303 0.11289169 0.084197804
000350 ef 22 5d bd 18 83 11 ba 71 40 ce 3d d9 dd 2b 3d
       -0.053988393 -0.00055508455 0.10070885 0.041959617
000360 11 f8 a3 3d 76 fa 99 bd 57 9d 9d 3d ce 01 a8 3a
       0.08006299 -0.07518475 0.07696026 0.0012817921
000370 cb 2e 8d bd d7 21 d9 3d de 95 a8 bd ff 27 26 be
       -0.06893691 0.106021576 -0.0823171 -0.16226195
000380 6f 66 f6 bd 32 39 1d 3d 27 5a b5 3a 6a bf 23 ba
       -0.120312564 0.038384624 0.0013836072 -0.00062464795
000390 cd bb b3 3d 83 ec 48 3d df eb 3f 3c f2 33 37 bd
       0.087760545 0.04905368 0.011713951 -0.044727273
0003a0 ed 1d a2 3d 39 8d 9b bd 7e 87 bd 3c 9c 58 2f bd
       0.07915864 -0.075952955 0.023135897 -0.042809114
0003b0 d0 d8 8a bd 02 5e 18 be fd c2 c9 bb 47 fd a4 3d
       -0.06779635 -0.14879611 -0.0061572776 0.08056121
0003c0 d0 bf cb bd ba b9 1d be a2 aa 9e 3c 83 3f b0 3d
       -0.09948695 -0.1540288 0.019368473 0.08605864
0003d0 ec 34 aa 3d 27 89 12 bd 55 41 15 3e 9f 54 1f bd
       0.08310875 -0.03577533 0.14575703 -0.03889906
0003e0 0c f9 01 be df a9 80 3d 32 4b 98 3d 00 fb d7 3c
       -0.1269266 0.062824 0.07436217 0.026364803
0003f0 c0 c5 05 bd 5d ed 5f 3d f4 87 9e bc cf ab 31 3d
       -0.032659292 0.054669727 -0.019351937 0.04337674

lstm.weight_hh_l0 f4 [256, 64]
000000 8c 38 7f bc 88 63 69 3d 9d 92 96 3d c4 03 19 3e
       -0.015577447 0.056979686 0.07352183 0.14942843
000010 b6 6f b3 bc ce 83 04 be f2 ec 3d 3d e9 b7 63 3c
       -0.021903854 -0.12940904 0.046368547 0.013898828
000020 28 94 99 3c 39 d8 03 bd aa bc aa 3d 9c c7 4f bd
       0.018747404 -0.032188628 0.08336766 -0.05072747
000030 b4 3e 7b bd 3f bb 4c bd 4b 75 a3 bd 07 5b 1a bc
       -0.061339095 -0.04998326 -0.07981356 -0.009421117
000040 28 f7 bb bd 0a 15 b3 bc c7 e2 81 3d 89 18 15 be
       -0.09178001 -0.021860618 0.063420825 -0.1456014
000050 4d 8b 89 3c 49 fd ca bd df 3d 36 3c b0 74 07 3e
       0.016790057 -0.099115916 0.01112315 0.13228106
000060 4c 89 f1 bd 28 9e c9 bc d2 13 92 3c f8 e3 5b bc
       -0.117937654 -0.024611548 0.017831717 -0.013421051
000070 d3 d1 f9 bd ea 14 28 bc ed 47 fe bd 13 69 5f 3d
       -0.12198224 -0.010258893 -0.124160625 0.054543566
000080 0c 3d 1b 3c de bf be bd e0 5d 22 3e ac 03 71 bd
       0.009475004 -0.093139395 0.15856123 -0.058841392
000090 ec e9 33 3d 23 1c c4 bd 45 ee a9 3d 36 49 74 3c
       0.043924257 -0.09575679 0.082973994 0.014910033
0000a0 d9 96 4c bd 8f e3 98 3d 1b 96 b7 bd db 3e 1d be
       -0.049948547 0.07465278 -0.08964177 -0.15356009
0000b0 92 5f a0 3d 38 3b 8c bc 05 0c 63 3b 09 27 ac bd
       0.078307286 -0.017118081 0.0034644615 -0.08405883
0000c0 ec aa 21 3d cd 46 53 bd a7 d9 e2 bd a2 db 71 3c
       0.039469644 -0.051581193 -0.1107667 0.014761837
0000d0 6a fb f2 3d de 4e eb 3b 0f 91 99 bd d3 4a 04 be
       0.1186436 0.0071810326 -0.07498371 -0.12919168
0000e0 0a b9 d3 bc df bd 91 b9 ea 0f a1 3c 01 54 f2 3d
       -0.02584507 -0.0002779802 0.019660909 0.11832429
0000f0 27 29 a1 3d 5f e9 a8 3d 28 2e 83 3c 0c f7 68 bd
       0.07869177 0.08247637 0.01601322 -0.056876227
000100 6e c8 a1 3d 9b b3 b2 3d d4 e9 8c 3d 4a 2e 08 bd
       0.07899557 0.08725663 0.06880537 -0.03324727
000110 da 47 15 bb 49 b4 a3 3d 83 32 33 3e 15 d6 b9 bd
       -0.0022778423 0.07993371 0.17499737 -0.09074036
000120 8b 02 f7 3d 6e f1 14 bd 04 21 d2 3d 24 2a 2f bd
       0.12061032 -0.036363058 0.102602035 -0.042764798
000130 e8 21 a0 bd 8a 45 54 bd 04 82 97 bd ec a5 23 3a
       -0.07818967 -0.05182413 -0.073978454 0.0006242681
000140 32 25 50 3d 50 93 53 3c 7a 79 05 bc db 02 f7 bb
       0.050816722 0.01291354 -0.008146638 -0.007538182
000150 3f 09 8e 3d ed 1e 10 be 93 e8 9b bd e2 f4 f9 3d
       0.06935357 -0.14074297 -0.076127194 0.12204911
000160 21 35 3a bc 09 42 d9 3d f6 15 1b be 31 2a 0b 3e
       -0.011365206 0.10608298 -0.15145096 0.13590313
000170 02 54 af 3d 87 75 3a bd 7e 76 02 be c9 3f d5 bd
       0.08560945 -0.04552224 -0.12740514 -0.10412557
000180 a8 ee 72 bd 10 91 96 bd 40 91 6f 3d 99 ff de 3d
       -0.05930963 -0.07351887 0.05848813 0.10888595
000190 ba be 94 3d 9b eb 08 be 6a 7e 69 bd ac be a3 bc
       0.07262941 -0.13371126 -0.057005323 -0.01998838
0001a0 50 6f 0f 3e bd 34 ef 3c 67 dd d4 3d 46 f3 8a bc
       0.14007306 0.029199952 0.10393792 -0.016961705
0001b0 0c 85 10 3d f5 38 58 bd cf b4 93 3d 0c 6c 74 3c
       0.035283133 -0.052788693 0.07212221 0.0149183385
0001c0 ae 23 7d bd 0c f5 8a 3d 21 53 79 bd 07 fb 8b 3c
       -0.061801605 0.0678502 -0.060870294 0.017087473
0001d0 d2 3e 71 3d 65 90 6a 3d 61 52 12 bb 49 6b 65 3d
       0.0588978 0.05726661 -0.0022326934 0.05601052
0001e0 89 fc 92 3b 60 d7 37 3d 30 63 2e 3d 9f da e5 3c
       0.004485671 0.044883132 0.04257506 0.028058348
0001f0 ff 34 30 3d f8 0f 0a 3e 90 7c 14 be 86 57 0f 3d
       0.04301929 0.13482654 -0.14500642 0.03499558
000200 aa de a6 3c de 61 37 bd c4 99 d3 3d d9 3f 14 bd
       0.020369846 -0.044771068 0.10332063 -0.036193702
000210 69 79 ad 3d e8 1d c9 ba b6 47 41 bb d6 01 5a 3c
       0.08470423 -0.0015343996 -0.0029492206 0.013306102
000220 f2 cc 0c 3e ce 2f c5 3a 99 e5 20 3c b2 6e c4 bd
       0.13750055 0.0015044154 0.009820365 -0.09591426
000230 6b f7 00 be 99 28 37 3d ca 38 74 3d 64 ab de bd
       -0.12594382 0.04471645 0.05962447 -0.10872534
000240 70 d9 a0 ba a9 01 03 3d 14 6b da 3c 44 b2 a4 3c
       -0.0012271833 0.031984005 0.026662387 0.020104535
000250 c0 11 f2 bd b4 47 61 bd 5f ef e3 bd 85 da 84 3d
       -0.11819792 -0.055000022 -0.11129641 0.06486992
000260 f3 48 c6 3c 74 1b 6e bb 65 f9 a8 bd 4b 1d 0e 3e
       0.024204707 -0.0036332281 -0.08250693 0.13878362
000270 0b 5f c0 3d b1 df 01 3e 50 a0 21 bc 1d a3 58 3a
       0.09393128 0.12682988 -0.009864882 0.0008264052
000280 45 55 b8 bc a3 d3 53 3d d7 70 9c 3d ea d7 e7 3d
       -0.022501597 0.051715504 0.0763871 0.11320479
000290 33 69 d8 bc 67 6c 97 bd 38 0e 0e be bf 92 cd 3d
       -0.02641735 -0.07393723 -0.13872612 0.10037755
0002a0 64 3a c2 3d dd 56 6a bd 1f 42 64 3d 4d 0b b8 3d
       0.094837934 -0.057211746 0.05572712 0.089865305
0002b0 1f ad 26 bd e9 3c ab 3d 7f 0b 95 bd 72 8b 52 bd
       -0.040692445 0.08361227 -0.07277583 -0.051402517
0002c0 fd b4 9e 3d 25 e0 2f bd b6 7c 85 bd 99 50 b2 3c
       0.077493645 -0.04293837 -0.06517927 0.021766948
0002d0 7b b4 2d bd 50 92 ac 3a 1d 42 6d bd bb 30 1a 3d
       -0.042408448 0.0013166163 -0.05792438 0.03764413
0002e0 12 c9 ad bd b5 a3 de 3d dd 8d ec 3c 6a 0a 6f 3d
       -0.08485617 0.108710684 0.02887624 0.05835954
0002f0 03 d8 74 bd 9a c3 cf bd 3a 1a 98 3c b7 8b c8 3d
       -0.059776317 -0.1014473 0.018567193 0.097922735
000300 ee 58 fc bc b6 8f b3 bd 64 68 e3 3c d8 2d 12 3e
       -0.030804124 -0.08767645 0.027759738 0.142753
000310 b1 f1 de bc 7c 3f 07 bd 3b 75 c5 3d 99 3d 74 bc
       -0.027214857 -0.033019528 0.096415006 -0.014907264
000320 97 cb 4d bd c0 d3 1e bc 0c f6 8a bd 6d c5 af bd
       -0.050242987 -0.00969404 -0.06785211 -0.08582578
000330 81 16 86 bd 66 e0 35 bd 21 79 f5 3d 24 23 0b bd
       -0.06547261 -0.044403456 0.11985994 -0.03396906
000340 6a 86 c5 bd 40 c5 7a bd 04 89 15 3d 96 76 0b be
       -0.09644778 -0.06122327 0.03650762 -0.13619456
000350 e2 69 12 be a1 d7 2c bc 40 22 45 3c 5a 82 03 bc
       -0.14298204 -0.010549457 0.012032092 -0.008026684
000360 a4 f7 82 3d f9 af 1c 3d 58 15 74 bd a5 63 a4 bb
       0.0639489 0.038253758 -0.059590667 -0.0050167614
000370 be b9 bf bd dc 51 fb 3d 88 d8 1f 3c bb 3d a4 bd
       -0.093615994 0.12271473 0.009756215 -0.08019587
000380 52 e7 28 be fc 38 8c bc 11 d9 af 3c d6 af f6 bc
       -0.16494492 -0.017117016 0.02146581 -0.030113142
000390 f4 4c 51 3d f2 bd 1f be 50 6e 39 bd 89 ad d1 3b
       0.05109878 -0.15599802 -0.045271218 0.006398861
0003a0 ee 9f a6 bc c0 48 18 bc 22 33 b1 bc fb 58 78 3d
       -0.020339932 -0.009294689 -0.021630827 0.060631733
0003b0 6b ff e0 bd d5 87 f5 3c c8 86 d2 bd 12 a9 c7 3d
       -0.10986217 0.029971996 -0.10279614 0.097490445
0003c0 4d 39 a3 bd 88 7d 8b bd c0 54 9b bd 5a 34 00 be
       -0.07969914 -0.068110526 -0.07584524 -0.1251997
0003d0 70 ba c6 3d 12 12 b8 bc 1d 6d ff 3c 58 9c 0e be
       0.09703529 -0.022469554 0.031179959 -0.13926828
0003e0 20 a1 80 3d d9 b3 0f be bf 5b c0 3d af 48 a1 bb
       0.06280732 -0.1403345 0.09392499 -0.0049219946
0003f0 ee 4a 85 bd a5 37 21 3c fa 7b 18 be 2c be 83 bd
       -0.06508432 0.009839927 -0.14891043 -0.06432757

lstm.bias_ih_l0 f4 [256]
000000 a1 1d 89 3d 4c f5 80 3a e2 e5 d9 bd 5a c2 c8 3d
       0.066951044 0.0009838729 -0.1063955 0.098026946
000010 17 77 25 3c 00 d2 df bc ab 29 83 3d 84 ec 9e bd
       0.010099194 -0.027321815 0.06404432 -0.077599555
000020 0a f1 70 3d b7 a2 c5 bd c8 8c 7f 3b 66 21 31 3d
       0.058823623 -0.09650176 0.0038993824 0.04324474
000030 98 fc 1c 3d aa bc 91 bd d1 40 e7 3d 9f c3 e3 bd
       0.03832683 -0.07116063 0.112916596 -0.11121296
000040 df 07 8f bd 52 c9 c9 bd 5b e9 0c bc fd 78 82 3d
       -0.06983923 -0.09852852 -0.008600558 0.06370733
000050 80 46 88 3d cb 48 7d 3d 7c e2 a5 3d 74 d1 59 3d
       0.06654072 0.061837 0.08099839 0.053178266
000060 0c f1 01 3e a8 3f 80 bd 6f 91 b9 bb 83 77 f0 3b
       0.12689608 -0.062621415 -0.005663089 0.0073384657
000070 b2 b6 e9 bb c5 0d c8 3c 73 59 c9 3c ef 5a c9 3d
       -0.0071323747 0.024420628 0.024578786 0.09831797
000080 55 a1 c9 3d 98 be 1a bc 0e c4 8d 3d b1 49 31 bc
       0.09845225 -0.009444855 0.0692216 -0.010820792
000090 1a 73 13 3c 33 62 84 3d b8 ff 8b 3d df 65 92 bd
       0.00899961 0.064640425 0.06835884 -0.071483366
0000a0 c2 b5 a8 3c 4f 1c c0 3c a6 5d 25 3d 88 f4 5b bd
       0.020594481 0.023450999 0.040372513 -0.0537
0000b0 95 cd 0e bc fc fe 57 3c f7 3c a5 bd d9 f9 cf 3d
       -0.008716007 0.013183352 -0.08068269 0.101550765
0000c0 4e 00 69 bd 29 a3 b8 bb 77 c1 cb 3d d5 09 f2 bc
       -0.056885056 -0.0056346846 0.0994901 -0.029545704
0000d0 d3 d1 eb bd aa f0 8f 3d 72 b5 50 bb 98 5d 1e 3e
       -0.1151463 0.07028325 -0.003184643 0.1546539
0000e0 1c d8 7e 3d 98 e7 0a 3e 7d d6 6b bd fd 9b 75 3d
       0.062217817 0.13564909 -0.0575776 0.059963215
0000f0 f9 59 fc 3d 5c a6 3d bd 31 4c 8c bd 59 22 d3 bd
       0.123218484 -0.04630123 -0.0685047 -0.10309286
000100 9b c0 f6 bd 6a e8 e0 bd 52 32 c8 bc a3 45 05 3d
       -0.12048455 -0.109818295 -0.024438057 0.032537114
000110 2a 0a cf 3d 11 ff 9c bd 82 bb 43 3d a4 30 c7 3d
       0.101093605 -0.076658376 0.047786243 0.09726074
000120 ae 13 95 3d 12 e1 45 3d e5 0a 5e 3d 73 a6 be 3d
       0.07279144 0.048310347 0.05420961 0.093090914
000130 64 4f 51 bd a6 c3 cb 3d 89 cb 9b bd 07 16 8e bc
       -0.051101103 0.09949426 -0.076071806 -0.017344488
000140 59 10 24 3e 69 40 41 bd 79 a0 44 bc 3f 08 79 3d
       0.16021861 -0.047180567 -0.01200115 0.06079888
000150 08 fb 40 bd 02 82 4a 3d ee 07 b4 3d 92 65 8c 3d
       -0.047114402 0.04944039 0.08790575 0.068553105
000160 af c0 89 3c da b2 c8 bd 9d b4 cc 3c 03 73 b4 bd
       0.016815512 -0.09799738 0.024988467 -0.08810999
000170 e7 c8 7e 3c e3 24 a5 bc 0a 96 84 3d 42 3a 92 3d
       0.015550829 -0.02015919 0.0647393 0.07140018
000180 12 58 15 3c 74 5d 64 bd 86 52 1d 3e 7d f5 b7 bd
       0.009115236 -0.055753186 0.15363511 -0.0898237
000190 c1 e6 42 bd a9 2a de 3b 5c 5a df bc 43 11 04 3e
       -0.047583345 0.006779988 -0.027264766 0.1289721
0001a0 65 5b 31 bd b6 b3 7f 3d de 52 08 3e 7d 80 05 3d
       -0.04330005 0.062427245 0.13312861 0.03259324
0001b0 10 f6 f7 3d 4b ec a8 3c 24 69 b3 bd e6 e6 de 3c
       0.121074796 0.020620486 -0.08760288 0.02720971
0001c0 10 af 81 3d 64 0d d4 bd 53 3a 61 bd c4 c8 f4 3d
       0.06332219 -0.103541166 -0.054987263 0.119523555
0001d0 ab bd c2 3d 2a fc d3 bc dd f9 20 3e 96 e1 95 3d
       0.095088325 -0.025877077 0.15720315 0.07318418
0001e0 19 7c a2 3d c7 50 48 bd d7 e4 9a bd 45 6e e1 bb
       0.07933826 -0.04890516 -0.07563179 -0.0068796
0001f0 b3 15 a6 3c 9f fa 28 bc 0e 4a ab bd fc 87 18 3c
       0.020274019 -0.010313659 -0.08363734 0.009309765
000200 f3 8f f2 3c 12 66 c5 bd 19 37 4e bd af 1c a2 3c
       0.029609656 -0.09638609 -0.050345514 0.019789068
000210 46 d1 c3 bd d3 35 f7 bd 02 d2 7d 3d 16 26 64 bd
       -0.095614 -0.12070813 0.061967857 -0.055700384
000220 ce f7 6c 3d 8c bd f2 bd b9 e9 af bd 88 b2 44 3c
       0.057853512 -0.118525594 -0.08589501 0.012005456
000230 c6 30 00 3e f0 e4 81 3d 34 09 96 3c 6b 46 b0 3d
       0.12518606 0.063424945 0.018314935 0.08607181
000240 57 84 3c 3d b2 f3 a5 3d 7c 75 bc 3d ea 38 09 bd
       0.046024647 0.08103122 0.09202096 -0.033501543
000250 56 e1 95 3d 68 10 95 bd 1f e3 58 bc 62 02 d4 3d
       0.0731837 -0.0727852 -0.013237744 0.10352017
000260 a6 70 1f bc 73 7f 06 3c b0 f3 92 3c d2 13 4e 3d
       -0.009731447 0.008209097 0.017938465 0.05031187
000270 59 d9 f0 bd dd 18 7a 3d a9 0c 18 bd 7d 0a f5 3a
       -0.11760206 0.061058868 -0.03712145 0.0018695142
000280 e9 58 8e 3d af 96 c4 bd 9e a4 03 be 30 14 a8 3d
       0.06950552 -0.09599053 -0.12855765 0.082069755
000290 a8 9b 8b bc 78 5b 46 3d b1 1f 9b bc 9a 05 91 3d
       -0.017041996 0.048427075 -0.01893601 0.070811465
0002a0 fb 8d 20 3d 43 a2 0f 3e 42 ef ad bc 33 30 a4 bd
       0.039197903 0.14026742 -0.021232251 -0.08017006
0002b0 2a 0c 06 be b4 ed 0c bb ee bc ea bd 16 10 c8 bc
       -0.13090578 -0.0021503987 -0.11461817 -0.024421733
0002c0 78 d6 9a 3d d4 48 2f bd 4e 21 11 be 41 89 12 be
       0.07560438 -0.042794064 -0.14172861 -0.1431017
0002d0 fd e7 23 bd b3 4c be bc 05 07 19 3d 25 8d bc bd
       -0.040016163 -0.023229932 0.03736021 -0.09206609
0002e0 74 4e e1 3d 8a 9b a9 bd 4c ed 89 3d 3e f9 bd 3d
       0.11001292 -0.0828162 0.06734714 0.09276055
0002f0 ad f4 a9 bd 17 9a df 3d e8 81 00 be e2 02 c8 3d
       -0.08298621 0.10918062 -0.12549555 0.09766175
000300 06 b1 d6 bb 9f c7 13 bd f6 6b 10 3d aa 52 47 3d
       -0.0065518646 -0.036079045 0.03525921 0.04866282
000310 4c e2 1c bc 34 27 a0 3d 24 69 13 3e c6 34 0a 3e
       -0.009575438 0.078199774 0.14395577 0.13496694
000320 55 9c c3 bd 62 c5 e2 3b 5f c1 e7 3d 2c 44 0c 3d
       -0.09551302 0.0069205025 0.113161795 0.0342447
000330 e8 cd c2 3d d7 71 5c bd e8 ee 71 bd 89 5c 55 bd
       0.0951193 -0.053819504 -0.05906573 -0.0520902
000340 40 b5 b9 3d d2 53 93 bd 80 7e 56 3c aa 8c 22 bd
       0.09067774 -0.07193722 0.013091683 -0.03968493
000350 52 3c fa bc 39 32 c8 bd bb 0a f7 bc 73 a1 de 3d
       -0.030546341 -0.09775204 -0.030156484 0.10870638
000360 31 8e a3 3b 8a 5d 92 bc 3f 2c 99 3d 4f 0f d6 3c
       0.004991316 -0.017866869 0.074791424 0.026130347
000370 41 a3 9b 3d 8a 17 5d bd 44 8c d2 bd 94 94 c6 bd
       0.075994976 -0.053977527 -0.1028066 -0.09696308
000380 36 e1 c7 39 a2 f1 f5 3d 96 07 0f 3e 0b 70 1f bd
       0.00038124033 0.120089784 0.13967738 -0.038925212
000390 66 46 62 3d f8 36 c8 3d e0 ad f4 3d ed 6e 25 3d
       0.05524292 0.097761095 0.119472265 0.04038899
0003a0 66 d3 0e 3e 91 d3 f1 3c 45 de 5b 3d 94 59 23 bd
       0.1394783 0.029519828 0.05367877 -0.03988035
0003b0 3b 4d ac bd 4f 16 c9 3d 4a c9 b2 3d f1 cb 1a 3d
       -0.08413168 0.09818708 0.08729799 0.03779215
0003c0 b3 fe 30 bd 35 8b 03 3e e5 4e e4 bc 8f 33 7c bb
       -0.04321165 0.12846072 -0.027869651 -0.003848288
0003d0 06 99 b7 bc e3 6b 60 3d a4 be f8 bc 4a 73 22 bc
       -0.022411834 0.05479039 -0.030364342 -0.009915182
0003e0 64 81 c0 3a 8b 0f 26 3e 74 8f c3 3c cc 61 15 3d
       0.0014686999 0.16216867 0.023872115 0.03647022
0003f0 9f 9c 3d bd 0a 21 c8 bd 93 20 00 3e c6 82 35 3d
       -0.046291944 -0.09771927 0.12512426 0.04431417

lstm.bias_hh_l0 f4 [256]
000000 aa f9 49 3d 6b eb 4f bd cc f4 9f bd 5f 9d 82 bc
       0.049310364 -0.05076162 -0.07810363 -0.015944181
000010 cf 3a 2e bd fe 4d 03 3e 51 14 81 bd 38 e8 a3 3d
       -0.042536553 0.1282272 -0.06302703 0.080032766
000020 fe 13 80 3d 0a e2 3f 3d c4 40 c9 3d 48 04 90 bd
       0.06253813 0.046846427 0.09826806 -0.070320666
000030 96 8f a6 3c 52 c1 54 bc 01 e9 7c 3d 59 11 4a 3d
       0.020332139 -0.012985544 0.061745647 0.04933295
000040 a8 f2 be bc f1 e1 6f bd 86 88 57 bd 2b d8 c5 3d
       -0.023309067 -0.058565084 -0.052620433 0.096603714
000050 dd 54 73 bd 8e 11 15 bc 28 f5 be 3d 83 db de 3d
       -0.059407104 -0.009098424 0.093241036 0.10881712
000060 5e 02 3b 3d e0 72 10 bd 89 bb 70 bc 89 b0 c3 bd
       0.045656554 -0.035265803 -0.014693149 -0.09555156
000070 0d 92 52 3d 12 c3 55 3c 70 53 78 3d a7 2d b0 3d
       0.051408816 0.013046997 0.060626447 0.086024575
000080 6d e8 50 bd 13 d2 c1 3d 28 9a 85 3d 9e 38 1a 3c
       -0.05100291 0.094638966 0.065235436 0.009412913
000090 6a ef 15 3c ed ab a4 3d 5a 0b 88 3d d1 86 ed 3d
       0.009151319 0.08040605 0.0664279 0.1159798
0000a0 94 de 27 3d 59 fa 45 3c a0 36 74 bd 2e 1c 99 bd
       0.04098375 0.012083613 -0.059622407 -0.07476078
0000b0 bc 15 cf 3d aa cc 97 3d df f2 04 3d 6f 3e bd 3d
       0.101115674 0.074120834 0.032458182 0.09240424
0000c0 22 f6 46 3b a9 93 e9 bc 3b c6 11 3e 24 72 94 bd
       0.003035911 -0.028512793 0.14235775 -0.07248333
0000d0 f3 1d 8a 3d 81 2c ed 3d 49 f9 d7 3b 4a f8 57 3d
       0.067439936 0.11580754 0.0065909964 0.05272702
0000e0 ae c2 08 3e a0 86 45 bd 35 8b 0a 3e 18 64 57 3d
       0.13355514 -0.04822409 0.13529666 0.05258569
0000f0 1b 86 f1 3b 87 67 36 3d ab 9b 48 bd 13 93 dc 3d
       0.007370723 0.044532325 -0.04897658 0.1077024
000100 f1 8f bd bd d7 8a 57 3d 47 d6 20 3d 4c 52 8d 3d
       -0.0925597 0.052622642 0.03926685 0.069004625
000110 d2 a9 90 3d 27 ed 2b 3d 04 d0 ae bd 9f 86 f0 3d
       0.07063641 0.041974213 -0.085357696 0.11744427
000120 94 5d 89 3d 66 74 0c 3d 7e a9 82 bd ef 87 08 bd
       0.06707302 0.034290694 -0.06379984 -0.03333276
000130 f8 b6 76 3d 30 75 e2 3c 9b fe 9b 3d 1b 5e ca 3c
       0.060233086 0.02764377 0.076169215 0.024703076
000140 f8 cc 9f bc 35 00 76 bd d2 7f 8b bd ce 4a 90 bd
       -0.019506916 -0.06005879 -0.06811489 -0.07045518
000150 1b 3a 82 bd 73 12 f1 3b 60 49 c7 3d 82 2f 64 bd
       -0.06358739 0.0073569356 0.09730792 -0.05570937
000160 f8 a5 0d 3d 46 d4 90 bd 34 72 2e 3e 72 7c 40 3d
       0.03458211 -0.07071738 0.17035753 0.04699368
000170 b6 d0 b9 bd 19 69 15 bd d4 6e 81 bb 5f 32 d5 3c
       -0.090730116 -0.036477182 -0.0039499793 0.026024995
000180 99 b6 b0 3d 39 53 4c bd 88 ab 9a bd 43 3f a0 3d
       0.08628578 -0.049884055 -0.07552248 0.07824566
000190 e3 f6 c2 bd 2e 4d a3 bc 8a 92 69 3d 83 e8 d5 39
       -0.09519746 -0.019934263 0.057024516 0.0004079976
0001a0 57 c1 9f 3d 20 bd f4 bb 9f 2f 0a bc ae 1b b0 3d
       0.078005485 -0.0074688345 -0.008434205 0.085990295
0001b0 7f 86 d6 bd 75 41 eb 3c 8b 6f 26 3d 1b 95 84 bd
       -0.10474872 0.028717736 0.04063372 -0.06473752
0001c0 1b e3 ff 3d 5f f8 6b 3b 82 59 6e bd 68 cc a8 3d
       0.12494489 0.0036006195 -0.05819083 0.082421124
0001d0 a7 d5 c0 3d 1e c6 39 3d 70 af ae 3c e3 77 ab 3c
       0.09415751 0.045354955 0.02132389 0.02093119
0001e0 2d e0 06 3e 39 34 02 3d c2 62 d1 3b d3 1d 2c bd
       0.13171454 0.031788085 0.0063899467 -0.04202063
0001f0 09 14 5d bc 95 4b ee bd 08 d1 0b 3d 23 b7 0f 3e
       -0.013493546 -0.1163551 0.034134895 0.14034705
000200 66 36 67 3d e5 df 95 3d 49 2e 95 bc 34 f7 85 3d
       0.056448363 0.07318095 -0.018210547 0.06541291
000210 38 a8 48 bd 5f c5 18 bd e5 9d 93 bc 42 df e4 bd
       -0.04898855 -0.037297603 -0.018019626 -0.111753955
000220 a9 ef a8 bb f0 87 ef bd 6d 92 01 3e b8 14 d0 3d
       -0.005155523 -0.1169585 0.12653513 0.10160202
000230 31 ef db 3d 9b 78 ff bc 2e ed a7 bc 8f 8c 85 bd
       0.107389815 -0.031185439 -0.020498838 -0.0652095
000240 47 eb e2 bd 5a 7b a1 bd 47 bd bd bd 1d 17 f6 bd
       -0.11080032 -0.078848556 -0.092646174 -0.12016127
000250 d4 b8 f2 bd 2a b9 80 bc ef 5b 00 3d ac e4 48 bd
       -0.118516594 -0.015713293 0.031337675 -0.049046203
000260 94 e5 3a bc 93 27 26 3c 78 3b c3 bb e5 d1 46 3c
       -0.011407275 0.010141271 -0.005958017 0.012135004
000270 69 02 34 3d 66 45 7d bc fd 48 24 bd 0d 29 ad bd
       0.04394761 -0.01545844 -0.04010867 -0.084550954
000280 87 f2 03 be 7c ce 5f 3d f7 39 8b bc 34 f0 e5 3b
       -0.12885486 0.05464028 -0.016995413 0.00701716
000290 93 2e 2c 3d 2a ca d9 bd 48 71 c2 bd b2 ba ad bd
       0.042036604 -0.10634263 -0.09494263 -0.08482875
0002a0 6e 58 c3 3c 0a 1d c1 3d 6b b3 6d 3d 1b eb ab 3d
       0.023845877 0.09429367 0.058032434 0.08394452
0002b0 2b d5 8a 3d 56 ad a2 bd 62 59 c5 bd 6e a4 21 3d
       0.0677894 -0.079432175 -0.09636189 0.039463453
0002c0 e1 62 45 bd ac b8 7d 3d 40 95 48 3d 81 45 1a bd
       -0.04819 0.061943695 0.04897046 -0.03766394
0002d0 9b aa fb 39 c7 9b c2 3c 7d 01 5f 3d f1 90 cd bd
       0.00048001562 0.023755921 0.05444478 -0.10037411
0002e0 28 30 b3 bd d6 c0 2c bc 4e 80 91 3b fe d9 0f 3b
       -0.087494195 -0.010544023 0.004440344 0.0021950002
0002f0 39 dc 12 bc 84 ce b5 3d 5d 10 43 3d 54 db e2 bd
       -0.008963638 0.0887728 0.047623027 -0.1107699
000300 80 71 2f bd 94 6c 84 bd 98 d8 93 bd 18 d4 95 3c
       -0.04283285 -0.06466022 -0.07219046 0.01828961
000310 f1 8b 8c bd d6 e2 fb 3d 52 e7 fc bc 1d e7 b1 3d
       -0.06862629 0.12299125 -0.03087202 0.086866595
000320 75 13 cd 3b 0e da fc 3d 81 ee 84 bd 5b b6 85 3d
       0.006258423 0.12346278 -0.064908035 0.06528922
000330 fe 86 01 bc 45 9f 58 bd 5f a0 a3 bc b9 f8 a9 bd
       -0.00790572 -0.052886266 -0.019973932 -0.08299393
000340 fc b4 9a 3d bc f4 d0 3c a3 df 25 bd ab 67 1e bd
       0.07554051 0.025507323 -0.04049648 -0.038673084
000350 5d 10 91 3d 47 07 00 3e fc de cb 3d fc a3 a5 bd
       0.07083199 0.12502776 0.0995464 -0.08087918
000360 f6 c2 e8 3d 5e 94 1b bc 31 cf d1 3d a7 c1 df 3d
       0.11365311 -0.009495823 0.10244597 0.10925608
000370 c9 d2 19 3d 9f 24 f8 3c 5a 82 e2 3d fb 82 95 3c
       0.037554536 0.0302909 0.11060019 0.018250933
000380 5d 43 8d bb 40 8e 82 bd a8 27 0d 3e 78 f3 a3 bd
       -0.004311009 -0.06374788 0.13784659 -0.08005422
000390 80 0d 14 bd d9 30 05 3e 9d af 57 3d 0f 72 16 bd
       -0.036145687 0.13006915 0.052657712 -0.03672987
0003a0 7d 60 f0 3d 66 72 0a bd 9d c0 8f 3c b1 16 34 3c
       0.11737154 -0.033800505 0.0175479 0.010991738
0003b0 42 d6 0d 3d 2a ef 41 bc 55 05 ac bd 91 67 c1 3d
       0.03462816 -0.011836806 -0.083994545 0.09443582
0003c0 43 a5 27 bd c0 1f f5 3d 11 05 54 bd 44 82 3b bd
       -0.04092909 0.119689465 -0.051762644 -0.045778528
0003d0 18 1a a8 bc 6e 26 89 3c 08 fe 0e 3e 71 4b 88 bd
       -0.020520255 0.016741958 0.13964093 -0.06655014
0003e0 b6 2b 94 3c e9 16 e8 bc 96 41 ec bc 0e 8f ec bc
       0.01808725 -0.028331237 -0.028839868 -0.028876808
0003f0 c3 3a bc 3d 24 d9 12 bd 0e f1 63 bd 8f f7 31 bc
       0.091908954 -0.035851613 -0.05564981 -0.010862245

fc.weight f4 [8, 64]
000000 9d d6 ae bd 99 e6 cf 3d a5 37 03 be d6 e1 be 3d
       -0.08537028 0.10151405 -0.12814195 0.093204185
000010 1c 1c 86 3d 3c 46 eb bd 17 92 08 3d e6 0e 12 be
       0.0654833 -0.114880055 0.033342447 -0.14263496
000020 ea cc 87 bd 35 ce f2 bd 41 4d 1b 3e 6a 58 fa 3d
       -0.06630881 -0.11855737 0.15166189 0.12223895
000030 cc c9 f5 3c 05 00 c1 3d b3 9a 0a 3e 00 03 d8 3c
       0.03000345 0.09423832 0.13535576 0.026368618
000040 55 b6 fd bd bc c0 09 ba 1f b0 01 3e b3 88 f6 3d
       -0.12388293 -0.0005254855 0.12664841 0.12037792
000050 b3 bb bd bd 79 f1 82 3d e5 60 7f 3c 5c db 1f 3e
       -0.092643164 0.063937135 0.015587066 0.15611023
000060 62 88 9a 3d 18 89 3a 3d b8 5b 4a 3e 95 e9 bf bd
       0.07545544 0.0455409 0.1976155 -0.09370724
000070 b1 be 25 be 00 00 06 be 41 7d dc bd 9e 9d 3c bc
       -0.16186024 -0.13085938 -0.10766078 -0.011512188
000080 fd 6f a5 bd 08 d1 27 be 1c 73 07 be f3 aa 7c 3c
       -0.08078001 -0.16388333 -0.13227504 0.015421617
000090 bd 6d 15 bc 4a 9c 30 3b 0d e8 2f bd 7b ab 19 bd
       -0.009120402 0.0026948624 -0.04294591 -0.037517052
0000a0 ee c7 15 3e 0c bc 0d 3e ed 8e 8d bd 09 d9 24 be
       0.14627048 0.13841265 -0.069120266 -0.16098417
0000b0 29 9e 90 bd 00 27 09 bd a3 9b 40 be 9d 12 c6 3d
       -0.07061417 -0.03348446 -0.1880937 0.09671519
0000c0 99 c8 56 3d 13 b9 4c bd 58 2b 35 be 69 ba 8f bd
       0.0524374 -0.049981188 -0.17692316 -0.07017977
0000d0 00 22 fb bb d5 37 91 bd b4 e7 5b 3d cb 00 0e be
       -0.007663965 -0.07090727 0.053687766 -0.1386749
0000e0 77 64 c3 bd 54 cc 9f bd c8 cc 5e 3d 33 b2 4a 3e
       -0.095406465 -0.07802644 0.054394513 0.1979454
0000f0 28 b2 d9 3d 0d 54 a9 bd c2 f2 0c bd ab ed 00 bb
       0.10629684 -0.082679845 -0.0344112 -0.001967291
000100 dc b9 c7 bb b9 9a d5 bc 12 65 b6 bd 26 d3 37 bd
       -0.006095154 -0.026074754 -0.089059964 -0.0448791
000110 d0 c7 16 3e 74 88 be b9 bc 7c 09 be d0 75 7c 3d
       0.1472466 -0.0003634129 -0.13426489 0.061635792
000120 3e 85 37 bb 39 4b f2 3d 2c 34 dd 3c 6a 71 ad bd
       -0.0028003003 0.11830754 0.027002417 -0.08468898
000130 05 0a 32 3d 1a e1 ff 3c 86 04 81 3b a7 71 39 3d
       0.043466587 0.031235266 0.003937307 0.045274403
000140 b6 bc 27 bc 3f 04 ac 3d 93 de ff 3d 42 16 86 3d
       -0.010237863 0.083992474 0.124936245 0.06547214
000150 c3 cd 94 bd 67 37 1f 3c a5 d8 80 bd 93 a4 c5 bd
       -0.072658084 0.009717799 -0.06291322 -0.09650531
000160 84 cc 7a 3d 90 0f ac bb f4 df bb ba 03 89 f7 bd
       0.061230198 -0.0052508786 -0.0014333711 -0.1208668
000170 64 6c 1d 3e 01 b9 39 be 17 bc 90 bd cc 63 bf 3d
       0.15373379 -0.1813698 -0.07067125 0.093452066
000180 cf 22 84 3c ac fd 81 3c 4a 87 55 bd 7f 0c 31 be
       0.01612988 0.01586803 -0.052130975 -0.17289923
000190 ae de 6c 3d 11 31 07 3e 66 7a dd bd 02 df 8a 3d
       0.05782955 0.13202311 -0.10814361 0.067808166
0001a0 47 ff b7 bc 30 cc 93 3c 7d b8 89 39 41 9d 2b 3d
       -0.022460593 0.0180417 0.0002626813 0.041898016
0001b0 f3 ee d0 3c e5 54 e1 3b a4 ba ad 3d c4 4a 83 3d
       0.025504565 0.0068765753 0.084828645 0.06410745
0001c0 78 d1 0a bc e8 93 f5 bd 96 e8 f0 3d 2b 4f 94 bd
       -0.008472793 -0.119911015 0.11763112 -0.072416626
0001d0 a8 14 0a be 40 52 46 3d 34 82 ad bc df 61 bd bd
       -0.13484442 0.048418283 -0.02118025 -0.09247183
0001e0 16 2e 01 3e c1 4a d6 bd a7 89 13 be 42 e7 90 3d
       0.12615237 -0.10463477 -0.14407979 0.07075359
0001f0 6e d7 0c 3e d8 e0 e3 bc 19 05 22 3e e1 cb 2a 3e
       0.13754055 -0.027817175 0.15822257 0.16679336
000200 f5 9f ea bd b6 22 ca ba 0a f6 42 bc 73 96 5c be
       -0.11456291 -0.0015421722 -0.011899481 -0.21541767
000210 38 5c cf 3d 76 ad 16 3d 16 70 81 bd 86 d6 f4 3c
       0.10125011 0.03678652 -0.06320207 0.029887449
000220 b4 3e 59 be 00 fd 7d 3d 79 3c 54 be bd 7f e6 3d
       -0.21215326 0.062008858 -0.20726193 0.11254833
000230 1a b3 06 be da 2f 14 3e ec b1 a5 bd 34 40 d5 bc
       -0.1315426 0.14471379 -0.080905765 -0.026031591
000240 1c c3 1e 3e 1e e6 c2 3d 90 63 f0 bc 8f 63 40 3e
       0.15504116 0.095165476 -0.02934435 0.18787979
000250 84 3f 3a bc 11 b3 15 3e dc 47 9e 3d 82 ca ce bd
       -0.011367682 0.1461909 0.0772855 -0.10097219
000260 c3 47 d2 3d 55 6c 9a 3d 8e 7a 97 3c f8 37 ed bc
       0.10267594 0.07540194 0.018491056 -0.028957352
000270 2e 53 bf 3d 4d 54 42 be 06 fa cd bc ee 67 c9 3d
       0.09342037 -0.1897747 -0.025143635 0.09834276
000280 8e f7 2d 3e c2 99 d8 bc 21 a3 04 3c 91 68 1b be
       0.16988966 -0.026440505 0.008095534 -0.15176608
000290 92 c2 36 bc d9 05 33 3e 08 b8 02 bc 85 18 18 be
       -0.011154788 0.174827 -0.007978447 -0.14853103
0002a0 5b 7b bf bd 69 7a 5d be c9 a8 ee bc eb a3 b2 3d
       -0.093497 -0.21628727 -0.029133217 0.08722671
0002b0 9a fd fe 3c 5d a6 18 3c f3 06 18 3e 16 41 55 be
       0.031126786 0.009317008 0.14846401 -0.2082561
0002c0 19 6b cb bd f6 c9 42 be e0 af 02 3e ba 9b 40 3e
       -0.09932537 -0.19022354 0.12762403 0.18809405
0002d0 33 d7 b7 bd 79 30 22 3e 1c 31 ff 3a b1 4a 93 3d
       -0.08976593 0.15838803 0.0019469592 0.07191981
0002e0 f8 15 d0 b9 32 41 0c 3e 60 74 c6 bd 98 b1 72 bd
       -0.0003968922 0.13696745 -0.096901655 -0.059251398
0002f0 e3 da c4 bc ad 87 ca 3c d7 bb c8 3d a9 71 19 3e
       -0.024030155 0.024722898 0.098014526 0.14984764
000300 ea 40 b1 3c 47 13 30 3e 25 6a 9c bd 71 d1 ed bd
       0.021637399 0.17194854 -0.07637433 -0.116122134
000310 39 dc 74 3d 0e 9c a3 bb 54 11 29 bd a9 c2 05 3e
       0.059780333 -0.0049929684 -0.04127629 0.13062538
000320 3f ac 41 bd d0 90 12 3d 77 b2 a1 bd 06 35 e3 3d
       -0.047283407 0.035782635 -0.078953676 0.11094098
000330 b7 54 de 3c da e0 50 3e 17 a7 30 be 16 71 bc 3d
       0.027140005 0.20398274 -0.1725124 0.09201257
000340 bd de b5 3d c2 f4 6c 3d 50 0d 21 3e b8 82 2d 3e
       0.088803746 0.057850607 0.15727735 0.16944396
000350 b6 3c 19 3e f5 b2 18 3e 99 13 60 3d 81 4d 05 be
       0.14964566 0.14912017 0.05470619 -0.13017847
000360 87 93 a9 3d c5 39 44 3e c9 10 90 3d 64 e6 2d bd
       0.08280092 0.19162662 0.070344515 -0.042456046
000370 c7 b7 27 3e 84 11 99 bc de 96 23 3e bc e4 b4 3d
       0.16378699 -0.01868511 0.1597552 0.0883269
000380 46 ee 1c bd 97 31 17 bd 34 1f 98 bd e0 41 0c 3c
       -0.038313173 -0.036912527 -0.074278265 0.008560628
000390 6a 73 d8 3d e9 cb 92 3d f8 5c 4b 3e e0 55 50 be
       0.105688885 0.07167799 0.19859684 -0.20345259
0003a0 6c b6 14 bd 3a ee 39 be a4 93 df bd fb 23 f4 3d
       -0.036306784 -0.18157282 -0.10916832 0.11920925
0003b0 7f c3 28 3e 28 de 08 3e 7f 67 41 3e ae 0c c8 bb
       0.16480826 0.13365996 0.18887137 -0.006105027
0003c0 f0 b6 99 bd 1c 6c 10 be f4 37 15 3d 32 07 95 3d
       -0.07505596 -0.1410374 0.036430314 0.07276763
0003d0 15 aa 7b 3a 6a 16 a7 3d f3 0f d3 3d c8 e1 13 bd
       0.00096002343 0.08158572 0.103057764 -0.036103994
0003e0 5b d2 df 3d 32 a4 87 3d 16 42 1c be 35 03 17 3d
       0.10928794 0.06623115 -0.15259585 0.036868293
0003f0 92 8c 57 3d c2 c9 cc bc 18 83 3c 3c 8c ec 1d 3c
       0.052624293 -0.02499855 0.011505865 0.009638917

fc.bias f4 [8]
000000 92 a5 be 3d fa d8 ab 3d e0 36 38 3b 5f b5 49 be
       0.09308924 0.08390994 0.002810888 -0.19698094
000010 ee 09 9e bc db 4e ec 3d b3 bc d8 bd 6d 0f 87 bb
       -0.019291844 0.11538478 -0.105828665 -0.004121712
