data/processed/ml_engine/model.pt (torch, 650039 bytes, 7 tensors)

embedding.weight f4 [2000, 64]
00000000: 0000 0000 0000 0000 0000 0000 0000 0000
00000010: 0000 0000 0000 0000 0000 0000 0000 0000
00000020: 0000 0000 0000 0000 0000 0000 0000 0000
00000030: 0000 0000 0000 0000 0000 0000 0000 0000
00000040: 0000 0000 0000 0000 0000 0000 0000 0000
00000050: 0000 0000 0000 0000 0000 0000 0000 0000
00000060: 0000 0000 0000 0000 0000 0000 0000 0000
00000070: 0000 0000 0000 0000 0000 0000 0000 0000
00000080: 0000 0000 0000 0000 0000 0000 0000 0000
00000090: 0000 0000 0000 0000 0000 0000 0000 0000
000000a0: 0000 0000 0000 0000 0000 0000 0000 0000
000000b0: 0000 0000 0000 0000 0000 0000 0000 0000
000000c0: 0000 0000 0000 0000 0000 0000 0000 0000
000000d0: 0000 0000 0000 0000 0000 0000 0000 0000
000000e0: 0000 0000 0000 0000 0000 0000 0000 0000
000000f0: 0000 0000 0000 0000 0000 0000 0000 0000
00000100: e2f2 8ebf 37bf 4f3f d123 4bbe 136f 72bf
00000110: d128 bf3e d993 553f 7810 113e 1b3a 8dbf
00000120: 937e 8fbe 5004 2a3f b5fa 403f 7f05 f8be
00000130: f3ae cc3e afc0 53bf 05c9 0f40 ef55 c6bf
00000140: b2e5 0f3f fbd6 083f a854 f43f 2d3e 32bf
00000150: f9b6 ff3f 98a6 5cbf 95d0 dc3e d354 d43c
00000160: 3e03 a3be 2d14 a1bf 637b b03f 1da0 05bf
00000170: 0ce2 5dbf 7346 4b3f f007 ed3e 0c6b e23d
00000180: 9720 823e eb5e f8bf e895 103f d78d 613f
00000190: 178e 813d 3c17 d43f 0b96 e3bf 7492 13c0
000001a0: 261c bdbe b16f d23d bb95 823f 6ac4 dbbd
000001b0: 7436 363e ab39 69bf 72aa d83e cabb 1ebf
000001c0: bb11 403f 0e97 afbf 1107 3fbf 4506 18bd
000001d0: 4ada bfbf c231 223f ab5e 91be 971e 5fbf
000001e0: 1882 923f b242 0e40 e7b3 fa3e 10dc f7bc
000001f0: 3758 8fbf 72ad 2bbd 96d2 bb3e ee77 e13e
00000200: 88ba 11bf c471 5dbf 1920 30bf d8b4 2cc0
00000210: d529 e7be 6479 c23f 3984 753f 862c d9be
00000220: 6aa9 7a3f f7de 133f 7a91 1240 a385 40bf
00000230: 1515 8d3f 7b3f a43e 8754 64bf e9a3 3abf
00000240: b0fa 58be f57c 553f 3122 293e 7f4e 543c
00000250: ca15 efbe ff57 52be 1998 cd3f 17f9 c93e
00000260: 0046 b1bf 8095 683f 85e7 973f acec 5f3f
00000270: 5ca2 49be 3cf6 04bf 4da5 583e 33b6 dc3f
00000280: 6f65 593f 4fd8 1fbf 6b94 47bf f313 0ec0
00000290: a74b df3e 804d 6bbf 02e4 833e 5d8a a5bf
000002a0: b837 0140 bc35 8abe bddc b7bd 011e 12be
000002b0: 10ac 0a40 16d0 1a3f 60fc d83f a5a1 e0be
000002c0: 519e e13f 05a3 1d3f ac9d 5040 583c 4dbf
000002d0: fc5f 0cbe aea9 b33e 0327 11bf 2a6a 3c3f
000002e0: b504 223f 20d2 96bd 0341 b7bf 9157 f33f
000002f0: e205 133f 6e73 0a3e 62d5 0fc0 d26f d7bf
00000300: 41ce 8dbe b4fd 88bf d583 043f 4de9 40be
00000310: 42fc a83e 0a6e 5cbf cdf2 9d3f 0e68 e5bd
00000320: 7e96 f03f 68ce 08be 2bf6 1c3e d497 553f
00000330: 2bff d6be 72b8 aa3f c856 2240 09d9 af3f
00000340: 3c39 1bbf 6fa1 113f 4606 873e adc0 9e3d
00000350: 4144 f53f 96f1 e63e 923a 77bb 12d1 c0bc
00000360: 9592 913f 1853 f7bf 251d 01c0 61b5 d83e
00000370: 3130 b0bf b94a 8fbe bf64 b6be 3a1c 533f
00000380: f8d0 2f40 b3d5 603e 73ca 6a3f aa95 54bf
00000390: 1b21 993e 4126 aabf 6a23 0ebf f12c 27bf
000003a0: 9e20 673f cf51 f03f eb12 2fbf 094f 873f
000003b0: cfa9 753e 1882 b23e 9ddf 3d3f 21c1 00be
000003c0: 980c 96be 45c6 babf 33ab 4d3f 4cb6 a9bf
000003d0: da02 313f 1f08 1b3f 7e5d bd3f bc60 453f
000003e0: 6205 623f 377b c6bf 1150 7b3e 5bdf d73f
000003f0: ad1d 9e3f db9b 34bf a7a5 723f 365d c93f
0.0 0.0 0.0 0.0 0.0 0.0 0.0 0.0
0.0 0.0 0.0 0.0 0.0 0.0 0.0 0.0
0.0 0.0 0.0 0.0 0.0 0.0 0.0 0.0
0.0 0.0 0.0 0.0 0.0 0.0 0.0 0.0
0.0 0.0 0.0 0.0 0.0 0.0 0.0 0.0
0.0 0.0 0.0 0.0 0.0 0.0 0.0 0.0
0.0 0.0 0.0 0.0 0.0 0.0 0.0 0.0
0.0 0.0 0.0 0.0 0.0 0.0 0.0 0.0
-1.1167872 0.81151146 -0.19837882 -0.94700736 0.37335828 0.8342872 0.14166439 -1.1033357
-0.28026256 0.6641283 0.7538255 -0.48441693 0.39977226 -0.82715887 2.2466443 -1.5494975
0.5620986 0.53453034 1.9088335 -0.6962612 1.9977714 -0.861917 0.43127885 0.025919354
-0.3183841 -1.2584282 1.3787655 -0.5219744 -0.86673045 0.7940437 0.46295118 0.11055574
0.2541549 -1.9403967 0.5647874 0.88107055 0.063259296 1.656959 -1.7780164 -2.3058138
-0.36935538 0.1027521 1.0201944 -0.107308224 0.1779421 -0.9110362 0.4231754 -0.62005293
0.75027055 -1.3717973 -0.7462016 -0.037115354 -1.4988492 0.63357174 -0.28392538 -0.8715605
1.1445951 2.2228208 0.4896538 -0.030256301 -1.1198796 -0.041913457 0.36684102 0.44036812
-0.5692525 -0.8650172 -0.6879898 -2.6985378 -0.45149103 1.5193295 0.9590488 -0.4241678
0.97914755 0.5776209 2.2901292 -0.75203913 1.1022059 0.32079682 -0.8919148 -0.7290636
-0.2118938 0.83393794 0.16516949 0.012958168 -0.4669631 -0.2054138 1.6062042 0.39447853
-1.3849487 0.9085312 1.1867529 0.8747051 -0.19690841 -0.51938224 0.21156807 1.7243103
0.849204 -0.62439436 -0.7796084 -2.2199676 0.43612406 -0.9191513 0.25759894 -1.293285
2.0190258 -0.2699412 -0.08977649 -0.14269258 2.1667519 0.60473764 1.6952019 -0.43873325
1.7626439 0.61576873 3.2596235 -0.801702 -0.1370849 0.35090393 -0.5670015 0.73599494
0.6328843 -0.07364297 -1.4316715 1.9011098 0.5743085 0.13520595 -2.2473989 -1.6831
-0.27696422 -1.0702424 0.5176366 -0.18838997 0.33004957 -0.86105406 1.2339722 -0.112014875
1.8795927 -0.13359988 0.1532828 0.83434796 -0.41991553 1.3337538 2.5365467 1.3738109
-0.6063421 0.56886953 0.26371974 0.07751594 1.9161454 0.4510619 -0.003772412 -0.023537192
1.1372858 -1.9322233 -2.0174038 0.4232588 -1.3764707 -0.27986696 -0.35623738 0.82464945
2.7471294 0.2195652 0.91715163 -0.8304087 0.2990807 -1.3292924 -0.5552279 -0.6530295
0.90284145 1.8774966 -0.6838824 1.0570995 0.23990558 0.3486488 0.7416933 -0.12573673
-0.29306483 -1.4591757 0.80339354 -1.3258758 0.69144976 0.60559267 1.4794157 0.7710073
0.88289464 -1.5506352 0.24542262 1.6865038 1.2352806 -0.70550317 0.94784015 1.5731571

lstm.weight_ih_l0 f4 [256, 64]
00000000: d998 7bbd 33d7 d4bd 4aaa d53d fe5c 7d3c
00000010: e616 8e3c e9d1 89bb a8a3 dfbd 6b74 603c
00000020: 143c 6cbd 9654 1b3d 1ce5 5d3d 52cf 20bd
00000030: b859 273c 5145 6f3d e041 51bd 1a4a d8bd
00000040: 721b 19be 64fc 683d 7276 df3d 734f 51bd
00000050: 785a d93d 02fc 11bd bdc6 03be f165 743d
00000060: e034 85bc b4b6 b3bd 7486 f43c 2384 b9bd
00000070: 43fb 95bd 946e bb3d 4488 35bd bcde 60be
00000080: b3d5 d93c 9daf 0a3e b03d 423c 06d8 e73d
00000090: f1a0 9a3d ca27 c13d 143c 68bc 4da1 70bd
000000a0: 37f7 50bb 0a27 023e ccb8 693d 05d6 623d
000000b0: 0469 913d e54d 993d b605 6ebd f888 e03c
000000c0: de1f 523d ca98 b73c 166a 4b3d 0d69 61bd
000000d0: 327c 25be d0dc 893d 93f6 533d 51be 4cbc
000000e0: dbd3 80bd 3ba0 203b b19c 52bd fd5e f13c
000000f0: 343d e8bd 320e cf3d be6a ebbd bb2d d1bd
00000100: e014 a8bd 0b4e 93bc 9eaa bfbd 99f7 c73c
00000110: fa64 21bd 6c26 80bc c680 ed3c 9ac6 afbd
00000120: 3e3d 43bd 4c08 ddbd fdb3 f63d c08b ba3d
00000130: ea1f e2bd f9fe 31be ac6b 13bd edfc 853d
00000140: 684d ffbc 4c68 923b 70d6 bc3d 8215 0c3b
00000150: 7382 17bc 1945 9ebd d8e9 c2bd cea4 bbbd
00000160: 8f46 8dbb 8d14 fc3d 9f74 c73d 683b efbd
00000170: cc26 df3c 88c3 7e3c f65a 093e e4d8 25bc
00000180: 53c6 ddbd 8004 dc3d 9f7d 863d 3868 983d
00000190: e58c fbbd 5598 a6bb f7c3 e83c c97b c4bc
000001a0: 844b d43d 494d 433d a347 20bc e7c8 42bc
000001b0: a224 cd3d cc28 9dbd 638b 0ebe 3a08 153d
000001c0: 819e 2abe 5f36 3cbd f660 9d3d 2391 69be
000001d0: e0b7 49bc 7527 853d b34c f8bd b431 ec3d
000001e0: d7ce 0f3e 0b7b 7d3d 8f06 053d 5acf dcbc
000001f0: 9c53 bb3c 054c 9b3d 8cf0 eb3c 23b9 823c
00000200: 154f e13c f73f 40bd c64c e5bd accb dbbd
00000210: 6ac9 de3d 0bbd d73d 0eea f0bd 2d7a 333e
00000220: 64d1 aa3d 6e48 ddbc 9118 3bbb 1f8c 70bd
00000230: 901f 373d 0575 553d 1e3b 6ebd cba0 f0bd
00000240: 59ba cc3d ecc6 55bd d0f8 303d 8438 c0bd
00000250: 5a15 06bc 09d9 a8bd f821 6ebd f40d a2bd
00000260: 7b0f bcbd 2dae b1bd 6687 cbbd 65c6 023e
00000270: 15dc 29be 7a9a 963d b4e5 07bd dff3 273d
00000280: 7b57 e6bd a0bc 85bc 3f91 f23c ca68 1c3e
00000290: 136b b6bd b157 cf3d e27e 05be 3694 e13d
000002a0: deaa 9dbd 76d4 c3bd e41c a1bd 3679 bdbb
000002b0: 0221 553b d577 b53d ec09 2abe ae05 8a3d
000002c0: e77b 0abe d0cb dabd 35bc b2bd 3a39 e23d
000002d0: 1dde c23c 4497 79bd b7a8 a1bd 9fb7 6fbd
000002e0: 58c0 1c3e c1b8 8cbb 2b2d 343e 6b23 bf3d
000002f0: 2e27 8cbd 407d 81bd 5c72 9e3d fb89 97bd
00000300: e223 c6bd 80c0 fd3c 5f20 753d dd67 bdbd
00000310: 6bba 123d 93af 6c3d cb70 d93c 8ce1 813d
00000320: 454c 903d f1f4 ff3d 8447 013e 2fdd ec3c
00000330: 02a9 20be 3b70 9fbd 0400 10be 9f54 74bd
00000340: e8a5 0fbe 8e23 ad3d 9b05 bb3d c5c6 b63d
00000350: 43b5 72bd 1f7c fe3c 4ca6 a73d 87f7 353d
00000360: 2eff c63d 47f5 b1bd 221b d63d 9a6e a9bb
00000370: 654d afbd d640 823d a8e4 e1bd a689 31be
00000380: 40d2 02be 5b31 0c3d 7a81 1b3d 26b1 b03c
00000390: 65ca 763d aa46 c33c ff49 16bc 3ca8 6bbc
000003a0: 2074 e33d b644 b7bd ba88 633d 0255 56bd
000003b0: 4ea6 55bd 3bbb 09be 5e69 d6bc a643 783d
000003c0: 04de 96bd a01d f7bd 63cb c53c 680c d43d
000003d0: d099 713d 7fb7 33bc 28aa 2d3e 16be 5cbd
000003e0: c6a5 d9bd acaf 653d 5fef 5e3d 86d6 863c
000003f0: 3f0f 9dbc d952 cc3d 1ea4 29bd 4cd4 6f3d
-0.061425064 -0.103926085 0.10432871 0.015464066 0.017344903 -0.0042059314 -0.10919887 0.013699631
-0.057674482 0.037922464 0.054173574 -0.039260216 0.010214262 0.058415715 -0.051088214 -0.10561009
-0.14951876 0.056881323 0.109112635 -0.05110116 0.10612959 -0.035640724 -0.12868781 0.05966753
-0.016260564 -0.08775082 0.029849268 -0.09058406 -0.07323315 0.091519505 -0.044319406 -0.21959966
0.026591158 0.13543554 0.011855528 0.113205 0.075502284 0.09431417 -0.01417448 -0.05874758
-0.0031885633 0.12710205 0.057061 0.055379886 0.07100108 0.0748556 -0.058110915 0.027409062
0.051299922 0.022411723 0.04966172 -0.055031825 -0.16160658 0.0673157 0.051748823 -0.012496547
-0.06290408 0.0024509567 -0.051418964 0.02946424 -0.113397986 0.101101294 -0.11494969 -0.102138005
-0.082071066 -0.01798155 -0.093587145 0.024410056 -0.03940294 -0.015643321 0.028992068 -0.08582802
-0.047665827 -0.10792598 0.12046049 0.091086864 -0.110412434 -0.1738242 -0.035991356 0.065423824
-0.03116484 0.0044679996 0.09220588 0.0021375124 -0.00924741 -0.07728023 -0.095172584 -0.091622934
-0.0043113898 0.12308607 0.097390406 -0.11681253 0.02724018 0.015549548 0.13413605 -0.010122512
-0.10828843 0.10743046 0.06566929 0.07441753 -0.12282733 -0.0050840774 0.028413756 -0.023984807
0.10365966 0.047681127 -0.0097827045 -0.011888719 0.10016753 -0.07673797 -0.1392036 0.0363848
-0.16662027 -0.04595029 0.076845095 -0.22809272 -0.012311906 0.065016665 -0.12124004 0.115329176
0.14043747 0.06188492 0.032476958 -0.026954342 0.022867016 0.07582859 0.028801225 0.01595742
0.02750353 -0.046936 -0.11196284 -0.10732207 0.108782604 0.10534104 -0.117633924 0.17527075
0.08340719 -0.027012076 -0.0028548578 -0.05872738 0.044707835 0.05211355 -0.058161847 -0.11749419
0.099964805 -0.05219166 0.043206036 -0.093857795 -0.008183802 -0.08244521 -0.058137864 -0.079128176
-0.0918264 -0.086757995 -0.099379346 0.12770994 -0.16587861 0.07353683 -0.033178046 0.041004058
-0.11247154 -0.016325295 0.029610274 0.15274349 -0.089071415 0.10124148 -0.13036683 0.11014597
-0.07698606 -0.09562008 -0.078668386 -0.0057822717 0.0032520895 0.08860747 -0.16605347 0.067393646
-0.13523827 -0.106834054 -0.08727304 0.11046071 0.023787552 -0.060935274 -0.07893508 -0.058524724
0.15307748 -0.0042944853 0.17595355 0.09332927 -0.068434104 -0.06322718 0.07736656 -0.073993646
-0.09674813 0.03097558 0.059845325 -0.09248326 0.035822313 0.057784628 0.026543042 0.06341848
0.07045797 0.12497891 0.12624937 0.028914062 -0.15689471 -0.07785078 -0.14062506 -0.059651013
-0.14028132 0.08454047 0.091319285 0.08924631 -0.059254896 0.031065045 0.081860155 0.044425514
0.097166404 -0.08689361 0.10454394 -0.0051706554 -0.08559684 0.06360023 -0.11029941 -0.17337665
-0.12775517 0.034226757 0.037965275 0.021568846 0.060251612 0.023837406 -0.0091729155 -0.014383372
0.111061335 -0.089486524 0.055550314 -0.052327164 -0.052160554 -0.13450329 -0.02617329 0.06061139
-0.07366565 -0.120661974 0.024144834 0.10353929 0.058984578 -0.010969042 0.1695944 -0.053892218
-0.10627322 0.056075737 0.0544275 0.016459715 -0.019172309 0.099767394 -0.04141628 0.05855207

lstm.weight_hh_l0 f4 [256, 64]
00000000: 2d1a ce3d d745 f93d 2979 0a3c 6524 3e3e
00000010: 78ea 0cbe 2ce3 18be 6b38 29bc 5a7b 1a3b
00000020: 0faa 813d 53cd f1bd c09f 3c3d b4bb a73c
00000030: e059 cc3c 6b94 4d3c 4480 93bd 8413 0a3d
00000040: 6eb9 24bc 476f 3e3d 2b69 293e b0e5 82be
00000050: 7e72 b63d 0b5e 62be 72da 7d3d e65e 3e3d
00000060: 3ae9 4cbd fca0 d2bc 8da4 eb3d e1a9 2a3d
00000070: 87b2 30bd 80d2 d8bd 9018 e8bd 3f5c b43d
00000080: ce33 123d f52e c4bc 4304 9f3d f091 ddbd
00000090: cadb 953d 6274 b9bd 7b05 923d 2a86 05bd
000000a0: 5042 7ebd c4fd 533e 3539 25be 3fb3 debd
000000b0: 7674 47bd 00a9 4f3c 3472 aabd c75a 2a3d
000000c0: dbce b2bc 6b27 08be ad80 e9bd 1b21 fcbd
000000d0: b03b 733d 2c5f babd c89e dbbc 9d68 43be
000000e0: 91d4 283d 2737 36bd a1e7 d33a 86a0 0b3e
000000f0: 0acf cc3d 29c4 513e 0b80 e93c ca43 cbba
00000100: 8aff d03d 7a33 8d3d 88d1 943d 3503 91bc
00000110: 03f2 aabc 3958 bc3d da6f 903e cf67 60bd
00000120: a471 1c3e a80b 30bd 3e54 6f3d 4d32 32bd
00000130: f91b 9ebd 0586 62bd 8729 90bd b09a 40bd
00000140: bf69 1c3c 86d5 593d 3258 07bd 32bd 19bd
00000150: f775 1a3e 3090 2dbe 2561 34bc 575c 033e
00000160: 427e 5b3c 8915 be3d 3628 21be 051b 5a3e
00000170: e34f 6d3d f9d3 c4bc 67e2 cbbd 2d2c 51be
00000180: 6807 c3bc d04a e4bd 7cba 583d 6683 4f3e
00000190: 1c03 bc3d 93da 88be 4667 6dbd 318b 45bd
000001a0: 0455 063e 8b59 253d 4e24 803d 11b1 013d
000001b0: 26ad 0b3c d9b1 01be 51e6 8b3d 9523 c73c
000001c0: effe eebd d6b4 d23c 8ffc 0abe e560 c63b
000001d0: b2ea 823d 6083 b43d 8293 243d a6d8 883d
000001e0: b9f0 533c bf08 833d 1f63 3d3e 3368 6ebb
000001f0: 56c7 b73c 042f 0f3e de84 63be dfd3 96bc
00000200: c9d5 c63d 75c2 d13c 5988 d03d bd63 223d
00000210: 4bc0 e9bc cfa9 463c 624a e23c 3ba9 12bd
00000220: f250 683e 1893 7dbd f587 80bc 0fc7 0fbc
00000230: 04a1 e7bc 406d 4c3d 994f bc3d f77b f3bc
00000240: 7835 14bb 98fb 5c3d 7e06 a83d b4f3 7cbd
00000250: 0a9d d1bd a2cf 45be 1c31 abbd 2678 883d
00000260: 4205 9a3c b689 85bd c561 65bd 970c 3e3e
00000270: 349f 033d 5b9e 2f3d eeb3 8c3a a105 abbd
00000280: 10a4 c83b 80e2 a73d cbfb cfbc 2308 353e
00000290: 2dc8 5abd 3947 1cbe 9939 e3bd 6533 dc3d
000002a0: a96c f73d 9488 2a3c 5185 9d3c 7f98 ad3d
000002b0: cf9c 13be 111d cfbc b4f5 1fbe 60b6 37b9
000002c0: 29f8 0a3d 8a75 14bd 7b4a 09be ec01 72bd
000002d0: b7ba 2ebd 7c9c 97bd d91e c73c 85dc 203d
000002e0: 4cfa c9bd d4e1 a33d a472 043e b6a6 9e3d
000002f0: 0a8f b0bd edae 34bc 93ac 2ebd a472 913d
00000300: 4baf 263c ad82 7bbd 376c 41bc 4f90 f53d
00000310: 2689 85bb 7666 e93c 87af 213d 8730 6f3d
00000320: 5cec af3b 6d81 d8bc 50f6 f4bd 2622 51bd
00000330: 9a12 2fbd 6b18 953d 821a b33d f4fd 14bd
00000340: 51ea 4fbd 09fe db3c d356 4d3d ab46 30be
00000350: 29af 65bd 6576 5ebd bbd4 f53d af08 8bbd
00000360: a9e6 233e a23c 183d 66fc ddbc 7eda a63d
00000370: e82c 55bd 7f48 d33d 5dc3 fc3d 35fe a9bd
00000380: e26c ddbd ca90 a93c f41f 01bd 98e0 213a
00000390: bb52 123e 743c 4bbe 8633 7a3d 43b8 f6bd
000003a0: e102 75bd f9c8 4d3b 3218 fbbd 0112 283e
000003b0: 3683 dbbd a0d9 4a3d f60a e3bc 4a3f dd3d
000003c0: 742c 2dbe c980 2dbe 1f74 5dbd 85ad 09be
000003d0: 0900 bf3c da56 fcbc 99ed 993d 8e42 12be
000003e0: 696c 153e d380 10be b658 4b3d cac0 cebd
000003f0: 8c70 f9bd 6f70 013d 7673 35be c874 c3bb
0.100635864 0.12171524 0.008451738 0.18568571 -0.13761318 -0.14930409 -0.0103283925 0.0023572058
0.06331264 -0.118067406 0.046050787 0.020475246 0.0249452 0.012547593 -0.07202199 0.033710018
-0.0100539755 0.04649284 0.16544025 -0.25565863 0.089085564 -0.22106187 0.061975904 0.04647722
-0.05002711 -0.025711529 0.11505995 0.041665915 -0.043139007 -0.10587025 -0.1133281 0.08806657
0.035693936 -0.023948172 0.07764485 -0.10818851 0.07317312 -0.090554014 0.071299516 -0.032598652
-0.06207496 0.20702273 -0.16135104 -0.10874032 -0.04869505 0.01267457 -0.08322564 0.04159048
-0.021827152 -0.13296287 -0.11401496 -0.12311002 0.059383094 -0.09100184 -0.026809111 -0.19082876
0.041218344 -0.04448619 0.0016167053 0.13635454 0.10000427 0.20484985 0.028503438 -0.0015507874
0.1020499 0.06894584 0.072665274 -0.017701725 -0.020867353 0.09196515 0.28210336 -0.0547865
0.15277725 -0.042979866 0.05842995 -0.043505 -0.07720179 -0.055303592 -0.07039171 -0.04702252
0.009546696 0.053182147 -0.033043094 -0.037533946 0.15084063 -0.16949534 -0.011009489 0.12828194
0.013396801 0.09281451 -0.15737996 0.2129937 0.057937514 -0.024026858 -0.09955292 -0.20427008
-0.023807243 -0.11147082 0.05291222 0.20264968 0.091802806 -0.2672926 -0.057959817 -0.048228446
0.13118368 0.040368598 0.062569246 0.031663004 0.0085251685 -0.126655 0.06831039 0.024308959
-0.116697185 0.025720995 -0.13572906 0.006054031 0.06392421 0.0881412 0.040179737 0.066819474
0.012935811 0.063981526 0.18494843 -0.0036378026 0.022433918 0.13982779 -0.22218654 -0.018411575
0.09708745 0.02560542 0.10182256 0.0396459 -0.028534075 0.012125446 0.02762336 -0.035805922
0.22687128 -0.061907858 -0.01568983 -0.008775487 -0.02827502 0.049908876 0.091948695 -0.029722197
-0.0022614878 0.053950876 0.08204363 -0.06175585 -0.10235031 -0.19317487 -0.08358976 0.066635415
0.018801335 -0.06520407 -0.056001443 0.1855949 0.03213425 0.04287563 0.0010734776 -0.08350683
0.0061230734 0.08197498 -0.025388619 0.17678885 -0.05341356 -0.15261544 -0.1109497 0.1075199
0.12081272 0.010408539 0.01922861 0.08476352 -0.14415286 -0.025282415 -0.15621072 -0.0001752018
0.03392807 -0.036244906 -0.13407318 -0.059083864 -0.042658534 -0.07402894 0.024306701 0.039272804
-0.098621935 0.08002058 0.12934357 0.07746641 -0.086210325 -0.011028034 -0.04264505 0.07101944
0.010173629 -0.06140392 -0.011805586 0.11990415 -0.0040751873 0.02849124 0.039474037 0.05839589
0.0053687524 -0.026428903 -0.11961043 -0.051057957 -0.04274235 0.07280048 0.0874529 -0.036375
-0.05076057 0.026854532 0.05013163 -0.17214458 -0.05607525 -0.05431213 0.12003466 -0.06788766
0.16005959 0.0371672 -0.027097892 0.08147143 -0.05204478 0.10316562 0.1234195 -0.08300439
-0.108117834 0.020698924 -0.031524613 0.00061751297 0.14289372 -0.1984728 0.061084293 -0.12046864
-0.0598172 0.0031400307 -0.12260474 0.16413118 -0.10718386 0.04952395 -0.027715188 0.10803087
-0.16911489 -0.16943659 -0.05406582 -0.13445099 0.023315446 -0.030803133 0.07516021 -0.14283201
0.14592136 -0.14111643 0.04964515 -0.10095365 -0.1217967 0.031601366 -0.17719826 -0.005964849

lstm.bias_ih_l0 f4 [256]
00000000: 51ac 423e 34e9 603d 18ca f7bc c625 2a3e
00000010: 651f 073e 56cd d9bc 0663 053e 4d6c f2b9
00000020: db43 453e f5c6 7dbd 7652 09bd ea81 b73d
00000030: dc6b 3d3e 2fa5 fa3b f5f9 6f3e cb1b 00bd
00000040: 4d9b 5bba 916b bcbb 62e3 b53d f843 1a3e
00000050: 76c9 223e 1425 453e d67a 0b3e 8cb8 273e
00000060: dd04 2f3e 76e6 a63c ff06 233c 88b2 3d3e
00000070: 4c2c e63d 6018 433e 2ef7 ba3d 50c0 223e
00000080: b16a 703d ab3f 203b 78c9 043e 8eb9 d03d
00000090: 6f4f f03d 796c db3d 46f2 0e3e 3ded e23c
000000a0: 9c37 72bc 2d38 2c3e 095b da3d b81f 4a3c
000000b0: 6c5b df3d 6533 443d 6e22 5f3d 77de 4e3e
000000c0: 71a5 69bd b372 9b3d 7381 7d3d 0b35 ce3d
000000d0: b306 5bbd 6cab ea3d 7466 8b3d 9928 e73d
000000e0: 9e17 1b3e a34c 043e e84c 283d 9a05 523d
000000f0: fdb8 683e 6680 4d3d 9aa6 de3d 6d44 91bd
00000100: 39f5 d43b 0a74 86bd 00bb 5c3d 1f63 c03d
00000110: 02b6 4d3e 414b 1ebd fc3c 193e 01b4 513e
00000120: eb6f 483e bb4e ed3d 48c8 ae3d 53a7 203e
00000130: 6364 e13d 8028 763e 7f57 5a3d 1b56 dc3d
00000140: 2133 673e aea5 ad3d 387b ae3d ec0f 223e
00000150: bd29 f73d 052f 133e a91f 7b3e 3348 593e
00000160: 0ea6 ed3d 04ec 9d3c 831f cc3d ab61 b93d
00000170: b013 0a3e 4da8 143e 3df3 513e 62ce 0f3e
00000180: c1e2 bf3c f0ec 3fbb 1bf1 6c3e 2c97 0f3d
00000190: c58f c63d 11f1 b73d 0ef6 d63d 12b8 833e
000001a0: 4d0c dfbc 0b55 443e 9cb4 5a3e 61f1 1e3e
000001b0: d730 7c3e 69bd 983d a784 963d 6b04 213e
000001c0: 4fb4 d63d 7ec9 693c 6406 c3bd c8c2 8d3e
000001d0: f481 4d3e e515 fc3b cbd7 7b3e 7ddf f43d
000001e0: 64ca 423e 405d 1f3b fd60 ad3c 99db 843c
000001f0: f03f 083e b66b c53d 6cac df3d fe41 813d
00000200: df48 0a3d fcd5 d7bd 1884 75bd 47b3 953c
00000210: 2b53 c9bd 8dc9 a2bd 38d4 bc3d 0820 17bd
00000220: ad4b 813d 2918 2ebe 4c0a bbbd 6ae0 b13b
00000230: b3c8 0a3e f46b e43d 712f a73c 822c 883d
00000240: 41bd e13d 961b fb3d 1186 923d 6921 48bd
00000250: 872f c33d b021 70bd cf54 023d b19d 5e3d
00000260: a422 023d 0d21 5d3d 7abf 9eba 121c 4a3e
00000270: 4272 77bd 493a aa3d b391 1abd 4735 ee3c
00000280: 33ef a73d 51ba e5bd d41b e4bd 6a2d 1b3e
00000290: 9620 163c 01e8 963b 2c33 a8ba 4126 6b3d
000002a0: 1eaf 283d 4fee 253e f2f9 9abd 59f1 4bbd
000002b0: ec06 dfbd cc6a febb aaa5 fcbd 9802 1d3d
000002c0: c7ee 8d3d 2b22 c2bd 1e39 ddbd 0eee 47be
000002d0: 5c57 80bd b6b0 7fbc d466 c9bb 5809 e9bc
000002e0: a7f5 0e3e 78c3 98bd e6a2 083d 3d91 ad3d
000002f0: 38f8 e3bd ca50 da3d f7ec 51be c41c cc3d
00000300: bda3 483e 7877 863d 2ed2 593e e4d4 193e
00000310: 7928 323e 6afa d63d 9366 9c3e c63a 883e
00000320: 9257 7a3d f61d a93d 90e2 1f3e 7e0d 4a3e
00000330: 8c6b 9c3e 45ff f33d 74cc 0b3e 0f65 173e
00000340: 6c10 6a3e 7df1 5e3d d1be 3b3e faa7 a23d
00000350: 1172 373e ede9 e73d 70b2 fd3d 22cf 893e
00000360: 69e4 fd3d 1932 153e 7cd5 4c3e 1e0f 893e
00000370: 5552 663e 48d9 193e 46a5 d63d 96e8 c73c
00000380: 92ab 813d 508c 5a3e 43fd ab3e d04b 093e
00000390: 0766 6f3e 8886 713e 0252 813e ba10 713e
000003a0: eba3 263e 2dd0 393e 0b2d 5b3e ef21 153e
000003b0: 8ae3 a53d 67ec 5d3e de81 9c3e 4071 243e
000003c0: 0daf 283a fc2b 8c3e f080 4dbd 3588 053e
000003d0: 8c79 bb3d 210c 113e 5fe5 083e 1847 87bc
000003e0: 854d 263e f588 803e fc40 353e b309 be3d
000003f0: d463 073e 9d92 643d a1f4 bd3e 024b 223e
0.19011046 0.0549099 -0.030247733 0.16615972 0.1319557 -0.02658717 0.13026056 -0.00046238527
0.19264166 -0.06195732 -0.033525907 0.08960326 0.18498176 0.007649086 0.23435195 -0.031276505
-0.00083773286 -0.0057501276 0.088812605 0.1506499 0.15897164 0.19252425 0.13621077 0.16378993
0.17091699 0.020373564 0.0099503985 0.18525136 0.11238918 0.19052267 0.09129177 0.15893674
0.0586955 0.0024452012 0.12967479 0.10191642 0.11733901 0.10714049 0.13959607 0.027701015
-0.014783766 0.16818304 0.10661895 0.012336664 0.10906109 0.047900576 0.054476194 0.20202051
-0.057042543 0.075902365 0.06189103 0.10068711 -0.053473186 0.114584774 0.06806651 0.1128704
0.15145728 0.1291986 0.04108897 0.051274873 0.22726817 0.05017128 0.108716205 -0.07093129
0.0064989594 -0.065651014 0.053889275 0.09393906 0.20088962 -0.038645986 0.1496467 0.20478822
0.19573943 0.11587282 0.08534294 0.15688829 0.11005475 0.24038887 0.0533061 0.10758611
0.22578098 0.084788665 0.08519596 0.15826386 0.12068508 0.14373405 0.24523796 0.21218948
0.11603938 0.01927758 0.09966948 0.09051832 0.13484073 0.14517327 0.20502944 0.14043573
0.023423554 -0.0029285513 0.2313885 0.035056278 0.096953906 0.08981527 0.1049615 0.25726372
-0.027227545 0.19173066 0.2135796 0.15521766 0.24628006 0.07458002 0.0734952 0.15724342
0.1048361 0.014269231 -0.09522703 0.2768767 0.20069104 0.0076930397 0.24594037 0.119566895
0.19022518 0.0024317056 0.021164412 0.016217994 0.1330564 0.09639685 0.10921559 0.06311415
0.0337609 -0.10538861 -0.059940428 0.018273963 -0.09830316 -0.07948599 0.09220165 -0.03689578
0.06313262 -0.17001404 -0.09132823 0.0054283636 0.13553123 0.11153403 0.020408364 0.06649114
0.110224254 0.12261121 0.071544774 -0.048859987 0.095305495 -0.058625877 0.03181916 0.054349605
0.031771317 0.053986598 -0.0012111508 0.1973727 -0.0604117 0.08311898 -0.037736606 0.029078139
0.081999205 -0.11217178 -0.1113812 0.15154043 0.0091630425 0.0046052937 -0.0012832633 0.05740953
0.04118263 0.16204189 -0.075672045 -0.049790714 -0.10889992 -0.007764196 -0.123362854 0.03833255
0.06930309 -0.09479173 -0.1080191 -0.19524404 -0.062666625 -0.015606096 -0.0061462913 -0.028446838
0.13960896 -0.07459158 0.033358477 0.08474968 -0.11131328 0.106599405 -0.20500551 0.09966424
0.19593711 0.065657556 0.21271583 0.15022618 0.17398252 0.104969814 0.30547008 0.2660734
0.06111867 0.08257668 0.1561377 0.1973171 0.30550802 0.11913923 0.13652211 0.14784645
0.22857827 0.05442952 0.1833451 0.07942195 0.17914607 0.11323915 0.1238755 0.26915842
0.123970814 0.14569892 0.20003313 0.26769346 0.22492345 0.15024292 0.10480742 0.024402898
0.063315526 0.21342587 0.3359166 0.13407826 0.23378764 0.23586476 0.2525788 0.23541537
0.16273467 0.18145819 0.21403901 0.14563726 0.0810004 0.21672212 0.3056783 0.16058826
0.0006434776 0.27377307 -0.050171793 0.1304024 0.091540426 0.14164783 0.13368748 -0.016513392
0.16240509 0.2510449 0.17700571 0.09279194 0.13221675 0.055803884 0.371007 0.15848926

lstm.bias_hh_l0 f4 [256]
00000000: e99b 303e 9561 4f3b da2e 00bb 9bc3 553d
00000010: 8372 a23d 940e 043e 0703 513b 2ff1 203e
00000020: 9811 493e 44b0 a63d 5936 793d 454c c4bc
00000030: acfe 2a3e d5ce 863d cf93 3b3e 335f 043e
00000040: 0928 3b3d 4423 0c3d 9878 373d 91f3 3b3e
00000050: f343 073d 8c03 f93d 2d04 183e f0b1 603e
00000060: eca8 b73d a87f 433d a642 713a 13ad a83d
00000070: 5d08 2f3e da72 373e 4465 023e ad29 163e
00000080: 3ae0 b9bd e22b da3d 83b4 003e d829 fa3d
00000090: f99e f03d 33b6 fb3d 18f8 0c3e fb53 5c3e
000000a0: 30ae b73b 4794 203e cb0e d93b 94ef 0ebc
000000b0: 6925 603e 83e6 de3d d6a3 2b3e c580 453e
000000c0: 35a3 3c3b 0f30 593d b48b d63d b28a 6c3d
000000d0: 3736 043e 9cf3 233e b36b 9f3d 944c 333c
000000e0: 3724 643e 7ff2 5fbd 0b94 6f3e b8cd 333d
000000f0: 6230 e43d 9263 103e 7b52 033e 8038 0f3e
00000100: faff 0c3d ca39 c63d 36d5 f03d 4e89 053e
00000110: d685 2e3e 00d0 a33d db30 873c f75e 663e
00000120: dd94 423e 6598 d03d 66cd 05bd ec90 f93c
00000130: cbb3 623e 4e95 2c3e f37a 523e 8e39 193e
00000140: b5a4 3c3d c645 933d bb3d ee3c c643 dd3c
00000150: 2d6d d53d 302e d03d 2e60 823e 0e13 b43d
00000160: 7104 093e 28b3 3e3d 66eb 7a3e 6e09 673e
00000170: 35f6 e93c a8f2 033e be9c 0b3e 0eaf c23d
00000180: 4804 ce3d b6b6 403b 7233 123b 2f00 503e
00000190: 6518 4a3d 213b 813d efca 413e cec9 033e
000001a0: 03ac c03d 6184 f93d 9e7d 933d 1a9f 553e
000001b0: 5694 a73c b752 a93d d192 4e3e 07ba 853d
000001c0: 2674 2a3e 55a6 f83d fa95 c9bd 6587 753e
000001d0: f28d 4c3e 73a3 a13d b267 e13d ebdb 893d
000001e0: 8b6c 783e 6b3d aa3d 3253 d33d 7f04 9bbc
000001f0: f157 cb3d 6b04 1ebc 846f 683e a1cf 463e
00000200: 3f37 783d fb6f 833d 1ac8 e3bc dbdc 823d
00000210: f8ab 53bd 3d99 803b cc1d 483c 3e5c bebd
00000220: c293 0139 5b7d 2cbe 4804 f83d 6a9c c23d
00000230: 181f f13d 97a3 8a3c e5c6 96bc 72a6 adbd
00000240: 68e0 3ebd 01a7 18bd a5ac e7bd aec5 0abe
00000250: a36a c5bd 06b3 cbba bf74 9c3d df25 c9bd
00000260: d88a f63c 170b 653d 8dae cdbc 3804 233e
00000270: 6321 cf3d 7453 d83b 07ce 26bd d4df 6abd
00000280: c94e eebd 2887 1d3d 9bd0 3d39 b2a5 9c3d
00000290: 4ac2 8b3d b8c4 19be 354a 9ebd 202d c9bd
000002a0: ba9a d33c 1bb5 ed3d f072 6b3b ab22 ea3d
000002b0: 98e6 b73d 992c aebd 1042 d7bd 8057 d13d
000002c0: 4432 5fbd eff4 223c 2654 a93d 6dec b7bd
000002d0: bc9e b5bc 0b88 003d 9736 333c 4e8c 16bd
000002e0: 9526 6dbd 3d01 18bb 440f f2bc 6493 bebb
000002f0: 10be 18bd 4185 b03d ea9b 02bd 72c1 debd
00000300: e47c 233e 61dd 173d cf95 d73d 7575 f53d
00000310: 4661 eb3d fd5a 193e 10c7 053e 5a34 5f3e
00000320: a7cc 263e dde5 4b3e fbaa b3bc 9fd7 693e
00000330: ac57 4f3e 8de8 f53d 25d4 333e ab7f ef3d
00000340: 4790 5a3e da84 1b3e 03df 043e 79ba a43d
00000350: e7a0 8f3e b10a ac3e 07d5 813e 10f7 a23d
00000360: 4237 6e3e 82c4 1d3e f526 693e 989e b33e
00000370: 63f5 3e3e bf23 703e f8ec a23e c2f7 0e3e
00000380: f91e 703d c962 f23c 4d0d ab3e 225c be3d
00000390: 07d1 113e f34d 893e 0439 3e3e 7a18 223e
000003a0: c300 103e 45f2 f13d 8d2d 363e c039 493e
000003b0: f18d 4c3e 8b84 da3d 739c 093e 1472 5e3e
000003c0: c8c2 3f3b 4eae 873e 49af 97bd e030 b53d
000003d0: 4759 bf3d de2b d43d 9b7d 9b3e cdce 95bd
000003e0: f851 373e 17fe 773d b98d fe3d 0ad4 e03c
000003f0: 2b74 8a3e ccfd f03d 60cc 423e b395 d33d
0.17246975 0.0031643857 -0.0019559176 0.052188497 0.079319976 0.12896186 0.0031892674 0.15717004
0.19635618 0.08139089 0.060842846 -0.02396215 0.16698712 0.06582419 0.18318103 0.1292694
0.045692477 0.03421332 0.04479274 0.18354632 0.033023786 0.1215888 0.14845343 0.21942878
0.08967766 0.047729164 0.0009203352 0.08236136 0.17093034 0.17914906 0.12733942 0.14664336
-0.09075971 0.10652901 0.1256886 0.12215012 0.11749072 0.12290611 0.13766515 0.21516411
0.0056054816 0.15681563 0.006624078 -0.008724112 0.21889271 0.1088381 0.16761717 0.19287403
0.0028783802 0.053024348 0.10475865 0.057749458 0.12911306 0.16010898 0.07784214 0.010943551
0.2227944 -0.05467462 0.23396318 0.04389736 0.11142041 0.14100483 0.12824433 0.13986397
0.034423806 0.09678991 0.11759417 0.13040659 0.17043242 0.07998657 0.016502788 0.22497164
0.190021 0.10185317 -0.032666586 0.030464612 0.22138898 0.1685383 0.20554714 0.14963362
0.046055514 0.071910426 0.02908217 0.027009856 0.10421214 0.101650596 0.25464004 0.08792697
0.133806 0.046557575 0.2450386 0.22562191 0.028559783 0.12885535 0.13634011 0.09506045
0.1005941 0.002940578 0.0022308496 0.2031257 0.04933967 0.06310106 0.1892507 0.12869951
0.09407809 0.121834524 0.07201694 0.20861474 0.020456474 0.0826773 0.20173194 0.065296225
0.1664587 0.121411 -0.09843059 0.2397743 0.19976023 0.078925036 0.110061064 0.06731399
0.24260156 0.08312496 0.103186026 -0.018923042 0.09928883 -0.009644608 0.2269879 0.19415142
0.06059956 0.06417843 -0.027805377 0.06389781 -0.051677674 0.0039245174 0.012214135 -0.092949376
0.00012357443 -0.16844694 0.121101916 0.0950249 0.11773509 0.016923709 -0.018405387 -0.084790125
-0.04660073 -0.037268642 -0.11312226 -0.13551971 -0.0963948 -0.0015541024 0.07639455 -0.098216765
0.030095503 0.05591878 -0.025107646 0.15919578 0.1011379 0.0066017453 -0.040723827 -0.057342365
-0.11636121 0.038458973 0.00018102156 0.076487914 0.06824167 -0.15016448 -0.077289976 -0.0982306
0.025830615 0.11606809 0.0035926662 0.11432394 0.08979529 -0.085046 -0.10510647 0.102217674
-0.054491296 0.009946092 0.08268003 -0.089806415 -0.022170417 0.03137974 0.010938308 -0.0367549
-0.057898123 -0.0023194097 -0.029548295 -0.00581591 -0.037290633 0.08619166 -0.031886972 -0.108767405
0.1596561 0.037076358 0.105266206 0.11985294 0.11493163 0.14976116 0.13064218 0.21797314
0.16289006 0.19911905 -0.021932116 0.22836159 0.20248288 0.12007246 0.17561395 0.116942726
0.213441 0.15187398 0.12975697 0.08043379 0.28052446 0.33601907 0.2535784 0.0795728
0.23263267 0.15406993 0.22768767 0.35081935 0.18648295 0.23451136 0.31821418 0.139617
0.058623288 0.02958812 0.33408585 0.09294917 0.14239894 0.26817283 0.18576437 0.1582965
0.1406279 0.11813787 0.17790814 0.19650936 0.19976021 0.10669812 0.13438587 0.21723205
0.0029260386 0.2650017 -0.0740648 0.08847213 0.093432 0.103599295 0.30369267 -0.07314835
0.17902362 0.060545053 0.12429375 0.027444858 0.27041754 0.11767158 0.19023275 0.10331287

fc.weight f4 [8, 64]
00000000: f51f f7be 8647 e43e ba3e f4be 9616 2f3e
00000010: 9439 9a3e 4839 8fbe 602f 3f3e 33ce 90be
00000020: 15d4 e8be a853 f5bd e29c b93e f179 e63e
00000030: da61 9c3e 212f 1abd 8fdc 5c3e d3ac 993d
00000040: 6bbc cdbe 6005 31be 6090 d93e b9cd 043f
00000050: 2214 b4be 7994 e23e 79e4 893e f3d5 ee3e
00000060: b04c b2bb a00d dd3e fabc 063f 9436 f8be
00000070: 772d d6be 69ce e5be cfa2 c0be 2678 7fbe
00000080: f9a9 9cbe eb39 e7be 4288 d5be 2971 843b
00000090: fe15 853d bfee 67be b236 8c3e f916 49be
000000a0: d062 8c3e 38e2 ae3c 4b8f 09bc efa3 b2be
000000b0: 9845 7bbb d49d 58be 7533 b2be 4033 0b3c
000000c0: 64f3 d63d f2bf 373d eafc e2be 9e33 253d
000000d0: 593a 413e 0ee1 edbd a9ee b63e 732b 9bbe
000000e0: f2e5 9bbe face 0cbe cfce 7b3e 031a f63e
000000f0: 95b3 e93e f095 f7be 914a 89be 8f67 5fbe
00000100: ac24 763e 6cd7 01be 620a 6cbe ba25 12bd
00000110: d10e 293d 5d1f abbe cb86 02bf 77f9 72be
00000120: 080c 0d3e a5ce 10bd 750f 983e ca0b 4ebe
00000130: 058a 303e baa2 f13c f527 4d3e 7ee1 263e
00000140: 9404 643e 15a5 d9bd 06d4 923e ce29 20be
00000150: 81e6 b8be bfdd b4bd a01a c0be ac37 92be
00000160: fb5d 66bd 8566 42be f243 8b3e bf31 c5bd
00000170: 276c ea3e bf25 d3be 9e79 c1be fda8 ed3e
00000180: 59a2 91be 2c40 6c3e f801 9abd 83aa 07bf
00000190: 39a0 0abe 6c25 033f 3d6b d6be 0d87 ac3e
000001a0: 09c7 663e d0c3 eb3d 7a47 0b3e 67a5 6cbd
000001b0: ba6f 393c e7f8 c93e 9763 32bd 350b 013e
000001c0: 2921 8e3e e260 fc3c 38ba b93e 764f 2bbe
000001d0: 61d1 76be 4cf5 fdbd 5153 3dbe 4ebc d8be
000001e0: 6d5e 863e b002 a9be e6d7 f2be 94c6 c83e
000001f0: 3099 d63e f355 853e 9c02 013f 1497 fa3e
00000200: da2f b3be 202d 07be 4dda 7b3e 4dce 10be
00000210: 47b8 423e 21d8 7a3c e54b 3b3d 3291 50bc
00000220: 28e9 babe 9d92 5f3e d0bd 17be d690 c5bd
00000230: 5b2a 4abe b626 23be 184a 593d 924e 1dbe
00000240: 11c0 77bc 9d41 27be 6d20 f3bd aa99 e83e
00000250: 6a10 74be b692 bb3e da36 29be 63b4 043e
00000260: 2027 12be cdf7 8abc c5bd 75be 5386 c8be
00000270: fc1c 67bd 613a 2abe e912 2fbe dd51 273e
00000280: b104 ca3d d4bc 05be 3826 5f3e a28b 82be
00000290: 400d 80be 3204 d23e 9c9e 0fbe 27c2 d23d
000002a0: cb1b aebc fb01 a8be e51a 663e 4f4f 21be
000002b0: 7c4b fb3d ccea ed3d 434c 353e b86e 8fbe
000002c0: 5315 b73d c0d4 693d 6a49 413e f876 aa3e
000002d0: 2464 203e 7480 373e fc3a 3fbe 1f3d 403e
000002e0: f2af 70be 41c3 213e 2d5a 87bd d72d c93c
000002f0: 914b 733e b226 4dbe 7df8 433e 1bcd 2bbd
00000300: 3716 a6bd 7794 d1bd b64f 01be 2131 fabe
00000310: 8d04 9f3e 6613 7a3e 03f4 ccbc d294 ec3e
00000320: 64f0 28be ae85 b83e 6ccc 23bd 4ed4 813d
00000330: 7ab1 50be 68cc 023f e720 02bf 1287 05be
00000340: c044 c73e 8e6c c23e 288b fd3d d812 b33e
00000350: d9b0 ee3e 1f76 613e ce4d c03e caff e1be
00000360: 5c74 e53e d649 fe3e 3993 21bd 65bb 6f3e
00000370: 8888 dd3e 4ced b73e a8e0 003f 4276 2a3e
00000380: fa06 56bd 5840 83bd 4cdf 1e3d fe52 a73e
00000390: d95b f43e 0ac1 813e f258 093f d4a2 0dbf
000003a0: 9cfe 0cbe a8d7 02bf c14b c7be 29e0 ed3e
000003b0: a57e 093f a03b 3e3d 4246 fa3e bb82 99be
000003c0: 91df 11be c9be efbe 4d4b a23e 8052 c93e
000003d0: 5cd8 b0be 4e18 723e 88ed 7a3c 0f28 25bd
000003e0: 093a f03e 5ed7 fa3d 654b a2be 8251 93bd
000003f0: 79d7 8f3d 421b 3abe a8ab 42be f9da 0d3e
-0.4826657 0.44585818 -0.47704107 0.1709846 0.30122054 -0.2797339 0.18670416 -0.28282318
-0.45474306 -0.11978847 0.36252505 0.4501491 0.30543405 -0.037642602 0.21568511 0.07503667
-0.40182814 -0.17287207 0.42492962 0.5187641 -0.3517161 0.442539 0.26932123 0.46647605
-0.005441271 0.43174458 0.52632105 -0.4847914 -0.41831562 -0.4488404 -0.37624213 -0.24948177
-0.3059843 -0.45161375 -0.4170552 0.00404181 0.06498335 -0.22649668 0.2738548 -0.1963767
0.27419138 0.021348104 -0.00839598 -0.34890696 -0.0038341042 -0.21153957 -0.34804884 0.008496106
0.10495642 0.044860788 -0.44333583 0.04033243 0.18869914 -0.116151914 0.35728958 -0.30306587
-0.30448872 -0.1375083 0.2459061 0.4806672 0.45644823 -0.4835658 -0.26814702 -0.21816848
0.24037427 -0.12679833 -0.23050836 -0.03568051 0.041273896 -0.33422366 -0.5098693 -0.23727976
0.13774121 -0.03535332 0.29699293 -0.20121685 0.1724015 0.02949654 0.20034774 0.16296956
0.22267371 -0.1062719 0.28677386 -0.15640947 -0.3611336 -0.08831357 -0.37520313 -0.285581
-0.05624197 -0.1898442 0.27200276 -0.09628629 0.4578564 -0.41239735 -0.377881 0.4641799
-0.28444174 0.23071355 -0.07519907 -0.52994555 -0.13537683 0.51228976 -0.4187869 0.33696786
0.22536863 0.11511958 0.13601485 -0.057774927 0.011318142 0.3944771 -0.043552008 0.12601931
0.27759674 0.030807916 0.36274886 -0.1672953 -0.24103309 -0.12400302 -0.18488814 -0.42331165
0.26243916 -0.33009863 -0.47430342 0.39214003 0.41913748 0.26042137 0.50394607 0.48943388
-0.34997445 -0.13200808 0.24594994 -0.14141198 0.19015609 0.015310318 0.045726676 -0.01272993
-0.3650601 0.21833272 -0.14818501 -0.09646766 -0.1974272 -0.15932736 0.053049177 -0.15362003
-0.015121476 -0.16333623 -0.11871419 0.45429736 -0.23834386 0.3663537 -0.1652483 0.12959437
-0.14272738 -0.016963864 -0.23998173 -0.3916498 -0.056424126 -0.16623832 -0.17097057 0.16339822
0.09864176 -0.13060313 0.21791923 -0.25497156 -0.2501011 0.41018826 -0.14025348 0.10290938
-0.021253487 -0.3281401 0.22471197 -0.1575291 0.12270257 0.116170496 0.17704873 -0.2801416
0.08939614 0.05708766 0.18875661 0.3329389 0.156632 0.17920095 -0.18674845 0.18773316
-0.23504618 0.1579714 -0.066089965 0.024557991 0.23759295 -0.20034292 0.1913776 -0.04194365
-0.08109706 -0.102333955 -0.12628064 -0.48865607 0.3105816 0.24421462 -0.025018698 0.4620729
-0.16497952 0.3603949 -0.039989874 0.06339322 -0.20380202 0.5109315 -0.50831455 -0.13039806
0.3891964 0.37973446 0.123800576 0.34975314 0.466193 0.22017716 0.3755936 -0.44140464
0.44815338 0.49665707 -0.039447043 0.23411329 0.43268228 0.3592323 0.503428 0.16646674
-0.052252747 -0.06408757 0.03878717 0.32680506 0.47726324 0.2534259 0.53651345 -0.5532658
-0.13769001 -0.51110315 -0.38924983 0.46460083 0.5370887 0.04644358 0.48881727 -0.29982552
-0.1424544 -0.46825245 0.31698075 0.39320755 -0.3454007 0.23642084 0.015315421 -0.040321406
0.46919277 0.12248109 -0.31698146 -0.07193281 0.0702352 -0.1817446 -0.19010794 0.13853063

fc.bias f4 [8]
00000000: 9bd2 32be 4d58 46bd 27b1 bebe 7bec 0e3e
00000010: 72c3 453d e817 3c3d 0f49 f7be 737c b6be
-0.17463152 -0.048424054 -0.37244532 0.13957398 0.048282094 0.045921236 -0.48297927 -0.35641822
