data/processed/ml_engine/model.pt (torch, 650039 bytes, 7 tensors)

embedding.weight f4 [2000, 64]
00000000: 0000 0000 0000 0000 0000 0000 0000 0000
00000010: 0000 0000 0000 0000 0000 0000 0000 0000
00000020: 0000 0000 0000 0000 0000 0000 0000 0000
00000030: 0000 0000 0000 0000 0000 0000 0000 0000
00000040: 0000 0000 0000 0000 0000 0000 0000 0000
00000050: 0000 0000 0000 0000 0000 0000 0000 0000
00000060: 0000 0000 0000 0000 0000 0000 0000 0000
00000070: 0000 0000 0000 0000 0000 0000 0000 0000
00000080: 0000 0000 0000 0000 0000 0000 0000 0000
00000090: 0000 0000 0000 0000 0000 0000 0000 0000
000000a0: 0000 0000 0000 0000 0000 0000 0000 0000
000000b0: 0000 0000 0000 0000 0000 0000 0000 0000
000000c0: 0000 0000 0000 0000 0000 0000 0000 0000
000000d0: 0000 0000 0000 0000 0000 0000 0000 0000
000000e0: 0000 0000 0000 0000 0000 0000 0000 0000
000000f0: 0000 0000 0000 0000 0000 0000 0000 0000
00000100: e2f2 8ebf 37bf 4f3f d123 4bbe 136f 72bf
00000110: d128 bf3e d993 553f 7810 113e 1b3a 8dbf
00000120: 937e 8fbe 5004 2a3f b5fa 403f 7f05 f8be
00000130: f3ae cc3e afc0 53bf 05c9 0f40 ef55 c6bf
00000140: b2e5 0f3f fbd6 083f a854 f43f 2d3e 32bf
00000150: f9b6 ff3f 98a6 5cbf 95d0 dc3e d354 d43c
00000160: 3e03 a3be 2d14 a1bf 637b b03f 1da0 05bf
00000170: 0ce2 5dbf 7346 4b3f f007 ed3e 0c6b e23d
00000180: 9720 823e eb5e f8bf e895 103f d78d 613f
00000190: 178e 813d 3c17 d43f 0b96 e3bf 7492 13c0
000001a0: 261c bdbe b16f d23d bb95 823f 6ac4 dbbd
000001b0: 7436 363e ab39 69bf 72aa d83e cabb 1ebf
000001c0: bb11 403f 0e97 afbf 1107 3fbf 4506 18bd
000001d0: 4ada bfbf c231 223f ab5e 91be 971e 5fbf
000001e0: 1882 923f b242 0e40 e7b3 fa3e 10dc f7bc
000001f0: 3758 8fbf 72ad 2bbd 96d2 bb3e ee77 e13e
00000200: 298e 16bf 5e52 50bf 4ddc 4dbf dcb5 23c0
00000210: 287c c6be 3053 d23f 236c 6b3f df22 13bf
00000220: dc92 5c3f 6872 023f 7cf1 0b40 6a80 1ebf
00000230: 2de2 9d3f f553 373e 78a8 4ebf 2882 1ebf
00000240: c2e3 7cbd 52f7 313f f369 3e3e 12bd a0bd
00000250: 29e7 10bf cf56 5cbe 5e7e c33f bc20 833e
00000260: d82c abbf 429a 733f f8ef 843f 13d9 803f
00000270: b78c 91bd 7554 24bf 7d4e f93d 554f ea3f
00000280: 59b9 773f 2dee 0dbf 80d7 29bf a73b 06c0
00000290: dca0 963e adc6 46bf c3b3 c63e d12a b4bf
000002a0: 3e42 fe3f 43c2 5ebe b1ac 96bd cd0b 51bd
000002b0: 159e 0240 d2a6 393f 8c17 e73f 3a35 a5be
000002c0: 81e3 ee3f 4868 1c3f 6350 4940 b100 2cbf
000002d0: 03e3 aabb a614 7a3e f238 1ebf 511b 1d3f
000002e0: 1020 0a3f f82c 7a3d aa93 bfbf 8c5e e23f
000002f0: e5bc 1f3f 50a1 333c 54ad 09c0 7abc c9bf
00000300: 1001 94be bcb5 7bbf 62f3 d93e dfe5 cfbd
00000310: 69ec bc3e 3159 65bf 7ccf 9c3f c3d3 51be
00000320: 0f52 ef3f 2744 19be d2fa 973d 2e2b 673f
00000330: 0bc1 a7be ca0f a13f e5d1 2640 2d12 bc3f
00000340: 6b99 04bf 87bb f53e d400 8c3e efdd e23c
00000350: ee3a eb3f 128e e93e 09d2 9fbd d55c fabd
00000360: 5976 8f3f 48ca f0bf 775f 07c0 eca4 013f
00000370: 0324 a6bf 238e 70be c77b e1be 3c06 4e3f
00000380: aade 2f40 e0e5 943e ee3b 783f 8272 4bbf
00000390: b1ed 5b3e 7164 9fbf eaa7 ebbe 5910 36bf
000003a0: bfc6 4b3f 7ddf fa3f 2c1b 26bf 411b 923f
000003b0: c483 203e cdf1 c33e d111 483f 0392 6ebd
000003c0: b095 79be 4da2 c5bf fa38 3b3f 7ad0 9fbf
000003d0: b761 483f 7c2f 053f a9d8 b93f 717f 383f
000003e0: 8c9b 5b3f 2194 bbbf f5c8 663e f3ca cf3f
000003f0: d7ab 9c3f 5fc3 4bbf 7e00 823f 8923 c33f
0.0 0.0 0.0 0.0 0.0 0.0 0.0 0.0
0.0 0.0 0.0 0.0 0.0 0.0 0.0 0.0
0.0 0.0 0.0 0.0 0.0 0.0 0.0 0.0
0.0 0.0 0.0 0.0 0.0 0.0 0.0 0.0
0.0 0.0 0.0 0.0 0.0 0.0 0.0 0.0
0.0 0.0 0.0 0.0 0.0 0.0 0.0 0.0
0.0 0.0 0.0 0.0 0.0 0.0 0.0 0.0
0.0 0.0 0.0 0.0 0.0 0.0 0.0 0.0
-1.1167872 0.81151146 -0.19837882 -0.94700736 0.37335828 0.8342872 0.14166439 -1.1033357
-0.28026256 0.6641283 0.7538255 -0.48441693 0.39977226 -0.82715887 2.2466443 -1.5494975
0.5620986 0.53453034 1.9088335 -0.6962612 1.9977714 -0.861917 0.43127885 0.025919354
-0.3183841 -1.2584282 1.3787655 -0.5219744 -0.86673045 0.7940437 0.46295118 0.11055574
0.2541549 -1.9403967 0.5647874 0.88107055 0.063259296 1.656959 -1.7780164 -2.3058138
-0.36935538 0.1027521 1.0201944 -0.107308224 0.1779421 -0.9110362 0.4231754 -0.62005293
0.75027055 -1.3717973 -0.7462016 -0.037115354 -1.4988492 0.63357174 -0.28392538 -0.8715605
1.1445951 2.2228208 0.4896538 -0.030256301 -1.1198796 -0.041913457 0.36684102 0.44036812
-0.5881067 -0.8137568 -0.8041428 -2.5579748 -0.387666 1.6431637 0.9196188 -0.57475084
0.8616159 0.5095582 2.186614 -0.61914694 1.2334648 0.17903121 -0.8072581 -0.6191735
-0.061740644 0.69518006 0.18595104 -0.07848562 -0.5660272 -0.2151749 1.5272939 0.25610912
-1.337306 0.95157254 1.0385733 1.0066246 -0.07106917 -0.6419137 0.121731736 1.830546
0.96767193 -0.5544155 -0.6634445 -2.097391 0.294196 -0.77646905 0.38809022 -1.4075567
1.9863966 -0.21753792 -0.07357157 -0.051036645 2.0408986 0.7252017 1.8054061 -0.3226717
1.8663179 0.6109662 3.1455314 -0.67188555 -0.00521505 0.24421939 -0.6180564 0.61369807
0.53955173 0.06107804 -1.4966938 1.7685103 0.62397605 0.010963753 -2.151204 -1.5760643
-0.2890706 -0.9832418 0.425685 -0.10151266 0.36899117 -0.8958922 1.2250819 -0.20490937
1.8696917 -0.14967404 0.07420887 0.9030026 -0.32764468 1.2582943 2.606561 1.4693047
-0.517966 0.47994635 0.27344382 0.027693717 1.8377359 0.45616204 -0.07803733 -0.122247376
1.1207992 -1.8811731 -2.1152017 0.50642276 -1.297974 -0.23491721 -0.44039747 0.8047826
2.7479653 0.2908163 0.96966445 -0.794716 0.21477391 -1.2452527 -0.46026546 -0.71118695
0.7960014 1.9599453 -0.6488521 1.1414567 0.15675265 0.38270417 0.78152186 -0.058244716
-0.24373507 -1.5440155 0.73133814 -1.2485497 0.782741 0.5202558 1.4519244 0.7206946
0.8578422 -1.465458 0.22537597 1.623381 1.2239941 -0.7959499 1.01564 1.524522

lstm.weight_ih_l0 f4 [256, 64]
00000000: ccee 6bbd b631 f6bd 6393 913d 52fd f93c
00000010: e0b0 313c e008 bfbc 9a56 e8bd e380 f6bb
00000020: fece a1bd ef04 bb3c ce8a b6bc e291 31bd
00000030: 236b 5f3d 5096 933d e303 c9bb bd9c b5bd
00000040: 0d15 fabd 2001 c13d 21f1 8b3d 2f89 983c
00000050: 8163 e13d ccea 79bd 1c40 d9bd be18 4f3d
00000060: 9b77 873c b6e0 36bc 46f9 c1bc b46e adbd
00000070: a214 c5bd 4967 b23d 0042 82bd 8c72 05be
00000080: 4847 a83d 8eb2 753d d9df 9bbc 4bf5 aa3d
00000090: c6c0 f83c bd81 c03d 65ff 8bbc 8032 c3bc
000000a0: 22f9 c3bd 689d b23d 4382 bb3d 683c 743d
000000b0: 4d1a 6d3d 3bf8 da3d dfa9 e8bc 6a4f 8e3d
000000c0: 8361 7f3c 37fe cb3c e353 ba3d 42cc 77bd
000000d0: 9052 ffbd 51b7 8f3d 8cfb a23d a815 73bd
000000e0: f0c7 aabd 6279 d1bc b9be abbb 36aa 383d
000000f0: f9ff 1c3b 0548 3a3d cefe f7bd 4fdb e3bd
00000100: 432e afbd 3b6f 1abd 052e 87bd 7597 873b
00000110: d07f 8fbd bcd4 673c abdc 613d 3b75 0bbd
00000120: b0c3 a6bd 9632 b6bd 8c3f e43d 2e20 663d
00000130: 9890 76bd 5cb3 f0bd 9713 e1bd 2967 733d
00000140: 13c9 bdbd f556 f3bc e8a4 a13d ac0a 653c
00000150: 7b55 ae3c e765 acbd 331a aabd 6cb1 afbd
00000160: 0fdd 043d 6483 b63d 7b20 3c3d 76bf b7bd
00000170: 59aa 173d b428 bdbc 9fe8 023e 7629 5cbd
00000180: 2290 c5bd 85ae ca3d 9ffc a03d 8b44 653d
00000190: d2b1 c7bd 6fea 56bd a699 5abd 2117 9bba
000001a0: b3fb 8d3d 21b2 903d dbdf e8bc e211 c83a
000001b0: 226a b83d eed4 e7bd 0e1c d8bd 8d41 073c
000001c0: b394 97bd 84e2 24bd 512d 0f3d 9657 0fbe
000001d0: 05a0 7bbd 2522 143d 0578 fdbd a210 bc3d
000001e0: 0f75 be3d 9d20 dd3d 8138 f33c 23f0 b3bd
000001f0: 0692 753a 0d8c d63d b985 eabc fde0 c83c
00000200: 0d10 863c 534c 9dbd dd3f 30bd de7c 09be
00000210: 9a84 cc3d 247e f13d 4f29 f2bd 1d9c 133e
00000220: 9502 903d 6edf 6abd b567 e23c 777c 33bd
00000230: 077e f13d 7e38 933d 7128 34bd 4153 f7bd
00000240: adf2 d43d a1f5 f7bd ac95 583d 089d b1bd
00000250: e13b c33a 4dac dcbd ef27 5bbd bb49 7abd
00000260: 5290 71bd d652 debd a077 87bd f537 cd3d
00000270: 6e55 adbd d454 3d3d 60b7 b9bd 73ee 2dbc
00000280: c36f e3bd ae30 66bc 76ed 8f3d fcd2 003e
00000290: 36fd 9abd f7e6 a53d 19ce dcbd 9f58 6b3d
000002a0: f46b c5bd a61b d4bd ad93 a6bd fc8d a13c
000002b0: 4fa9 6f3c d601 833d 9fd4 b2bd ea68 403d
000002c0: 8832 ddbd 00a3 1c3a 0aef 3dbd 8fad df3d
000002d0: 488e bd3c f236 aebd 5222 bbbd 5363 acbd
000002e0: 5d38 043d 46fd cb3c b606 0d3e a1d4 6f3d
000002f0: 97b7 c8bc c45b 0dbe 810f 72bc c127 babd
00000300: e8de c3bd 4068 563d 4931 733c 3958 90bd
00000310: 73f7 5d3d 2d0a c33d e01f b13c 4466 733d
00000320: 1ecb 7c3d 2246 d13d e309 bb3d 8aa7 503d
00000330: aab4 debd 1cc7 e9bd 3cd0 f9bd 9a2d 02bd
00000340: e611 86bd 5d27 f73c 456d ad3d c8d2 463d
00000350: fd96 6bbd d7d9 8c3c 1a42 6a3d 599d a93d
00000360: 20b6 783d b44e c0bd 2671 b63d 7aac 2fbc
00000370: 35ce 98bd 30eb be3d b241 e2bd 9fb6 04be
00000380: 6de5 06be 47d1 3b3d b54b d8bb 8048 17bd
00000390: 8618 933d 7793 703d 4b07 4bba 4eca a5bd
000003a0: 9a92 3a3d f9a6 c8bd 0be3 fb3c 75a0 73bd
000003b0: ebb4 d4bd 1295 00be a2d0 3d3d c6fa 7f3d
000003c0: 34e5 95bd da7c 11be 47b9 02bd 2c61 5a3d
000003d0: 15a8 e53d 753b d4bc 8f3d 063e 56a9 63bd
000003e0: 2c2c 03be e6cc 6b3d adbd b63d 13a6 bf3c
000003f0: 1acb 15bd 9220 933c beb6 30bc 4f49 a93c
-0.05760078 -0.120212 0.0710819 0.0305163 0.010845393 -0.023319662 -0.11344643 -0.0075226887
-0.07900809 0.022829501 -0.022282984 -0.043352015 0.054545533 0.07206404 -0.0061344965 -0.08867786
-0.12211046 0.09424043 0.06833101 0.018620102 0.11005307 -0.061014935 -0.10607931 0.050560705
0.016536525 -0.011161974 -0.023678433 -0.084683806 -0.09623076 0.08711106 -0.06360245 -0.13031977
0.08216721 0.059984736 -0.019027637 0.08347567 0.030365359 0.093997456 -0.017089555 -0.023827791
-0.09569003 0.08721429 0.09155705 0.05962792 0.05788641 0.106918775 -0.028401313 0.06948741
0.015587213 0.024901493 0.09098031 -0.06049753 -0.124669194 0.07017387 0.07958135 -0.059346825
-0.08338916 -0.025570575 -0.005241242 0.0450842 0.0023956283 0.04547884 -0.12109147 -0.11125814
-0.085537456 -0.037703734 -0.066005744 0.004137928 -0.070068 0.014149841 0.055142086 -0.034047347
-0.08142793 -0.08896367 0.11144933 0.056183033 -0.06019649 -0.1175296 -0.109900646 0.059424553
-0.092668675 -0.02970455 0.078927815 0.013979595 0.021280995 -0.08417874 -0.08305778 -0.085787624
0.03243738 0.089117795 0.045929413 -0.08972065 0.03702769 -0.023090698 0.1278405 -0.053750478
-0.09646632 0.09896568 0.07860684 0.05597357 -0.097507134 -0.052469667 -0.053369187 -0.0011832454
0.069327734 0.070652254 -0.028427055 0.0015264119 0.09004618 -0.1131991 -0.10552226 0.008255375
-0.07401409 -0.040255085 0.034955326 -0.13998255 -0.061431903 0.036165375 -0.123764075 0.0918286
0.09299671 0.10797236 0.02969003 -0.08786037 0.00093677675 0.10475931 -0.028628217 0.024521345
0.016365075 -0.07680573 -0.043029655 -0.1342654 0.09986229 0.117916375 -0.11824285 0.14415021
0.070317425 -0.057341985 0.027637342 -0.04381987 0.11791616 0.071885094 -0.04398388 -0.12076426
0.10397849 -0.12107397 0.052877113 -0.086725295 0.0014895165 -0.10775051 -0.05350488 -0.06110547
-0.058975525 -0.108556435 -0.066146135 0.100204386 -0.0846356 0.046223477 -0.09068179 -0.010615933
-0.11105301 -0.014049692 0.07027714 0.12580484 -0.075678274 0.08100694 -0.107814975 0.057457563
-0.09639731 -0.10356836 -0.08133636 0.019721024 0.014627769 0.063968346 -0.087319605 0.046975054
-0.10800654 0.00059752166 -0.046370544 0.109217755 0.023139134 -0.08506574 -0.091374055 -0.08417382
0.032280315 0.024901044 0.13772091 0.058552388 -0.024501605 -0.13804537 -0.014774204 -0.09089614
-0.09564 0.052345514 0.0148432935 -0.07048077 0.054191064 0.09523425 0.021621644 0.0594237
0.061717145 0.10218455 0.09132745 0.050941028 -0.10874303 -0.1141493 -0.12197921 -0.03178177
-0.065463826 0.030170137 0.08468107 0.04854086 -0.05751704 0.017193718 0.057191946 0.08281965
0.060720563 -0.093900114 0.089083 -0.010722274 -0.07461206 0.09322202 -0.11047687 -0.1296029
-0.13173456 0.04585388 -0.006600822 -0.036934376 0.07182412 0.058734383 -0.0007744922 -0.08095227
0.045549966 -0.097974725 0.030747911 -0.059479196 -0.1038607 -0.12556866 0.046341546 0.062495016
-0.07319108 -0.14207783 -0.031914975 0.053315327 0.112137 -0.025907258 0.1310942 -0.055581413
-0.12809819 0.057568453 0.089228965 0.02339462 -0.036570646 0.017959867 -0.010785757 0.02066484

lstm.weight_hh_l0 f4 [256, 64]
00000000: 73f5 44bd 1969 b73d 67c3 1a3d 959f 0c3e
00000010: 3a16 19bb bb3a fbbd c5cf cd3c daa2 a83c
00000020: 9367 8e3b 1c65 9abc 6ebb 893d 0d23 f43b
00000030: 98cf 39bd c22e 2fbb 6fb8 c3bd e789 923c
00000040: b86e 9abd 7f53 b0ba 2b02 b93d dd4e f7bd
00000050: 7b64 df3c f919 a6bd e0d8 e13c 45fc f63d
00000060: 6eae c1bd cc8e 95bb ba6e 163d 288d 00bd
00000070: a513 dbbd 0bf7 1dbd e4d1 bebd 2b3f 9d3d
00000080: d92f c53c 2ed7 a0bd 4941 d83d f31d 9ebd
00000090: 5a89 9c3d e405 a9bd 64a0 ce3d 6f86 4cbc
000000a0: dd0b 8abd 83fe 813d 645e d2bd 0b20 08be
000000b0: 89de b53d f3d2 ad3a 1c3f 053c 1bd0 cfbd
000000c0: d6b6 ad3c f71e 88bd 36c8 c1bd af1b f23c
000000d0: 2b64 c43d 491c af3c f6e1 90bc e030 fcbd
000000e0: 8dfb e2bb f295 0c3c 6ce5 e439 cbec d53d
000000f0: ed5b e63d cdd0 8c3d 61a8 0b3d 5e5d ffbc
00000100: 1ad9 963d 0b73 dc3d fb74 023d 93f9 27bd
00000110: 4ec0 033c 13e5 903d 6344 103e b086 b8bd
00000120: 9cfb df3d 49f7 10bd 5138 a73d 3602 b7ba
00000130: dfe0 37bd 5e92 85bc 4be8 a8bd 4a5f 2b3d
00000140: 4b05 7d3d 5dfb d73c b4f3 2f3c 9d1b 3b3c
00000150: 91ec 983d cfd6 fcbd 1306 86bd 39b1 d03d
00000160: b200 973b a7d4 f33d 7764 07be 3039 fe3d
00000170: ef88 c63d a109 a5bd 58e1 03be c5e1 a5bd
00000180: 8f04 38bd a698 85bd a57c 733c 00e8 ba3d
00000190: d11d c73d d0a7 f6bd 70d9 3cbd 5839 48bd
000001a0: 0384 023e 1b0e ac3c 3e7a b23d e8ed d53b
000001b0: 5b3b 3d3d 3195 2abd 8865 833d 00ab f13a
000001c0: 8162 9bbd 4235 4d3d 000c 4fbd 5d93 e53c
000001d0: c59e fa3c 1f10 893d d470 0f3d 91e4 683d
000001e0: 607d 693c 3c9b 443d 8b60 e23c 53ea ee3c
000001f0: 43f3 843d ab6b ff3d cfab f3bd bc6e 613d
00000200: b842 95bc b486 a3bc ce5c bb3d a803 09bd
00000210: 0c71 d73d 636a 95bc 4bff 2ebc ec80 473c
00000220: 2deb 043e 428c 133c fe3e 833b d1d2 88bd
00000230: b6e2 bfbd c3b1 673d e443 6f3d a7ee cfbd
00000240: f4e0 60bb 8b65 463d d1b5 5b3d 6450 8e3c
00000250: 1fff f2bd 64b3 42bd 1115 e8bd 65bc 683d
00000260: bd87 0b3d 7b80 b73c 1eec 6ebd 927e 003e
00000270: d191 c33d 248a f43d eb83 85bc ae52 8a3c
00000280: b322 e3bc 07bc 3c3d 385e 403d 383f d53d
00000290: e4df a7bc acd0 8fbd f62c 0cbe 5e38 bd3d
000002a0: 1e9c c23d 4812 67bd 65bc 4c3d 9722 c73d
000002b0: 0301 19bd 46c3 b83d e3ca a9bd 8d4e 4dbd
000002c0: d2aa 9a3d 5f25 66bd 1674 5dbd cd8d a33c
000002d0: afab 5dbd f408 e13b a3fa c0bc 9219 0d3d
000002e0: caa8 b4bd 19d5 dc3d 312f b43c de4e 743d
000002f0: 60b3 27bd aa22 e2bd f066 0c3d 50cf e73d
00000300: 3846 42bd 1983 7dbd 14dc 603c 1a3b 0c3e
00000310: 46ea b7bb 7f27 fcbc 02ab 9d3d 90cb 4bbb
00000320: aba1 56bd 9024 2fb9 0046 9dbd d96a 5fbd
00000330: ec10 61bd cbd2 bbbc 4922 dc3d 9755 b6bc
00000340: d71b a6bd b93a 2cbd 0649 163d 043f 08be
00000350: 88b1 08be 8bb2 a6bb 342e 1c3d 20e2 f3bc
00000360: 2680 9c3d bde7 903d 07e6 0fbd f3e5 c9bc
00000370: c319 a0bd fa4a e93d 1493 9c3c d8db 8bbd
00000380: cb8b 17be c70d cabb 5caf 343c afe7 25bd
00000390: 44a4 a93d 6a2e 0dbe 3bb1 1dbd 9033 60bc
000003a0: 5dc2 16bd bf54 85bc 071e d6bc 9f91 af3d
000003b0: 59e7 d2bd 5dbf 343d f98a cabd 7fe6 b43d
000003c0: 18fa bcbd 99f4 a3bd faa1 5ebd eb51 f4bd
000003d0: f347 9b3d 7c37 d1bb 5e00 813d df02 0abe
000003e0: a734 c03d 4263 06be 9762 b23d 837d ccbc
000003f0: 9562 50bd 5e73 4d3b 288d 06be 6a73 3abd
-0.04808564 0.08955593 0.037784006 0.1373275 -0.0023359195 -0.12267061 0.025123486 0.020585466
0.004345843 -0.01884704 0.067252025 0.0074504674 -0.045363992 -0.002673075 -0.09556662 0.017888023
-0.07540649 -0.0013452618 0.09033617 -0.12075589 0.027269593 -0.08110423 0.027569234 0.12059835
-0.09457098 -0.004564142 0.03672669 -0.031384617 -0.10697106 -0.038565677 -0.09317377 0.07678064
0.024070667 -0.07853542 0.10559327 -0.07720556 0.07643385 -0.08253077 0.10089186 -0.012483223
-0.06740544 0.063473724 -0.1027191 -0.13293473 0.08880336 0.001326172 0.008132722 -0.10147115
0.021205347 -0.06646531 -0.09462015 0.029554216 0.09589418 0.021375792 -0.017685872 -0.1231401
-0.00692696 0.008580672 0.0004365848 0.10445555 0.11248002 0.06875763 0.034096126 -0.03117245
0.073656276 0.1076413 0.031849843 -0.041009497 0.0080414545 0.070749424 0.14088587 -0.090100646
0.109366626 -0.03539208 0.081650384 -0.0013962451 -0.04489219 -0.016305145 -0.08247431 0.04183892
0.061772626 0.026364977 0.010739256 0.011420158 0.074669965 -0.12345659 -0.06544127 0.101900525
0.004608237 0.119057946 -0.13221918 0.124132514 0.09694087 -0.08058477 -0.1287893 -0.08099703
-0.044926222 -0.06523256 0.014861261 0.09126282 0.09722484 -0.120437264 -0.046105802 -0.048882812
0.12745671 0.02100282 0.08714722 0.006528605 0.046199184 -0.041646186 0.0641585 0.0018437803
-0.075871475 0.05009962 -0.050548553 0.02802437 0.030593285 0.06692528 0.03501971 0.056858603
0.014251083 0.047999606 0.027633926 0.029164469 0.06491711 0.12471708 -0.11898004 0.055037245
-0.01822029 -0.019961692 0.091485605 -0.033450752 0.10519609 -0.018239206 -0.010680984 0.012176733
0.12980337 0.009005608 0.004005312 -0.06680835 -0.093694136 0.05656601 0.058414355 -0.10152941
-0.003431377 0.048436683 0.05364019 0.017372318 -0.11865067 -0.04753436 -0.11332143 0.056820292
0.034064997 0.022400131 -0.058330648 0.12548283 0.09549297 0.11940411 -0.016298255 0.016885128
-0.027726507 0.046077754 0.046964854 0.10412449 -0.020492502 -0.07022223 -0.13689026 0.09239267
0.09502433 -0.05641392 0.049984355 0.09723394 -0.03735448 0.090216205 -0.08290651 -0.05012374
0.07552113 -0.056187984 -0.054065786 0.019965077 -0.05411881 0.0068675224 -0.023557013 0.034448214
-0.088212565 0.10782833 0.021995159 0.059645526 -0.04094255 -0.11041768 0.034277856 0.113188386
-0.047430247 -0.061892603 0.013724346 0.1369442 -0.0056126444 -0.030780552 0.07698633 -0.0031096675
-0.052400272 -0.00016702921 -0.07679367 -0.054545257 -0.05494778 -0.022927662 0.10748727 -0.02225761
-0.08110779 -0.04204819 0.036690734 -0.13305289 -0.13348973 -0.005087202 0.03813 -0.02977091
0.0764163 0.070754506 -0.03513148 -0.024645781 -0.07817414 0.11391254 0.019113101 -0.06829041
-0.1479942 -0.006166193 0.011028137 -0.040504154 0.08283284 -0.13787237 -0.0384991 -0.013684168
-0.036806453 -0.016275762 -0.026137365 0.08572697 -0.10298032 0.04412781 -0.09889788 0.08833026
-0.09227389 -0.08005638 -0.05435369 -0.11929687 0.075820826 -0.006384788 0.06298898 -0.13477658
0.09385043 -0.13123801 0.08710211 -0.024962192 -0.050875265 0.0031349282 -0.13139784 -0.045520224

lstm.bias_ih_l0 f4 [256]
00000000: 5c8f 953d c5cb 8b3c ee5f d4bd 749f d13d
00000010: e1cf 543c 8f80 30bc 7b5c 9c3d 9870 94bd
00000020: 38ae a33d a4a6 dbbd daca a83b 37a4 a63c
00000030: 0ea0 e03b 4c00 9bbd a9d1 eb3d d8fc c7bd
00000040: b038 a9bd 919f b6bd c336 60bc d124 9b3d
00000050: 6a9e 543d 3202 b33d efc0 c63d 45f1 9d3c
00000060: bbe9 ed3d 1fb3 57bd f162 e1bc 052a 063d
00000070: 63ad 6bbc 1c42 1d3d ec6f 323c be20 c43d
00000080: 43f0 b13d 26ef b6bb 0667 063d 905e a63b
00000090: aabf 1c3b f40d 873d 4dd6 a33d 6997 8abd
000000a0: bfd7 36bb dc36 ce3b 7e00 713d befa 88bd
000000b0: 574b 543b 5272 913c 1b83 cebd 190e aa3d
000000c0: 206e 57bd 8aee 973b 24ae a53d ac59 2abd
000000d0: 64fa d3bd 82c8 463d 2839 04bd fa63 113e
000000e0: 94cb 3e3d 255e f53d 54fe 37bd 3433 9b3c
000000f0: 852c 063e 9ed9 efbc 0719 80bd 4974 dfbd
00000100: 6686 f0bd 65f1 dcbd 534c 2bbd bf7e 063d
00000110: cde1 c23d 17c5 80bd fa72 563d c4f9 cb3d
00000120: 7f4c ad3d 5e44 df3c 669a 483d 4aa3 583d
00000130: b8e8 b2bd cce3 a73d d9e7 9bbd 908d b5bc
00000140: be1c f93d bd89 20bd 37c4 ccbc f019 883d
00000150: d6e7 a7bd 683a 893d 2cf3 be3d be8b d03c
00000160: 4812 7bbb 2a6a c4bd 73e8 5abc ccc5 82bd
00000170: d57b 49bb 97e2 6cbc 63a3 163d 434b 543d
00000180: eeed 7fbc 5be5 83bd 73d3 d13d a135 9abd
00000190: c449 9dbd cbf4 6ebb 912c b6bc e5b1 003e
000001a0: d442 a0bd 06de 173d 2007 143e 9b67 bb3b
000001b0: f1b6 073e 1062 923c 8b81 ebbd 7289 653b
000001c0: 9a30 6d3d 4687 d9bd ab46 b9bd be70 d23d
000001d0: e1c6 b83d 2d67 7dbd ce37 f13d e760 5f3d
000001e0: 467f 233d 1c70 9cbd 486a 88bd 8333 44bd
000001f0: fa0d 8b3c 64cd 62ba 2862 b7bd 13f5 2ebc
00000200: 7476 423d 4d70 f9bd b46b e8bc 05d6 093d
00000210: 5b63 e0bd fdf2 12be 613b a83d fe73 92bd
00000220: 50a2 ba3d 56e8 ebbd 829c 90bd af48 cbbb
00000230: 5bec d63d fbf3 323d 8ad6 023d 6d4a 803d
00000240: 8cc4 1d3d 1600 7e3d 2a6f 3c3d ac64 5cbd
00000250: 575a 753d 1ed3 d7bd 9368 09bd 07f1 e43d
00000260: bdb8 c5bc 445e 17bc 43d6 83bb ac02 a63d
00000270: c19e 01be 98d4 c03d b2c3 44bd d466 81bb
00000280: d599 723d 1116 e7bd 2017 b7bd ab81 d43d
00000290: 9a38 09bd 0e70 093d 297a 1dbd 888d b33d
000002a0: a42c 243d ebaf 0e3e 933a 893a a808 c4bd
000002b0: 3a17 18be 82d5 98bc 6634 e6bd 2127 bfbc
000002c0: 2f44 ba3d 1d6b bdbc b8a0 17be 1054 11be
000002d0: 551b a8bc 96db f6bc 621c 873c ce4d cbbd
000002e0: 65eb c63d 78cd b0bd aa4c b03d 0ccf b93d
000002f0: 9dbd d4bd a202 053e 8d7a 13be d861 ac3d
00000300: 1c32 37bc 6836 53bd 96e1 2b3a 2c8b 293d
00000310: 4734 abbc e6bb b23d b0ae 123e 6498 0e3e
00000320: 223d bebd a7c6 9bbb 16eb c63d 7340 c5bb
00000330: 6b78 7d3d eb04 8bbd 5975 b8bd cec1 85bd
00000340: a539 623d c0c8 acbd 28d9 a1bc b242 24bd
00000350: 20c7 54bd ca57 b0bd 845e e7bc 0889 993d
00000360: a290 0fbc 78c5 00bd e3d9 003d 33ba 193d
00000370: e471 873d be9e 80bd dfd5 edbd 39e5 eabd
00000380: 9a0f 99bc 9160 d93d d1ac ae3d 166f 13bd
00000390: c0ac fb3c 0d25 ac3d 5d1b f23d 6a8d d93c
000003a0: b561 c73d 8d73 b9bb fde4 563d 12bb 8ebd
000003b0: c75c adbd b127 b13d dd8a 8b3d a821 2ab9
000003c0: 496b 6dbd 935d f13d 5a12 7abd fe75 09bd
000003d0: cf55 0dbd 1c17 933c 3d5f 8fbd b2a9 13bd
000003e0: 9374 e4bc eaab 053e 8419 dc3c 805c 58bb
000003f0: 6287 3cbd ab0e b7bd 5b65 eb3d da5c 9c3c
0.07302734 0.017064938 -0.1036986 0.102354914 0.012989015 -0.010772838 0.07634827 -0.07248038
0.07992214 -0.107251436 0.005151135 0.020341976 0.0068550175 -0.07568416 0.11514599 -0.09765023
-0.082627654 -0.089171536 -0.013684931 0.075753815 0.051908888 0.08740653 0.09704768 0.019280085
0.11616846 -0.052661058 -0.027513 0.032754917 -0.0143846 0.038393125 0.010890942 0.095765576
0.086884044 -0.005582708 0.032813095 0.0050771907 0.0023917952 0.06594458 0.07999859 -0.067671604
-0.002789959 0.006293161 0.05883836 -0.0668845 0.003239354 0.017754707 -0.100836 0.0830347
-0.052595258 0.0046365904 0.08089855 -0.041589424 -0.103504926 0.048531063 -0.03228107 0.14198294
0.046580866 0.11980847 -0.04492028 0.018945314 0.1310292 -0.029278573 -0.062547736 -0.109108515
-0.117443845 -0.1078823 -0.041820835 0.03283572 0.09515724 -0.06287592 0.052355744 0.099597484
0.08461856 0.02725428 0.04897537 0.0528901 -0.08735794 0.08197746 -0.07612581 -0.022162229
0.12163685 -0.039193857 -0.024995906 0.06645572 -0.08198516 0.06700593 0.09323725 0.02545726
-0.0038310457 -0.09590562 -0.013361084 -0.06385383 -0.0030743976 -0.01445832 0.03677691 0.051829588
-0.015620692 -0.064402305 0.10245409 -0.0752976 -0.07680085 -0.0036461826 -0.022238048 0.12567861
-0.078252465 0.037076972 0.14455843 0.005719138 0.1325338 0.017869025 -0.11499318 0.003502455
0.05790768 -0.106215045 -0.09046682 0.1027541 0.09022308 -0.061865974 0.11778222 0.054535773
0.0399163 -0.07638571 -0.066608965 -0.047900688 0.016974438 -0.00086518214 -0.08954269 -0.010678547
0.047476247 -0.12179623 -0.02837167 0.03365137 -0.109564506 -0.14350505 0.08214451 -0.0715103
0.0911299 -0.11518924 -0.070611015 -0.006203733 0.104943 0.04368971 0.03194288 0.062641956
0.03851752 0.0620118 0.04600445 -0.053806946 0.059900608 -0.10538314 -0.033546995 0.11178785
-0.024135942 -0.009238783 -0.0040233447 0.08105978 -0.12658216 0.09415549 -0.048038192 -0.0039490256
0.059228737 -0.11283506 -0.089399576 0.10376295 -0.033501245 0.03355413 -0.03844658 0.08767229
0.040081635 0.13934295 0.0010469727 -0.095719635 -0.1485261 -0.018656496 -0.11240463 -0.023334088
0.09095036 -0.023122365 -0.14807403 -0.14192224 -0.020520845 -0.030134004 0.016493026 -0.099269494
0.09712867 -0.0863294 0.086083725 0.09072694 -0.10387728 0.12989286 -0.14402218 0.084171
-0.011181381 -0.051565558 0.0006556747 0.04139249 -0.020898951 0.08727245 0.1432445 0.1392532
-0.09289004 -0.004753906 0.09712808 -0.006019646 0.061882418 -0.067880474 -0.09006757 -0.06531106
0.055230755 -0.084367275 -0.019756868 -0.040102668 -0.051947713 -0.086104944 -0.02824331 0.0749684
-0.0087625105 -0.03143832 0.031457793 0.03753109 0.0661352 -0.06280278 -0.11613058 -0.11469502
-0.018684197 0.10614122 0.08529056 -0.03599461 0.030722022 0.084055044 0.118216254 0.02655669
0.09735433 -0.0056595267 0.052464474 -0.069692746 -0.084649615 0.08650149 0.068135954 -0.00016225001
-0.057963643 0.11785426 -0.061052658 -0.03355979 -0.03450566 0.017955355 -0.07000587 -0.036050506
-0.027887618 0.13053861 0.026867636 -0.0033014119 -0.04602755 -0.089383446 0.114939414 0.019087244

lstm.bias_hh_l0 f4 [256]
00000000: 23dd 623d 330d 0ebd d86e 9abd ec51 3ebc
00000010: 9c64 22bd 3540 143e 02c3 4fbd 2464 ae3d
00000020: b149 ab3d 36da 133d 0fd1 cb3d e7eb bebd
00000030: 2c83 36bc 356f 8fbc 5705 833d 73cf 803d
00000040: eeda 13bd 748e 49bd e35b 6cbd 0084 de3d
00000050: bba1 97bd 77ee 863c 9bd3 df3d 1b6f 993d
00000060: 9d11 0f3d 5e4d cfbc 2dae 15bd fda2 8fbd
00000070: 8bdd 343d f957 dd3c b542 403d 76f3 aa3d
00000080: 4725 80bd f4ba c93d 7826 ec3c ca58 cf3c
00000090: eab0 263b af57 a73d efe1 9f3d 4755 f53d
000000a0: 722c 903c ac45 a6bb c893 28bd a21c b4bd
000000b0: c991 e73d 6229 a13d 839a 493c af52 973d
000000c0: 6d0c f03b 3c6f 95bc 2a79 fd3d 831c adbd
000000d0: 62f5 a13d 16a0 c03d 4d5d b8bc de11 243d
000000e0: 217f f13d 5b34 83bd 3d81 173e d686 3d3c
000000f0: a8bb 783c 1521 7c3d 5935 30bd 2341 d03d
00000100: bd55 b7bd dd78 5f3d 3b46 b33c d9ee 8d3d
00000110: 7581 843d 1661 643d 4974 a5bd c04f f53d
00000120: 6596 a13d 0bd6 583c be61 8dbd be98 96bd
00000130: d669 c43c 70eb 253c 4ae2 9b3d 95e6 a23c
00000140: 63ee 6dbd 8949 55bd d61c a6bd feb4 84bd
00000150: 6aa4 c9bd 442a cc3c 9e34 d23d 635a cabd
00000160: ed51 643c 968b 8cbd 182d 073e 6eeb 913d
00000170: b6f5 dfbd 9d1e fcbc 86b6 02bd 757f d33b
00000180: a91b 7c3d 74c0 6fbd 92be 01be 1fff bd3d
00000190: 47cd febd 6eb6 f8bc 7429 7e3d f71a 3dbb
000001a0: 7258 303d 546d 06bd df51 443b d923 723d
000001b0: ac0e bfbd 39b7 d43c f9fa 583c 8e22 b5bd
000001c0: 53cc f43d 72f1 723a 43d6 bfbd 6274 863d
000001d0: ddde b63d 1574 193c 2540 94bc bd9a 153b
000001e0: e303 bd3d 5a26 8d3b e985 7c3c c811 aabd
000001f0: bf91 89bc d8f1 dabd b141 e73c a37e f63d
00000200: 7132 983d 5eab 433d a4a1 763b 075b a23d
00000210: 34e6 80bd ab25 76bd 8a5c 0d3b 1aa0 02be
00000220: b25d e63c bab2 e8bd 0a39 113e dfc9 aa3d
00000230: ff79 b23d 3192 50bd 2c25 e1bb 8d88 b5bd
00000240: 284b f2bd ff6e c8bd 96fd 0dbe 7fd6 0fbe
00000250: 7ff6 06be 00e2 45bd 94b0 343c 5b07 27bd
00000260: 3573 d3bc 466c efbb 1eb8 e4bc fda5 2f3d
00000270: 153a 0f3d ed7d 903c 0600 51bd a113 b9bd
00000280: 8778 0ebe b4cf 1a3d 768e b53c ea31 eb3c
00000290: 9487 d13c db3f f8bd 7366 eabd c432 8bbd
000002a0: ad95 ca3c 5e38 bf3d 707a a43d a612 8c3d
000002b0: 177e 4d3d 427b c4bd dad0 c0bd e618 263d
000002c0: 6f87 06bd f725 a73d 8397 2e3d c370 15bd
000002d0: 4ca3 a33c e40c 8a3c aa88 093d 9a51 dcbd
000002e0: 3793 cdbd 7c50 66bc 9add bd3c b43d 2939
000002f0: eb91 f4bc b039 e03d 7f5b ee3c 5c7c febd
00000300: e667 42bd f723 a4bd cfb6 dabd 3c8a 343c
00000310: bbbc a3bd c53b 073e 7a5d 01bd 60ae ba3d
00000320: 3e83 113c 50f1 e43d cac4 a5bd fa00 cd3c
00000330: 2585 28bd a31b 89bd 01cc 50bd 440c c5bd
00000340: 1939 243d 0742 563c ec35 96bd b31d 20bd
00000350: be77 4a3d 82f4 0b3e 09ca cf3d 67bc eabd
00000360: fc97 cc3d 96f7 bcbc d01f 723d ed1a f73d
00000370: 23e0 e23c b9d8 af3c bf38 c73d 3a0c 083a
00000380: f37f bfbc 511f 9fbd f5ec aa3d 00f3 9dbd
00000390: 857d 78bd cd4f ee3d 988a 523d 461a 4fbd
000003a0: 691b 9a3d 5245 8dbd 0bce 853c cc2d 9abc
000003b0: 25b7 0b3d 0eb2 c0bc c243 d3bd 1159 673d
000003c0: d911 64bd e766 df3d fdf7 adbd 839a 9abd
000003d0: 5796 05bd 389a a4bc 7fcc cc3d e0d1 bdbd
000003e0: e1a1 38bc fd99 75bd 84b7 d3bc 8f97 8cbd
000003f0: 5dc5 bc3d d968 e1bc 51d4 86bd 3fd2 13bd
0.055386674 -0.034680557 -0.07540673 -0.011616211 -0.03964673 0.14477618 -0.050723083 0.08515194
0.08363665 0.036096774 0.09951984 -0.093223386 -0.011139672 -0.017509082 0.06397503 0.06289568
-0.03609746 -0.04920812 -0.057704818 0.10865021 -0.074038945 0.01647113 0.109290324 0.07491895
0.034928907 -0.025305446 -0.03654306 -0.070135094 0.044156592 0.027019488 0.046938617 0.08347218
-0.0625711 0.098501116 0.028826937 0.025310893 0.002543504 0.08171021 0.07806765 0.11979156
0.017599318 -0.0050742235 -0.04115656 -0.08794524 0.11307103 0.07869221 0.012304905 0.073888175
0.0073257 -0.018241517 0.12376626 -0.08452704 0.07908131 0.09405534 -0.022505427 0.040056102
0.11791826 -0.064064704 0.14795394 0.011567792 0.0151814595 0.061554987 -0.043019626 0.10168674
-0.089519 0.054558624 0.021884074 0.06930322 0.064700045 0.05575665 -0.0807882 0.11978102
0.078900136 0.013234626 -0.069034085 -0.07353352 0.023976248 0.010126933 0.076115206 0.01988534
-0.05808867 -0.05207208 -0.08110969 -0.06479834 -0.098458126 0.024922498 0.10263942 -0.09880521
0.013935548 -0.068625614 0.13200796 0.07124983 -0.109355375 -0.030776316 -0.03191235 0.006454403
0.061549816 -0.058533147 -0.12670353 0.09277176 -0.12441497 -0.030360427 0.06205125 -0.0028855184
0.043053098 -0.032819107 0.0029956026 0.05911622 -0.0932897 0.025966274 0.01324343 -0.088444814
0.11953034 0.00092675455 -0.09367039 0.06565167 0.089292265 0.009366055 -0.018096993 0.0022827827
0.09229257 0.0043075504 0.015412786 -0.08304173 -0.01679313 -0.10690659 0.028229566 0.12035873
0.07431496 0.04777085 0.0037632966 0.07927518 -0.06293908 -0.060094517 0.002157005 -0.12756386
0.02812085 -0.113622144 0.14181915 0.08339285 0.08714675 -0.05092067 -0.0068708863 -0.088639356
-0.11830741 -0.09786796 -0.13866267 -0.14046668 -0.13179968 -0.048311234 0.011028428 -0.0407785
-0.02581177 -0.0073066084 -0.027919825 0.042882908 0.0349675 0.017638171 -0.051025413 -0.09036947
-0.13913165 0.037795737 0.022162657 0.028710324 0.025577344 -0.121215545 -0.11445322 -0.06796792
0.024729574 0.09336923 0.080311656 0.068394944 0.050169077 -0.09593822 -0.09414835 0.04055109
-0.032844003 0.08161538 0.04262496 -0.03648449 0.019975327 0.01685185 0.0335776 -0.10757752
-0.10037845 -0.014057275 0.023176957 0.00016140082 -0.029854735 0.10948503 0.029096363 -0.124260634
-0.047462367 -0.08014672 -0.10679399 0.011019286 -0.07994982 0.13206394 -0.031583287 0.09115291
0.008881388 0.11178839 -0.08094175 0.02502488 -0.0411426 -0.066947244 -0.050975803 -0.0962148
0.040093515 0.013077266 -0.073345035 -0.039090823 0.0494306 0.13667491 0.10145957 -0.11461716
0.09989926 -0.023067277 0.05911237 0.120656826 0.027694767 0.021465646 0.0972762 0.000518981
-0.02337644 -0.07769645 0.08345977 -0.07712364 -0.06066658 0.116363145 0.051401705 -0.050562166
0.07524759 -0.068979874 0.0163336 -0.018820666 0.034110207 -0.023522403 -0.10315658 0.056481425
-0.055681083 0.10908299 -0.08494566 -0.07549002 -0.03261408 -0.020093068 0.09999942 -0.09268546
-0.011269064 -0.059961308 -0.025844343 -0.06864845 0.092173316 -0.027515816 -0.06583465 -0.03608918

fc.weight f4 [8, 64]
00000000: 4b30 80bd 806f 783d 60dc bebd c75b 353d
00000010: f723 813d b704 4ebd df96 993c 7e3b b5bd
00000020: aeea 73bd d4f8 bdbd 8fd8 f73d e6a0 973d
00000030: 7d48 18bd 3e39 903d 6680 b03d fc65 863c
00000040: 4211 c3bd b74f 903c 594e a83d 28d2 f03d
00000050: 36c2 46bd 3554 883d 837e 483d 25de f43d
00000060: 08c0 473d 8b9d 4c3c 5f65 0f3e e7e0 c5bd
00000070: 22bf fbbd c7e5 c2bd 86d6 23bd 8db4 c13a
00000080: fb6b 1cbd 7f32 eabd 2b11 aebd 4b08 b43b
00000090: 87ab a3bc a1c9 a73c 260e 283b eb48 6abd
000000a0: 5ad2 bc3d b4ef a93d 38b6 8cbd b236 08be
000000b0: 23fd e1bc aa3a a2bc 8c63 f4bd c032 653d
000000c0: 6238 123c 51ff 49bd e22f 09be d4fa bfbc
000000d0: 9699 87bb 883a b3bc 3dfc 0f3c 7075 a6bd
000000e0: b956 96bd 6ea6 c7bc 0930 133d 336a 073e
000000f0: 272d 863d d828 a6bd 2c01 01bd db77 333c
00000100: e55b 8a3b c6eb 8bbd 5ef8 31bd 8a91 12bd
00000110: 02d4 113e 2654 053d 58c1 cfbd e96e b23d
00000120: b6ed e93c 3606 063e 43e9 563d 91c5 06be
00000130: d766 10bc 37b1 88bc ae05 813c b931 453c
00000140: 1443 efbc 99b8 6a3d 7541 ad3d e3d1 8b3d
00000150: c682 b2bd 09cf e83c 539c 94bd 72a8 86bd
00000160: d10e b53c 1cce 52bd 9997 4bbd 1d82 f5bd
00000170: 7cc4 fb3d 841a 0dbe d28c 7bbd a651 4c3d
00000180: 08e1 6d3c fa94 1f3b 6ca1 d2bb ab79 10be
00000190: 4998 913c 5f67 d53d 5f3d b0bd 3a25 c33d
000001a0: 416c a1bc f0c9 13bc f105 d73c 2bce 783c
000001b0: 3122 3a3c c450 e7bc 3b9e fb3d f191 5f3d
000001c0: eb85 883b 5c9d b3bd a7dc cd3d 4bbd 8abd
000001d0: 8ff7 bdbd 1700 e73c 869b 92bd abaa 5dbd
000001e0: e506 b43d 2e3b c8bd 9583 ecbd 8d06 5f3d
000001f0: 0e7c bd3d ab21 eebc 8a82 023e a0e1 063e
00000200: 468c 38bd bd73 90bd d9cf 6a3d c196 15be
00000210: 9e66 023d 029f 04bd 5c4a c93b 5421 21bd
00000220: 1f5d 12be 3f04 f6bb e756 0dbe d477 8c3d
00000230: e4f0 f3bd ab57 9a3d f866 3ebc 6b39 c2bd
00000240: d36a af3d 1cf5 d33c 164a 6fbd 1bd6 f23d
00000250: d937 a5bd 8f87 9d3d f89e 033c e790 01bd
00000260: eedc 073d 9643 c33b f2bf 63bc ae15 253d
00000270: 81e5 c43c 32f3 f6bd ffb6 c1bd 544f ec3c
00000280: c4f2 cd3d c6f2 c3bd b630 843c 1bfd a8bd
00000290: 5b0a a5bd b6d5 d73d 7a29 9ebd 7b3d a2bd
000002a0: dcfc c5bc 948a 16be 316d 243d 8a8b 923c
000002b0: 674c 1cbd fd05 76bd 3d1a a23d 3851 0ebe
000002c0: 1b1f f6bc 5d88 f7bd 19ca 6e3d a246 f33d
000002d0: 47d0 a7bc dd54 b63d 3239 cdbc e949 313b
000002e0: 550d 8fbd 17a0 8a3d 2128 e2bc 7451 263c
000002f0: 5af4 bebd 65aa c03d fc04 eb3c 96b5 a43d
00000300: 30ea ab3d 5b6b f13d 3955 3ebc 066a 69bd
00000310: 7262 61ba 7bd2 70bd b5ea ac3c 978d 9b3d
00000320: 884a 303c d7f3 b2bc 350f c9bc b75b 4a3d
00000330: 6e3a a03d 1b18 113e 9da2 edbd 887a 433d
00000340: ad5f 033d 5349 9b3a 5fba 0a3e 1116 e23d
00000350: a7ba c03d f199 bf3d 5071 c738 0dd5 96bd
00000360: 97c0 c93c 8668 053e 0c62 f63c 26ad 703c
00000370: 2a34 d53d 7efc 2e3d 01c5 ca3d 340b d03c
00000380: 3e6d bebd 8d7e bebd b02e 81bd bd2b 8c3d
00000390: a431 383d b7fa 1d3c 9d0b 133e 648a 14be
000003a0: df58 a03c 0493 02be e623 58bd a650 813d
000003b0: 7b16 d93d 9371 933d d0b8 053e cce2 323d
000003c0: 1c6d 9bbc 1f9d aabd 89b9 9dbc a45c 8b3c
000003d0: 6f82 713d b972 bb3c 4292 833d e4a9 b0bd
000003e0: 18b9 4a3d c590 493c 5089 bdbd b7d5 bd3d
000003f0: 26f7 4fbc 0fc4 0d3d 6df4 30bd c56d 48bd
-0.06259211 0.06065321 -0.09319377 0.04427698 0.06305688 -0.050297465 0.018748699 -0.08849238
-0.05954998 -0.09275976 0.12101852 0.07403736 -0.037178505 0.07042168 0.0861824 0.016406052
-0.09524776 0.017616136 0.08218069 0.11758834 -0.048525058 0.06656686 0.048948776 0.11956433
0.04876712 0.012488733 0.14003514 -0.09662037 -0.12292315 -0.09516483 -0.039999507 0.001477854
-0.038188916 -0.114354126 -0.08499368 0.0054941527 -0.019979252 0.020481886 0.0025643199 -0.057198446
0.09219809 0.08297673 -0.06870693 -0.13302115 -0.027586525 -0.019803364 -0.119330496 0.055956602
0.0089245755 -0.049315754 -0.13397172 -0.023435034 -0.004138182 -0.021878496 0.008788166 -0.08127868
-0.0734076 -0.024371352 0.03593448 0.13224106 0.06551581 -0.08113259 -0.03149526 0.010953869
0.0042223805 -0.068320796 -0.043449752 -0.035783328 0.14241031 0.032550953 -0.10144299 0.08712561
0.028555732 0.13088307 0.05246855 -0.13161303 -0.008813581 -0.016686065 0.015749779 0.012035781
-0.02920679 0.057304952 0.084597506 0.06827142 -0.08716349 0.028419035 -0.07256379 -0.06575097
0.022101792 -0.051466092 -0.04970512 -0.11987708 0.12293336 -0.13779646 -0.061413594 0.049882554
0.014518984 0.0024350272 -0.0064279344 -0.14108913 0.01777281 0.10420107 -0.086054556 0.09528585
-0.01970494 -0.009020314 0.02624795 0.015185873 0.011360691 -0.028236754 0.122860394 0.05458254
0.004166355 -0.08770248 0.10051852 -0.06774386 -0.09275734 0.028198285 -0.0715857 -0.05411784
0.087903775 -0.09776913 -0.11548535 0.054449607 0.09252177 -0.029068789 0.12745109 0.13172007
-0.04505565 -0.07053325 0.057327125 -0.1460829 0.031836145 -0.032378204 0.0061428975 -0.039338425
-0.14293335 -0.0075078304 -0.13802682 0.06858793 -0.119111806 0.075362526 -0.011621229 -0.09483608
0.08565297 0.025873713 -0.058420263 0.118572436 -0.08067293 0.076918714 0.008033507 -0.03163233
0.03316968 0.0059589846 -0.013900744 0.04030388 0.024035217 -0.120581046 -0.09458732 0.02884642
0.100560695 -0.0956779 0.016136508 -0.08251401 -0.08058616 0.10538809 -0.07722755 -0.07921883
-0.024168424 -0.14701301 0.040143196 0.017888803 -0.0381588 -0.060064305 0.07915161 -0.1389817
-0.03004413 -0.12086556 0.058298204 0.118787065 -0.020485057 0.08902905 -0.025051687 0.002705211
-0.06984965 0.06768816 -0.027607026 0.010151256 -0.0932395 0.094075 0.0286889 0.08042447
0.08394277 0.117880546 -0.011616998 -0.056985877 -0.00085977383 -0.05879448 0.02110801 0.075953655
0.010759957 -0.021844788 -0.024543384 0.049403872 0.078236446 0.14169352 -0.11603282 0.047724277
0.032073665 0.0011847414 0.13547657 0.11039365 0.09410601 0.09355534 9.5101655e-05 -0.07364855
0.024627967 0.13028154 0.03007605 0.014689719 0.1041034 0.042721264 0.09900857 0.025395967
-0.0929818 -0.093014814 -0.06307733 0.0684428 0.044969216 0.009642295 0.14359899 -0.14505917
0.019573627 -0.12751395 -0.05276861 0.063142106 0.10599991 0.07199397 0.13058782 0.04367332
-0.018972926 -0.0833075 -0.01925351 0.017011948 0.05896228 0.022881852 0.06424381 -0.08626154
0.049492925 0.012302582 -0.09254706 0.092692785 -0.012693202 0.034610804 -0.043201853 -0.04893281

fc.bias f4 [8]
00000000: a5c2 c03c a8d2 cc3c a017 933d 11fc 11be
00000010: 15a9 833b 9867 653d 511c 17bd 405d fd3c
0.023530314 0.025002792 0.071822405 -0.14256312 0.004017959 0.056006998 -0.03689224 0.030928254
