data/processed/ml_engine/model.pt (torch, 650039 bytes, 7 tensors)

embedding.weight f4 [2000, 64]
00000000: 0000 0000 0000 0000 0000 0000 0000 0000
00000010: 0000 0000 0000 0000 0000 0000 0000 0000
00000020: 0000 0000 0000 0000 0000 0000 0000 0000
00000030: 0000 0000 0000 0000 0000 0000 0000 0000
00000040: 0000 0000 0000 0000 0000 0000 0000 0000
00000050: 0000 0000 0000 0000 0000 0000 0000 0000
00000060: 0000 0000 0000 0000 0000 0000 0000 0000
00000070: 0000 0000 0000 0000 0000 0000 0000 0000
00000080: 0000 0000 0000 0000 0000 0000 0000 0000
00000090: 0000 0000 0000 0000 0000 0000 0000 0000
000000a0: 0000 0000 0000 0000 0000 0000 0000 0000
000000b0: 0000 0000 0000 0000 0000 0000 0000 0000
000000c0: 0000 0000 0000 0000 0000 0000 0000 0000
000000d0: 0000 0000 0000 0000 0000 0000 0000 0000
000000e0: 0000 0000 0000 0000 0000 0000 0000 0000
000000f0: 0000 0000 0000 0000 0000 0000 0000 0000
00000100: e2f2 8ebf 37bf 4f3f d123 4bbe 136f 72bf
00000110: d128 bf3e d993 553f 7810 113e 1b3a 8dbf
00000120: 937e 8fbe 5004 2a3f b5fa 403f 7f05 f8be
00000130: f3ae cc3e afc0 53bf 05c9 0f40 ef55 c6bf
00000140: b2e5 0f3f fbd6 083f a854 f43f 2d3e 32bf
00000150: f9b6 ff3f 98a6 5cbf 95d0 dc3e d354 d43c
00000160: 3e03 a3be 2d14 a1bf 637b b03f 1da0 05bf
00000170: 0ce2 5dbf 7346 4b3f f007 ed3e 0c6b e23d
00000180: 9720 823e eb5e f8bf e895 103f d78d 613f
00000190: 178e 813d 3c17 d43f 0b96 e3bf 7492 13c0
000001a0: 261c bdbe b16f d23d bb95 823f 6ac4 dbbd
000001b0: 7436 363e ab39 69bf 72aa d83e cabb 1ebf
000001c0: bb11 403f 0e97 afbf 1107 3fbf 4506 18bd
000001d0: 4ada bfbf c231 223f ab5e 91be 971e 5fbf
000001e0: 1882 923f b242 0e40 e7b3 fa3e 10dc f7bc
000001f0: 3758 8fbf 72ad 2bbd 96d2 bb3e ee77 e13e
00000200: e710 19bf 25d6 52bf f25b 4bbf da56 24c0
00000210: fa7e cbbe 5b0d d13f 61f1 6d3f 9a9e 10bf
00000220: 5caf 5a3f e5f1 043f b392 0c40 5906 21bf
00000230: 6aa0 9c3f 2f62 413e 522c 51bf a40c 1cbf
00000240: 45a5 92bd 1d7e 343f 45ba 343e bb76 8cbd
00000250: ca5f 0ebf 5338 52be e0f8 c23f 583c 883e
00000260: ab6e acbf 4e1b 713f 7932 863f 052f 7f3f
00000270: 49b5 a5bd 95dc 21bf f0d9 063e 0b0c e93f
00000280: c732 753f 9476 10bf a261 2cbf 9bdd 06c0
00000290: eeac 9b3e 2c4b 49bf 07a3 c13e 0232 b5bf
000002a0: 9d53 fe3f ccd3 68be bda9 82bd e6da 29bd
000002b0: 983e 0340 d226 373f 3ad2 e53f 7a4f aabe
000002c0: 5722 f03f 8fdf 1e3f 1502 4940 bb81 2ebf
000002d0: c55b 76bc 641e 823e 5cb0 1bbf 05a3 1f3f
000002e0: 5cb4 073f aadf 513d 7655 bebf 63a1 e33f
000002f0: 953c 1d3f 6dba aa3c 594e 0ac0 1611 c9bf
00000300: 25f6 98be 2d33 7ebf 38da de3e 44f9 e3bd
00000310: f2f1 b73e 7fe1 67bf 930d 9e3f 67fd 47be
00000320: eb18 ee3f 825b 0fbe 96c5 ab3d a2ab 643f
00000330: d9ac acbe 764c a23f b830 2640 6972 bb3f
00000340: 3616 07bf 4fcc fa3e 9534 8c3e fb86 9f3c
00000350: 867c ec3f ff81 ee3e 4c79 b3bd c77f e6bd
00000360: e339 8e3f d19c f1bf fcbf 06c0 775c fe3e
00000370: cf62 a7bf 776f 7abe 9264 dcbe 127a 4b3f
00000380: 903c 2f40 4810 903e 8cbc 753f 6cc5 4dbf
00000390: cefe 653e 16a2 a0bf f7a8 f0be 21ed 35bf
000003a0: 8c4a 4e3f 6ca2 f93f c5b5 23bf afcd 923f
000003b0: 522d 2a3e dd12 bf3e d78e 453f c05c 8bbd
000003c0: 1ecc 6fbe 6f66 c4bf 2a43 3b3f 710b a1bf
000003d0: 82e9 453f ffb0 073f f31b bb3f 05ff 3a3f
000003e0: 051b 593f 25cc bcbf cdcf 5c3e a7b8 cf3f
000003f0: ef75 9b3f 2b48 49bf 89cf 803f 0d57 c43f
0.0 0.0 0.0 0.0 0.0 0.0 0.0 0.0
0.0 0.0 0.0 0.0 0.0 0.0 0.0 0.0
0.0 0.0 0.0 0.0 0.0 0.0 0.0 0.0
0.0 0.0 0.0 0.0 0.0 0.0 0.0 0.0
0.0 0.0 0.0 0.0 0.0 0.0 0.0 0.0
0.0 0.0 0.0 0.0 0.0 0.0 0.0 0.0
0.0 0.0 0.0 0.0 0.0 0.0 0.0 0.0
0.0 0.0 0.0 0.0 0.0 0.0 0.0 0.0
-1.1167872 0.81151146 -0.19837882 -0.94700736 0.37335828 0.8342872 0.14166439 -1.1033357
-0.28026256 0.6641283 0.7538255 -0.48441693 0.39977226 -0.82715887 2.2466443 -1.5494975
0.5620986 0.53453034 1.9088335 -0.6962612 1.9977714 -0.861917 0.43127885 0.025919354
-0.3183841 -1.2584282 1.3787655 -0.5219744 -0.86673045 0.7940437 0.46295118 0.11055574
0.2541549 -1.9403967 0.5647874 0.88107055 0.063259296 1.656959 -1.7780164 -2.3058138
-0.36935538 0.1027521 1.0201944 -0.107308224 0.1779421 -0.9110362 0.4231754 -0.62005293
0.75027055 -1.3717973 -0.7462016 -0.037115354 -1.4988492 0.63357174 -0.28392538 -0.8715605
1.1445951 2.2228208 0.4896538 -0.030256301 -1.1198796 -0.041913457 0.36684102 0.44036812
-0.59791416 -0.8235801 -0.7943717 -2.567801 -0.39745313 1.6332201 0.9294644 -0.56492007
0.8542383 0.519316 2.1964538 -0.6290031 1.2236454 0.1888511 -0.8170825 -0.6095679
-0.07160429 0.70504934 0.17649181 -0.068585835 -0.5561491 -0.20529298 1.5232201 0.2660854
-1.3471273 0.9418229 1.0484153 0.9968112 -0.08091218 -0.63227206 0.13169074 1.82068
0.95780605 -0.56430936 -0.67336476 -2.1072757 0.30405372 -0.7863033 0.37819692 -1.4155886
1.9869267 -0.22737044 -0.06380031 -0.041468523 2.0506954 0.7154361 1.7954781 -0.3326376
1.876048 0.62059873 3.140752 -0.68166703 -0.015036528 0.2541381 -0.6081598 0.62358123
0.5300958 0.051238693 -1.4869831 1.7783626 0.61420566 0.020840848 -2.161032 -1.5708339
-0.29875293 -0.9929684 0.43525863 -0.11131528 0.35926777 -0.90578455 1.2347893 -0.19530259
1.8601354 -0.13999751 0.08387296 0.8932439 -0.33725622 1.2679584 2.5967236 1.464429
-0.52768266 0.48984 0.27383867 0.019473543 1.8475502 0.46583554 -0.0876337 -0.1125484
1.1111416 -1.8875982 -2.1054678 0.4967992 -1.3077029 -0.24456583 -0.4304548 0.7948314
2.7380714 0.28137422 0.95990825 -0.80379367 0.22460482 -1.2549465 -0.4700391 -0.71064955
0.805825 1.9502692 -0.63949233 1.146902 0.16618851 0.3731908 0.7717108 -0.068048
-0.23417708 -1.534376 0.7314936 -1.2581617 0.7730943 0.5300445 1.4617904 0.7304538
0.84806854 -1.47498 0.21563645 1.6228226 1.2145365 -0.78625745 1.0063335 1.5339066

lstm.weight_ih_l0 f4 [256, 64]
00000000: 86f5 4fbd f10c 05be b5c6 8f3d 2e14 ab3c
00000010: 6d21 2a3c c597 bcbc 950e fcbd 38ca aabb
00000020: d65b 8dbd 58d8 023d 1ff9 67bc 25f1 2cbd
00000030: 79a1 383d b140 993d c6aa b1bb 5827 b5bd
00000040: 9806 f9bd f0d2 ac3d c442 a03d 0f72 933c
00000050: 2e33 e13d aa15 7bbd 4a6f d7bd dd54 503d
00000060: df3d 813c 68da 57bc 6266 68bc e75c b3bd
00000070: 5f88 d9bd 44b2 c63d 577f 5cbd c63e 05be
00000080: 82f8 9f3d 8d60 8f3d b677 b0bc 8b50 bf3d
00000090: 30f6 213d 8fba c13d 3eff 76bc 0db7 07bd
000000a0: 973a bfbd b6e6 9e3d 9834 a83d e719 7a3d
000000b0: 38dd 8a3d 9376 df3d b2e7 e5bc a0ce 943d
000000c0: 6695 d13c 795a 753c c952 b73d 3eba 79bd
000000d0: b37e ffbd c21d 8e3d 197e 983d 8e8d 4abd
000000e0: 902f 99bd 9e4d e7bc 833c edbb 5250 403d
000000f0: 669a f9bb 26f5 593d 5097 f5bd 7d56 f2bd
00000100: 6fc5 adbd 05cf 13bd 091a 88bd 21aa 1a3c
00000110: 21f9 76bd 1534 443c 0d55 683d 2596 14bd
00000120: f35f 9ebd 3095 b7bd 2ab5 f83d cbd4 673d
00000130: 0898 8fbd 7121 febd 78bb e0bd 575a 4a3d
00000140: 60fb b6bd 3be2 dfbc 4ac7 a03d 840d 163c
00000150: f559 a13c a638 a6bd 60bf a9bd ee27 a7bd
00000160: ffb6 b93c 5a0f c43d a332 613d 6f5d c4bd
00000170: 2d1c de3c d8ed b8bc f8f0 0c3e 680b 5dbd
00000180: 4753 c9bd 783d c53d 8bc6 8c3d 9f12 4c3d
00000190: e0f1 b4bd 9cca 72bd 7e19 5bbd 520a 013a
000001a0: f719 933d 8ce3 7d3d 849c 17bd 9146 eb3b
000001b0: 7df8 b53d f5c2 d3bd dc41 ecbd d0b8 c33b
000001c0: 64db 97bd 0dc6 21bd c4b6 353d f699 11be
000001d0: 3319 7ebd f122 3c3d 436a f7bd 81b4 bd3d
000001e0: b5ee d23d 1401 db3d 44a7 ea3c da24 adbd
000001f0: 38b5 10bc ad23 e93d 80f8 e0bc 54ec 6e3c
00000200: fae1 c53c 1d4c 9dbd 91ed 58bd 66ff 0ebe
00000210: 98c0 ca3d dd24 dd3d 1724 e9bd bb64 1d3e
00000220: 23fd 8e3d 9f0e 42bd 13a1 dd3c 52ad 5bbd
00000230: 2516 dd3d 87bf a73d 0060 5cbd 663c f3bd
00000240: 32f2 d83d c8e0 f3bd 6ae9 543d 11a4 9dbd
00000250: fc7b 013b 714a dbbd b70c 67bd e382 91bd
00000260: dbf1 69bd 6f51 d3bd d68a 6fbd e8e8 c83d
00000270: 99af c1bd 17e4 393d 0fc7 a6bd 98cd 3fba
00000280: b730 e6bd b14d 92bc 44d6 833d 230b f43d
00000290: e7bc 87bd 491e af3d 8a73 f0bd 1417 763d
000002a0: fb6a c6bd b1a9 e3bd ca2f 92bd 6247 9d3c
000002b0: ddc0 c93c 07ce 963d 1bad c6bd eb64 463d
000002c0: 96cd dcbd 68ae 8a3a e3e0 3cbd c318 f33d
000002d0: d5a3 bc3c caa9 99bd 68bf adbd 356f 98bd
000002e0: 985b 2c3d 5b1e e13c 2a44 173e 2570 8b3d
000002f0: 2c7f c1bc 6e33 03be 9d9b a7bb 626f bbbd
00000300: f3c6 bfbd 425a 5a3d e6a3 6c3c 73e3 8dbd
00000310: 0314 353d 25d7 b93d 1c65 fa3c a4df 713d
00000320: 3b96 7f3d d62d e53d 624e cf3d 248c 413d
00000330: 8ef5 e3bd 7eb6 d6bd dc8b f1bd 7afb 2abd
00000340: 3977 9abd a1e3 073d 27cf c13d 527d 6e3d
00000350: c153 43bd 6e06 823c 857a 893d cd5e aa3d
00000360: a3ab 4f3d fa3b bfbd 848d b43d 185c 28bc
00000370: b9d8 a4bd ca50 d33d 47d2 cdbd 479a 04be
00000380: d413 07be 8008 5f3d dd35 87bc 9373 f8bc
00000390: 73ae a63d 6247 8c3d 6edb 1b3b f937 93bd
000003a0: f986 5f3d a945 d3bd 03d7 b53c 5986 6bbd
000003b0: fb73 c2bd ce9e edbd a4e6 143d e17a 7d3d
000003c0: 0562 9bbd 5b86 14be 7ecc b4bc 52a5 593d
000003d0: 31a8 d13d 4bf0 d7bc a697 053e eba9 3bbd
000003e0: a28b f7bd 59bb 513d d603 a43d cd89 cc3c
000003f0: f0a4 3dbd a6a6 e23c 9d5b 25bc 7369 bc3c
-0.05077126 -0.12993218 0.07020322 0.020883646 0.010383946 -0.023021588 -0.12307469 -0.0052120946
-0.06902282 0.031944603 -0.014158516 -0.04222216 0.045075867 0.07483042 -0.005421969 -0.08845395
-0.12159461 0.08438671 0.078252345 0.017998723 0.1099609 -0.061299957 -0.105192736 0.050862182
0.015776573 -0.013174631 -0.014184566 -0.08757954 -0.10621714 0.0970197 -0.05383238 -0.13012227
0.07811071 0.070008375 -0.021541458 0.09341534 0.039541423 0.09459411 -0.015075503 -0.033133555
-0.09337347 0.07758848 0.082131565 0.06105986 0.067804754 0.10911288 -0.028064582 0.07265973
0.025583934 0.014975184 0.08951337 -0.06096863 -0.12475338 0.069392696 0.07445926 -0.049451403
-0.07479775 -0.028235253 -0.0072398796 0.0469516 -0.0076172827 0.053212307 -0.11991751 -0.118329026
-0.08484923 -0.0360861 -0.06645591 0.009439976 -0.06029618 0.011975308 0.056721736 -0.036276
-0.077331446 -0.08964002 0.12143929 0.05659942 -0.070114195 -0.12408722 -0.10973257 0.04940256
-0.08934665 -0.027329555 0.07850511 0.009158496 0.019696215 -0.081162736 -0.08288455 -0.08161913
0.022670267 0.095732406 0.05497993 -0.095881335 0.027113045 -0.02257435 0.13763797 -0.053965956
-0.09830337 0.09630865 0.068738066 0.049822446 -0.088351965 -0.059275255 -0.053491108 0.00049224973
0.07182687 0.061984584 -0.0370145 0.007180043 0.08885286 -0.103399195 -0.11535999 0.005972959
-0.07414892 -0.039495517 0.044363752 -0.14218888 -0.06203575 0.04593176 -0.12080815 0.09262944
0.10299436 0.10693565 0.028644212 -0.084542945 -0.008832268 0.11383758 -0.027462244 0.014582712
0.024155606 -0.07680533 -0.052960936 -0.13964614 0.099000156 0.10798047 -0.11383837 0.15370457
0.06981876 -0.047377225 0.027054345 -0.053632088 0.10795239 0.08190828 -0.05380249 -0.118767545
0.1059307 -0.11908108 0.051980413 -0.07697309 0.0019757738 -0.10707558 -0.05640861 -0.07105043
-0.057115417 -0.103182666 -0.058482014 0.09810048 -0.09457321 0.04538354 -0.08143436 -0.00073167076
-0.1123976 -0.017859312 0.06437352 0.11916187 -0.06627827 0.08550698 -0.11740787 0.060080603
-0.09688374 -0.111163504 -0.07138021 0.019199077 0.024628097 0.07363515 -0.09700986 0.048436087
-0.107814 0.0010580542 -0.046112906 0.11869957 0.02302734 -0.07503088 -0.084837735 -0.07443086
0.042079538 0.027480295 0.14772096 0.06808499 -0.02362021 -0.12812588 -0.005114986 -0.09152104
-0.093641184 0.053308733 0.014443373 -0.06928148 0.044208538 0.09074239 0.03056579 0.05905117
0.06239913 0.11190383 0.10122372 0.04725279 -0.1113082 -0.10484026 -0.11794254 -0.041743733
-0.07542271 0.03317607 0.09463339 0.058224984 -0.047687296 0.015872207 0.06712822 0.08318863
0.050700795 -0.093376115 0.088160545 -0.010275863 -0.08049149 0.10318144 -0.10049873 -0.12949477
-0.13191158 0.054451466 -0.016505176 -0.030328548 0.08138742 0.06849553 0.0023781913 -0.0718841
0.05457208 -0.10316021 0.022197252 -0.05750117 -0.09494778 -0.11602555 0.03635277 0.061884765
-0.07587055 -0.14504378 -0.022070166 0.053136177 0.10237158 -0.026359698 0.1304613 -0.045816343
-0.1208718 0.05120406 0.08008544 0.024968052 -0.046299875 0.027667355 -0.010092643 0.0229995

lstm.weight_hh_l0 f4 [256, 64]
00000000: d378 22bd b39f a63d 00c9 393d 488a 133e
00000010: 8d1b 2cbc ab41 03be f442 053d 6d7d 543c
00000020: bc2a 393c f81b bebc 2793 993d e551 00ba
00000030: 3d52 39bd 52a7 41bc 9c0d b8bd 324a 1b3c
00000040: d325 aabd 08cc 05bc 7148 aa3d 11a7 02be
00000050: f684 a53c 659c b6bd 1608 a53c a6d1 043e
00000060: 6108 d5bd 5e91 46bc f2d6 003d d150 c0bc
00000070: 9224 ecbd f90b f8bc 6088 d1bd 33a4 8a3d
00000080: 6aae 883c b9a4 adbd 956d e53d dd55 8fbd
00000090: f708 8a3d 032e b8bd 109c c03d c217 91bb
000000a0: d4f9 72bd d19f 913d d526 c6bd d0b0 10be
000000b0: 1282 a73d 01e7 c5bb e552 f83a f435 bfbd
000000c0: c470 e73c bff3 75bd 539d d3bd ca80 b23c
000000d0: 7cc1 d53d 732d 613c 7df8 d9bc 1507 05be
000000e0: f4e0 83bc ef45 c93a ff25 0c3c ca42 e83d
000000f0: 0a15 d43d 9047 9e3d 878d cc3c 4b3d 1ebd
00000100: 9ec1 9d3d 18ec d43d ffad 123d 06ed 1dbd
00000110: 6cf7 903b 3210 8c3d f7c2 133e cae4 bebd
00000120: 32e6 e63d 4a30 10bd 39f4 ad3d 7854 97bb
00000130: a91f 38bd 80e7 adbc b23e a4bd dc33 183d
00000140: f417 6f3d 3c8d c23c 5877 e83b 4129 083c
00000150: 7c2b 923d 525d 02be f3ea 8cbd 5f64 d93d
00000160: 9a15 473a dadf eb3d 7a73 0bbe 115d 023e
00000170: 5947 bf3d ca6e 9dbd 5f4c 06be 62d3 aebd
00000180: 1b64 43bd ab2c 8bbd 4e88 943c cf81 c13d
00000190: bdad bf3d e575 fcbd 8f64 49bd 7c89 3abd
000001a0: 70db 053e f956 ca3c 8a3a b93d abf4 443b
000001b0: 1d2e 313d a6b3 37bd 528f 7c3d 588c b53b
000001c0: 991c 96bd 9d1c 583d f4ed 5ebd 58c1 c93c
000001d0: d18a 0e3d d9cd 833d 7943 ed3c 15be 5c3d
000001e0: a425 1b3c ba28 383d b252 fb3c 47d7 073d
000001f0: a862 763d e26f 033e 8d71 fcbd 501f 543d
00000200: 494c 46bc e23d d1bc 388a c43d 0048 f2bc
00000210: 5ca6 cb3d 0a87 b9bc 0a30 c8bb 817f e53b
00000220: 458a 093e d063 4d3b 71b3 093c f4cb 92bd
00000230: 846f babd a642 4f3d 2d5b 803d 2a07 dabd
00000240: cb53 08bc 5073 333d 0785 463d c221 653c
00000250: bc01 febd c1e1 54bd 6875 f3bd b9b2 823d
00000260: b646 e83c b213 813c 189c 87bd bb71 053e
00000270: 285f b83d 2d56 fd3d 0881 abbc ee32 333c
00000280: 7385 05bd d35f 2b3d 4f92 503d 7e9b de3d
00000290: e13e d3bc cb04 98bd 4dbd 10be d9aa c63d
000002a0: 5b36 cc3d c41c 53bd 908a 5d3d a4cd bc3d
000002b0: d676 2bbd 4d98 ae3d 2c89 b0bd 11f3 3abd
000002c0: 315d a43d da8c 50bd 83f7 75bd c658 803c
000002d0: 3e6e 47bd fca1 113b dad7 febc 6a7d f53c
000002e0: f9ed c2bd 45cb d33d edf7 d93c 571c 843d
000002f0: de16 43bd 4e09 d7bd 8439 ed3c f3cb dd3d
00000300: 9db9 2bbd 253b 8bbd af03 a23c df13 113e
00000310: 91c2 43bc 0c9d 0fbd d4ed a83d 6b6f 17bc
00000320: c75a 41bd 3f12 8dbb e179 92bd 20db 79bd
00000330: 00f7 62bd 8823 f5bc 8743 e63d 146e e7bc
00000340: fa33 b3bd 35f5 44bd 5b78 fb3c 9917 0dbe
00000350: f7fd 0ebe 4abb 33bc d55c 003d 53b0 b0bc
00000360: fc5e 8c3d f100 833d 40a6 30bd 5e22 97bc
00000370: 58e2 acbd 120f f43d 559d 623c 5237 9abd
00000380: affd 1dbe b20e 40bc e2b6 7b3c 6bb2 0ebd
00000390: 7fca 983d 342c 13be 6da7 32bd 4a71 f4bb
000003a0: 49d9 ffbc 3a32 2fbc 4baf afbc 2310 a23d
000003b0: ebbc ddbd be31 1b3d 8832 d3bd 87c3 c03d
000003c0: 6ca8 b2bd 80fa 98bd 6315 7dbd 5891 ffbd
000003d0: 8c40 a93d 9f62 47bc b1e6 603d cb38 0fbe
000003e0: 97b8 af3d f7f4 0bbe 3cc8 bd3d dcec 8dbc
000003f0: f201 6abd 1226 1e3c b90f 0dbe e83b 4fbd
-0.03966601 0.08135929 0.045357704 0.14408219 -0.0105046155 -0.12818019 0.032534555 0.012969357
0.011301693 -0.023206696 0.0749877 -0.0004895016 -0.045244444 -0.011819677 -0.08986971 0.009478139
-0.08307996 -0.008166321 0.08314598 -0.12759043 0.020205002 -0.08916549 0.020145457 0.129706
-0.10401989 -0.012119619 0.031454988 -0.023476036 -0.11530413 -0.030279147 -0.102310896 0.067696
0.01668473 -0.08478684 0.11202542 -0.06998799 0.06739991 -0.08993151 0.094047666 -0.004427881
-0.059320286 0.07110561 -0.09675375 -0.14129949 0.08179106 -0.0060395007 0.0018945603 -0.093364626
0.028252013 -0.060046908 -0.103327416 0.021789927 0.10437295 0.013743746 -0.026607746 -0.12990983
-0.016098477 0.0015355925 0.008553981 0.11340864 0.103555754 0.07728493 0.02496983 -0.038632672
0.07702945 0.10396594 0.035810467 -0.03855612 0.0044240262 0.068390265 0.14429842 -0.09320982
0.11274375 -0.035202302 0.084938474 -0.0046182238 -0.04495207 -0.021228552 -0.08019771 0.037158832
0.058372453 0.023748986 0.007094305 0.008310617 0.071372 -0.12730911 -0.068807505 0.106148474
0.00075944664 0.11517306 -0.1361827 0.12730815 0.0933978 -0.07687147 -0.13115071 -0.08536412
-0.04770289 -0.06795629 0.018131401 0.09448587 0.0935931 -0.12327174 -0.049168166 -0.04554127
0.1307199 0.024699675 0.090443686 0.003005306 0.043256868 -0.04484906 0.06166012 0.005540412
-0.07329673 0.052761663 -0.05442615 0.024628326 0.034800354 0.06435747 0.028962838 0.053892214
0.009469423 0.044960715 0.03067908 0.03316429 0.06015268 0.12835649 -0.123263456 0.051787674
-0.012103149 -0.025542203 0.09596676 -0.029575348 0.0994384 -0.0226474 -0.0061092423 0.007003725
0.13431652 0.003134001 0.008404599 -0.07167807 -0.09103301 0.05060067 0.062673904 -0.10645898
-0.008320759 0.043811142 0.04846671 0.013985099 -0.124026746 -0.05197311 -0.11887628 0.06381745
0.02835403 0.015756462 -0.066215694 0.13031666 0.090025246 0.12369952 -0.02093555 0.010937436
-0.03259797 0.041839432 0.05092078 0.108695015 -0.025786819 -0.07422789 -0.14134713 0.09700555
0.09971305 -0.051541105 0.05408722 0.0921891 -0.041861378 0.08525143 -0.086199135 -0.045641962
0.08025587 -0.050915577 -0.0600505 0.01566733 -0.04868912 0.0022221794 -0.031108785 0.029967029
-0.09518046 0.10341505 0.026607478 0.06450718 -0.04762923 -0.104998216 0.02895809 0.10829916
-0.04192506 -0.0679839 0.019777147 0.14167736 -0.011948244 -0.03506188 0.08248487 -0.009242873
-0.047205713 -0.0043051536 -0.07152153 -0.06099999 -0.05541134 -0.02992417 0.112433486 -0.028250732
-0.08750148 -0.04808541 0.030697038 -0.13778533 -0.13964067 -0.010969946 0.03133853 -0.021568453
0.06854054 0.06396664 -0.0431273 -0.018449005 -0.08441609 0.11916937 0.013831456 -0.07530083
-0.15428804 -0.011722254 0.015363427 -0.03483812 0.07460498 -0.14372331 -0.0436167 -0.007459794
-0.03123154 -0.010693127 -0.02144589 0.07913234 -0.10827049 0.037889235 -0.103123724 0.09412294
-0.0872353 -0.07469654 -0.061787974 -0.12478894 0.082642645 -0.012169509 0.054907504 -0.13986509
0.085801296 -0.13667665 0.09266707 -0.017324857 -0.05713076 0.009652631 -0.13775529 -0.05059424

lstm.bias_ih_l0 f4 [256]
00000000: 5433 9d3d 22eb 8a3c a335 cebd 100b d63d
00000010: 82cd 543c bd5c 3abc 37db 9b3d b223 90bd
00000020: b901 a93d 37a7 dbbd 291d 9e3b 3ae9 f13c
00000030: 0874 cc3b fb25 96bd ac80 f03d 38f3 c0bd
00000040: 734c a0bd a12b b2bd cd63 3cbc 801f 9b3d
00000050: a3cd 633d 14cf b23d e97a c63d 6980 da3c
00000060: 47d1 f93d 1afb 3dbd a85e bfbc 6e5b 103d
00000070: b2ac f3bb 8815 2a3d f0cf 6f3c 9184 ca3d
00000080: ceae b63d 50e3 ccbb 1600 153d 3a1b 9f3b
00000090: 9459 c13b 7d0f 903d 9d78 a33d 338d 8bbd
000000a0: 4040 cb3a b693 103c 6ca4 6f3d 501b 7ebd
000000b0: acf3 2e3b c55a a33c dd0d c3bd 27a1 b23d
000000c0: cef8 57bd 081e 213c 3c39 b03d 9c83 1cbd
000000d0: 2338 d4bd de90 643d ee45 ecbc 67a7 173e
000000e0: c3c4 513d b9c7 fc3d 1153 3abd 6005 e63c
000000f0: cfa0 083e 46c1 f0bc 151d 6fbd a23d dabd
00000100: 79cd e5bd 35f4 d7bd 72f3 15bd d101 173d
00000110: 7d49 c83d c6a5 81bd a515 603d e225 d13d
00000120: 9bb6 b63d 2793 f73c 0837 523d 3783 7d3d
00000130: f5a5 b4bd 3f2a ae3d a3f4 92bd 6fba 84bc
00000140: 0e7d 043e 7108 12bd 0aac b2bc e058 8d3d
00000150: f605 9abd 9482 8f3d f21f c43d 2160 0d3d
00000160: 2f6e 1a3b 81a1 b1bd c8e9 a2bb 7b8b 75bd
00000170: 287f ae3b 27e3 1fbc a06d 233d 5377 723d
00000180: b21b 36bc ecf2 84bd df60 dc3d c2b2 95bd
00000190: 0363 8ebd f587 223b 054c a1bc 5145 003e
000001a0: 3543 92bd f509 2c3d f120 143e 91f7 4b3c
000001b0: 6740 073e 5dff b43c 2d64 debd 83b5 173c
000001c0: 0440 773d 4c83 cbbd 538f a8bd ab24 de3d
000001d0: 755b be3d 2ca3 5abd e771 003e f867 7b3d
000001e0: 3d1f 423d 1063 8fbd 7052 89bd 7c84 1ebd
000001f0: 300c ac3c ad39 103b 4d3b a9bd 2b34 d9bb
00000200: 9441 423d a055 f8bd f17d ecbc 2315 083d
00000210: 0e41 dfbd e33e 12be 4e13 a73d 7c73 91bd
00000220: 8153 ba3d 55cd f0bd 66b6 91bd 1e33 0abc
00000230: 884e d63d ba82 353d 9a85 003d 331f 813d
00000240: 17f8 143d 4803 803d 6f10 3e3d 704b 5abd
00000250: 195c 773d 3f14 d7bd 0db2 06bd dd04 e43d
00000260: e7cb c4bc 8bb8 4bbc f89e 6fbb 1e11 a53d
00000270: 8a34 04be a6b5 c03d db44 43bd bd67 cbbb
00000280: 1309 743d eaaa e5bd 8a9b b2bd 6d2e d33d
00000290: 2083 08bd d9bc 0a3d 7cf7 1abd a91b b23d
000002a0: 7fed 233d cb47 0e3e eb20 283a 3443 c3bd
000002b0: a04e 17be 6bc7 97bc 4592 eabd 4fbe bfbc
000002c0: 4724 b93d 3435 abbc 1cb6 17be 9402 11be
000002d0: fc02 adbc 9591 f4bc f6ea 8a3c 3761 cabd
000002e0: 0fd5 c63d 23ee afbd 70c3 ae3d 3bf5 c03d
000002f0: aa2d d4bd 3590 043e 4fee 15be c4bc ac3d
00000300: 3a30 d5bb 0b44 45bd f368 dc3b 00ed 433d
00000310: 8c75 8abc a567 b73d c15f 163e 83cc 113e
00000320: f9c0 b1bd 1aac a4bb 2ff8 d43d f3c1 5f3b
00000330: 9282 7b3d ef9d 83bd 7e78 a5bd 529f 6dbd
00000340: cf54 823d e0c8 a1bd 15c3 78bc 6a1c 15bd
00000350: 3ff8 3bbd bece a7bd 6929 c0bc cf5e aa3d
00000360: 8e95 65bb 76d4 b9bc 147e 213d ebf4 2d3d
00000370: 2e18 973d a4e4 67bd c5b7 e7bd 159a ddbd
00000380: f118 65bc c030 e23d 958e b93d b7a8 febc
00000390: 6dbb 173d 25a0 b93d 96ae fb3d f0c4 043d
000003a0: 3231 d83d 9983 043b 287e 673d 3c22 7dbd
000003b0: 7c96 a2bd 9142 be3d 85fc 943d 453d 073c
000003c0: 4b75 56bd ccf7 fe3d 0bf1 57bd 6dd4 d2bc
000003d0: 7941 e8bc 45ec db3c 0f06 7ebd e947 ebbc
000003e0: e209 aabc c625 0e3e 2863 ff3c 0685 cb3b
000003f0: 8bf7 2fbd 1af8 b0bd e252 f93d b546 ce3c
0.07675806 0.016957823 -0.10068824 0.10451329 0.01298845 -0.01137465 0.07610171 -0.07038058
0.08252282 -0.10725253 0.0048252535 0.029530156 0.006239418 -0.07331463 0.11743292 -0.0942139
-0.078270815 -0.08699728 -0.011498404 0.075743675 0.055616032 0.08730903 0.09691412 0.026672559
0.121981196 -0.046382047 -0.023360565 0.035243444 -0.0074363584 0.04152444 0.0146369785 0.09888566
0.0892006 -0.0062526837 0.036377035 0.0048555406 0.005900571 0.07034204 0.079819895 -0.06814041
0.0015506819 0.0088242795 0.058506414 -0.062037766 0.0026695533 0.019940743 -0.095241286 0.087221436
-0.052727513 0.00983382 0.086046666 -0.03821145 -0.1036227 0.05580222 -0.028841939 0.14809953
0.051213037 0.123427816 -0.045489375 0.028078735 0.13342594 -0.029389035 -0.058377344 -0.10656287
-0.112208314 -0.10544626 -0.03660912 0.036866967 0.09779642 -0.06330447 0.05470814 0.10212304
0.08921548 0.030221535 0.051322013 0.061892714 -0.08820716 0.085041516 -0.07175567 -0.01620218
0.1293833 -0.03565258 -0.02181055 0.06901717 -0.07520668 0.07007328 0.095764056 0.034515504
0.002356421 -0.086733826 -0.0049717166 -0.059947472 0.005325217 -0.009758747 0.03989947 0.059195828
-0.0111150015 -0.06491646 0.10760664 -0.07309486 -0.06952479 0.0024800275 -0.01968957 0.12526442
-0.07141725 0.042001683 0.14465691 0.012449161 0.13208161 0.022094423 -0.10858951 0.009259584
0.060363784 -0.09937152 -0.08230462 0.108468376 0.09294788 -0.05337827 0.1254345 0.06137845
0.047393072 -0.070013165 -0.06705177 -0.038700566 0.021001905 0.0022007034 -0.08263264 -0.0066285334
0.04742582 -0.12125707 -0.028868647 0.033223283 -0.1090108 -0.14281802 0.08157979 -0.07102105
0.09097958 -0.11757914 -0.07114868 -0.008435039 0.104641974 0.044314124 0.031377412 0.06304779
0.03636941 0.06250626 0.04640239 -0.0532946 0.060390566 -0.105019085 -0.032884646 0.1113374
-0.02402301 -0.012434135 -0.0036563259 0.080599055 -0.12910667 0.09409647 -0.047673088 -0.006207435
0.059578966 -0.1121424 -0.08721073 0.103115894 -0.033328176 0.033871505 -0.037833676 0.08696682
0.040021416 0.13894574 0.00064135966 -0.09534302 -0.14776087 -0.018527707 -0.1145368 -0.023406176
0.090401225 -0.020899393 -0.14815563 -0.1416114 -0.021119587 -0.029854575 0.016957741 -0.098818235
0.097086065 -0.08590343 0.085333705 0.09421774 -0.10360272 0.12945636 -0.14641689 0.08434442
-0.006505993 -0.048160594 0.006726378 0.047833443 -0.016901754 0.089553155 0.14684965 0.14238171
-0.08679385 -0.005025399 0.103989 0.0034142702 0.06140382 -0.06426608 -0.08079623 -0.058013268
0.06363832 -0.07899642 -0.01518323 -0.03640405 -0.045891043 -0.0819373 -0.023457246 0.083188646
-0.0035031768 -0.022684317 0.039426878 0.0424699 0.07377659 -0.056614533 -0.11314348 -0.108204044
-0.013982997 0.110444546 0.090603985 -0.031086309 0.037043978 0.09063748 0.12289159 0.032414377
0.10556258 0.002022004 0.056516796 -0.061800227 -0.07938859 0.0929004 0.07274727 0.008254354
-0.052357953 0.12449607 -0.05272011 -0.025736058 -0.028351532 0.02684606 -0.062017497 -0.028720813
-0.020756666 0.13881597 0.031175211 0.006210926 -0.042960685 -0.086410716 0.12174012 0.0251802

lstm.bias_hh_l0 f4 [256]
00000000: 1225 723d 857d 0ebd 8d44 94bd 1cf5 1abc
00000010: 3265 22bd 71a2 133e 8ac5 50bd 0ab1 b23d
00000020: 329d b03d 0fd9 133d 3426 cb3d a71a acbd
00000030: 2f99 40bc e40b 78bc 5ab4 873d 13d9 873d
00000040: 7802 02bd 94a6 40bd 2567 63bd af7e de3d
00000050: 1e0a 90bd fb21 863c 958d df3d e392 a83d
00000060: b8e0 263d 54dd 9bbc 09ac 04bd 478a 8abd
00000070: 4e53 513d d0fe f63c b69a 4f3d 4957 b13d
00000080: 7ecd 76bd b15b c83d 4dac 043d f487 cd3c
00000090: 3452 c63b 3859 b03d 3f84 9f3d 7d5f f43d
000000a0: 6dbb b33c 36aa 26bb daef 29bd 8d2f aabd
000000b0: 0d67 e63d 80a3 a53d 37a2 923c bde5 9f3d
000000c0: ffb6 eb3b b6b7 55bc 1f02 043e 7b31 a6bd
000000d0: a3b7 a13d 4584 cf3d eb30 9cbc 941f 3d3d
000000e0: b7fb fa3d 9195 77bd 0eec 163e 9695 a93c
000000f0: 2700 903c 40ad 7b3d 6020 1fbd ca77 d53d
00000100: cf9c acbd 3e73 693d fcf7 dd3c 6530 963d
00000110: 25e9 893d b99f 623d f4a2 a0bd dd7b fa3d
00000120: 8100 ab3d d0b9 843c 6e93 88bd c728 84bd
00000130: e774 bd3c fa1e 583c 80d5 a43d b6b9 d33c
00000140: a433 4ebd 3dc8 46bd ca96 9fbd 19ec 7ebd
00000150: 8ac2 bbbd ec4a e53c 6461 d73d 42cd b7bd
00000160: 06d9 a43c d985 73bd 52c4 0f3e 7ceb 993d
00000170: e4c1 cebd e69e d5bc 94d8 ebbc fe6f 623c
00000180: 1c48 873d 9bdb 71bd b7ef f8bd fe81 c23d
00000190: 86e6 efbd d786 c6bc db4c 843d 0740 58bb
000001a0: ae57 4c3d cb82 e4bc c4c5 4a3b 64da 863d
000001b0: c0fb bfbd 8754 f73c f4f2 a03c 2958 a9bd
000001c0: 08d4 f93d bf9d fe3b eb1e afbd 4f28 923d
000001d0: 7173 bc3d 0942 923c 5320 2bbc ec82 153c
000001e0: e153 cc3d 7dfb 2e3c a144 753c 453a 97bd
000001f0: 1227 51bc 70aa d4bd 8eee 0f3d 03ca fe3d
00000200: 0018 983d b4e0 453d b10f 563b 967a a13d
00000210: cf87 7fbd 4355 73bd 79b4 d03a d71f 02be
00000220: 7422 e53c b997 edbd 17ac 103e 0538 a63d
00000230: 2cdc b13d 7203 4ebd b4ac f3bb c8b3 b4bd
00000240: 61b1 f6bd c46b c7bd 4695 0dbe 3050 0fbe
00000250: 0f76 06be 4164 44bd a58a 3f3c afdf 28bd
00000260: 5f86 d2bc 6910 2cbc 6db6 e1bc e1c2 2d3d
00000270: f5e2 043d 2a02 903c 2f81 4fbd b0b3 bdbd
00000280: b71c 0ebe 06a6 1d3d c97c c73c f0e4 e53c
00000290: 88f2 d23c 7599 f7bd 1d25 e9bd a3a4 8cbd
000002a0: 6717 ca3c 1f68 be3d c8a5 a33d 1ad8 8c3d
000002b0: 7fa0 503d bc37 c4bd b92e c5bd 4fcd 253d
000002c0: 40c7 08bd 71b3 ab3d f141 2e3d d12a 14bd
000002d0: a6bb 9e3c e556 8c3c f26f 0b3d 0365 dbbd
000002e0: 8da9 cdbd d255 5fbc aeb8 b73c c859 6f3b
000002f0: 1852 f2bc d854 df3d 7cbd da3c 7221 febd
00000300: 6641 2fbd ca2a 9dbd 0148 cebd c308 8f3c
00000310: 0b8d 9bbd a691 093e 7032 e5bc 9c16 c13d
00000320: 8664 753c f762 e43d b1b7 97bd aa24 0d3d
00000330: fd7a 2abd a7b4 81bd 4ad2 2abd 1d1a b6bd
00000340: 11a9 463d 7f20 973c 04d8 8cbd 6bf7 10bd
00000350: 9f46 633d 0539 103e 5097 d93d a0e6 d9bd
00000360: 645d d73d 3982 6abc ff61 893d 239c 003e
00000370: a8bc 103d 698a e23c d956 cd3d c4b3 e53b
00000380: d1fc 98bc 224f 96bd b9ce b53d a2e5 93bd
00000390: 7998 5ebd e5ca fb3d 09b1 653d 0c1c 37bd
000003a0: e6ea aa3d fa13 7bbd 6000 a73c f70b 33bc
000003b0: bc43 213d 8f46 8cbc 1ad2 c9bd 41e9 843d
000003c0: db1b 4dbd 2001 ed3d 54e7 9cbd 9e94 8abd
000003d0: 8bc2 d8bc 1a8a 37bc b528 dd3d 01cf aebd
000003e0: ff98 87bb 90b2 53bd e26d b0bc b338 72bd
000003f0: 4c0d c33d 940e c9bc 94cd 71bd a4ba f5bc
0.059117384 -0.034787674 -0.072396375 -0.009457853 -0.03964729 0.14417435 -0.050969638 0.08725174
0.086237326 0.036095675 0.09919396 -0.08403521 -0.011755272 -0.015139554 0.06626196 0.066332005
-0.031740636 -0.04703386 -0.05551829 0.10864007 -0.0703318 0.016373625 0.109156765 0.082311414
0.040741652 -0.019026436 -0.032390628 -0.067646556 0.051104836 0.030150801 0.050684653 0.086592264
-0.060254566 0.09783114 0.03239088 0.025089242 0.00605228 0.08610767 0.07788896 0.119322754
0.021939958 -0.0025431043 -0.041488506 -0.08309851 0.11250124 0.08087826 0.017899616 0.07807491
0.0071934457 -0.013044288 0.12891434 -0.081149064 0.07896354 0.1013265 -0.019066295 0.046172693
0.12255042 -0.060445372 0.14738485 0.020701211 0.017578198 0.06144452 -0.038849235 0.104232386
-0.08428346 0.05699467 0.027095787 0.07333449 0.06733922 0.055328105 -0.07843581 0.12230656
0.083497055 0.016201884 -0.06668745 -0.0645309 0.023127032 0.013190979 0.080485344 0.02584539
-0.050342217 -0.048530806 -0.077924326 -0.06223688 -0.09167965 0.027989827 0.10516623 -0.08974697
0.020123016 -0.05945382 0.14039734 0.07515618 -0.100955755 -0.026076745 -0.028789796 0.013820646
0.06605551 -0.059047323 -0.12155097 0.0949745 -0.11713891 -0.024234219 0.064599715 -0.0032997148
0.049888305 -0.027894398 0.0030940631 0.065846235 -0.093741894 0.030191673 0.0196471 -0.08268768
0.12198645 0.0077702696 -0.08550819 0.071365945 0.09201706 0.017853754 -0.010444718 0.0091254525
0.09976936 0.010680077 0.014969976 -0.07384161 -0.012765663 -0.10384071 0.035139613 0.124408744
0.07426453 0.048309997 0.0032663161 0.078847095 -0.062385377 -0.059407484 0.0015922926 -0.12707458
0.02797053 -0.116012044 0.14128147 0.08116154 0.086845726 -0.050296254 -0.0074363593 -0.08823353
-0.12045551 -0.097373515 -0.13826475 -0.13995433 -0.13130973 -0.047947172 0.01169077 -0.041228946
-0.025698839 -0.010501959 -0.027552808 0.04242218 0.032443006 0.017579157 -0.05066031 -0.09262788
-0.13878141 0.03848841 0.024351494 0.028063267 0.025750414 -0.120898165 -0.11384032 -0.068673395
0.024669362 0.09297203 0.07990605 0.068771556 0.05093431 -0.09580943 -0.09628052 0.040479
-0.033393145 0.08383835 0.042543355 -0.036173645 0.019376587 0.017131278 0.034042306 -0.10712626
-0.10042105 -0.013631301 0.02242693 0.003652202 -0.029580161 0.109048545 0.026701681 -0.12408723
-0.04278698 -0.07674177 -0.100723274 0.017460233 -0.07595261 0.13434467 -0.027978152 0.094281405
0.01497758 0.111516885 -0.07408083 0.034458794 -0.041621197 -0.06333285 -0.041704454 -0.088916995
0.048501078 0.018448113 -0.06877139 -0.035392206 0.05548727 0.14084251 0.10624564 -0.10639691
0.1051586 -0.014313274 0.067081444 0.12559561 0.035336167 0.02765389 0.100263305 0.007009955
-0.01867524 -0.07339312 0.0887732 -0.07221533 -0.054344628 0.122945584 0.056077037 -0.044704482
0.083455846 -0.061298348 0.020385921 -0.010928146 0.039371237 -0.017123489 -0.09854527 0.06489802
-0.050075393 0.1157248 -0.0766131 -0.06766628 -0.026459953 -0.01120236 0.1079878 -0.085355766
-0.0041381116 -0.051683962 -0.021536771 -0.059136104 0.095240206 -0.024543084 -0.059033945 -0.029996224

fc.weight f4 [8, 64]
00000000: f084 6bbd a4b7 513d badc aabd 9b54 5d3d
00000010: c607 5b3d 0dab 76bd a23a ea3c 9a72 c9bd
00000020: 820d 4cbd 2d06 d2bd e3c0 053e 1fdb 8b3d
00000030: a2a8 e4bc d42a 793d 35d6 c43d f43d d83b
00000040: f25e d6bd c2b5 003c 8eac 943d 150e dd3d
00000050: bd0f 6fbd 1304 693d 0b8b 203d f185 043e
00000060: 4a30 323d 7657 053c c1d8 0e3e 5305 b2bd
00000070: f6f6 07be a267 afbd e8a9 4cbd 65fc 07bc
00000080: 406b 44bd 0786 febd 1332 9abd 14a0 7b3c
00000090: 0e71 f4bc 5561 353c 4066 eabb d00a 43bd
000000a0: 730a d13d d7fd bd3d 50ed 71bd 6613 12be
000000b0: 12ee 18bd 99f3 f2bc a36a 04be 183f 863d
000000c0: a848 993c 68b1 21bd b334 13be c520 08bd
000000d0: c1ec b13b 4b06 02bd 5a5f f3b9 a3ad babd
000000e0: 1467 aabd c445 0cbd 61c7 3a3d fca4 113e
000000f0: 0d6d 673d 4548 92bd dcf2 26bd 7d70 8c3a
00000100: 44e1 9e3b d40b 8dbd d5b5 2fbd ce3b 10bd
00000110: 7e42 113e dab5 023d d189 cebd 1b45 b13d
00000120: 5652 ee3c 7449 053e e027 593d db57 07be
00000130: f77a 0cbc cf93 8cbc 0d5d 863c 1ad1 3b3c
00000140: 8983 f3bc 9958 683d 751e ac3d 579e 8a3d
00000150: c5c0 b3bd 0028 e43c 46cb 95bd 5b4e 85bd
00000160: 4319 b23c d0f6 53bd b27c 4dbd 5b4a f4bd
00000170: 84ad fa3d 4caa 0cbe c078 7ebd a050 4a3d
00000180: 28cf 623c 1477 ef3a 46f9 bdbb a9e1 0fbe
00000190: 700a 8c3c a237 d43d 296a b1bd 8047 c43d
000001a0: 84e2 9cbc e49f 0abc 879f db3c d6b6 6f3c
000001b0: 7191 303c 41a1 ebbc c34c fa3d 080e 623d
000001c0: 1d64 9a3b e681 b2bd 00cb cc3d f2d5 8bbd
000001d0: 2fd9 bcbd a23a e23c 4797 93bd 4542 60bd
000001e0: e51e b33d 897f c9bd 4362 ebbd 712d 613d
000001f0: 13bd bc3d 1b1a eabc 84fd 013e 364a 063e
00000200: cb37 61bd c855 78bd 9d4b 423d 8fb1 1fbe
00000210: abe7 2a3d 05c9 b8bc 4ff1 73bb 8f5e f1bc
00000220: 2d7f 1cbe fa63 1f3b f672 17be 0bd1 a03d
00000230: 288e f9bd c2a0 ae3d 98e2 afbc 22f5 adbd
00000240: ecba c33d c867 123d acba 46bd 6f84 033e
00000250: 28f3 90bd 38cc b13d 5ca9 923c 1c35 2abd
00000260: fca0 303d 2482 823c 0e8d 81bb e13b f93c
00000270: 162d 0b3d f59e 05be f54e adbd cafa 1e3d
00000280: d33b e23d d1cc afbd d5fb cb3b 4532 bdbd
00000290: 96ba 90bd 7b19 ec3d fafd 89bd 096f b6bd
000002a0: 5b89 0bbd 0ba9 20be 47f4 f73c c7b0 e33c
000002b0: 58e3 e7bc 206e 4dbd 9f6e b63d 2777 18be
000002c0: a36c 23bd eaec 05be d0b7 8b3d 20c5 033e
000002d0: 05cb f8bc 7b94 ca3d 5c29 78bc f837 4e3c
000002e0: 854b 75bd 1bdd 9e3d 8776 19bd 88b7 3839
000002f0: d1a1 aabd d169 ac3d 4c3e 1e3d 990e b93d
00000300: b466 983d 296b 023e 92e8 acbc 8a1a 88bd
00000310: 784e 0d3c 6e68 4abd 590a 3f3c 07e5 ae3d
00000320: 3e18 a83a 5a24 47bc 3a2e 0bbd e46a 713d
00000330: fec0 983d 93d2 1a3e 8b78 00be 7d26 6a3d
00000340: 8c59 2a3d c611 2e3c 636a 143e ce68 f53d
00000350: a21c d43d 83f5 d23d f839 1c3c b640 aabd
00000360: e224 0c3d 6d4c 0f3e bf64 223d 6d13 ac3b
00000370: 09cd e83d 6bf5 073d fe72 de3d 1f79 0f3d
00000380: ce09 abbd 8736 abbd 6094 94bd 4ab3 713d
00000390: 2508 5f3d f1cc 9c3c 27b1 1c3e 5735 1ebe
000003a0: 5f03 253c c941 0cbe b9cd 7ebd bdbe 943d
000003b0: 0267 ec3d 80ee a63d 4b87 0f3e 7329 0c3d
000003c0: d9dd e8bc 1c1d bebd 3d6a 1fbc 2d02 d93c
000003d0: d5ce 4a3d 7e9b 043d faff 963d 9a61 9dbd
000003e0: 7011 723d 2427 b23c e6dd d0bd 3616 aa3d
000003f0: 742c 4dbb 1ed4 cd3c 40e9 09bd 1466 21bd
-0.057499826 0.051200524 -0.083428815 0.054035764 0.05347421 -0.06022172 0.028592411 -0.09836312
-0.04981757 -0.10255084 0.13061862 0.068289034 -0.027912442 0.06083186 0.09611169 0.0065991823
-0.10467328 0.007855834 0.07259475 0.107937016 -0.05836462 0.05688865 0.0391951 0.1294172
0.043503083 0.008138528 0.13949873 -0.08692422 -0.13277802 -0.08564688 -0.049966723 -0.008299922
-0.047953844 -0.124279074 -0.07529082 0.01535799 -0.029839065 0.011070569 -0.0071533024 -0.047617733
0.10207071 0.09276932 -0.05906421 -0.14265212 -0.037336417 -0.029657172 -0.12931304 0.06555003
0.018711403 -0.03947583 -0.14375572 -0.033234376 0.0054298346 -0.031744283 -0.00046419614 -0.0911515
-0.08320442 -0.03424622 0.0456003 0.14223093 0.056500483 -0.071426906 -0.040758952 0.0010714676
0.004848631 -0.06887022 -0.042898018 -0.035213284 0.14185521 0.03191171 -0.1008488 0.08655759
0.029091995 0.13016301 0.053016543 -0.13217108 -0.008574239 -0.017160324 0.016401792 0.011463428
-0.029725807 0.05672512 0.08404247 0.06768482 -0.08777002 0.027851105 -0.07314162 -0.06509086
0.021740561 -0.05174905 -0.050167747 -0.11928245 0.12240127 -0.13736838 -0.062126875 0.049393296
0.013843335 0.0018269741 -0.005797538 -0.14050926 0.01709482 0.103621736 -0.086628266 0.0958395
-0.01915098 -0.008460972 0.026809467 0.014630994 0.010776863 -0.028763415 0.122216724 0.055189162
0.0047116415 -0.087161824 0.09999657 -0.06827916 -0.09221112 0.027615849 -0.07206588 -0.0547507
0.08746127 -0.098387785 -0.11493351 0.054974977 0.092157505 -0.028576901 0.12694365 0.13114247
-0.05498485 -0.060628682 0.04743539 -0.15595077 0.041724842 -0.022556791 -0.0037222689 -0.029464034
-0.15282889 0.0024321065 -0.14789948 0.07852372 -0.12185317 0.08526756 -0.021470353 -0.08494021
0.09557137 0.035743505 -0.048517868 0.12843488 -0.070776284 0.0868153 0.017903022 -0.041554555
0.043122277 0.015931197 -0.0039535826 0.03042406 0.033978544 -0.13048919 -0.084623255 0.03881339
0.11046567 -0.085839875 0.006225089 -0.09238104 -0.070668384 0.115282975 -0.06737895 -0.08907897
-0.03406654 -0.15689485 0.030267848 0.027794255 -0.028306648 -0.05015385 0.08907818 -0.14889203
-0.039898526 -0.13078657 0.06822169 0.12868166 -0.030370245 0.09891602 -0.01514658 0.012586586
-0.059886474 0.07757016 -0.037466552 0.00017615978 -0.08331645 0.084186204 0.03863363 0.090359874
0.07441464 0.12736191 -0.021106992 -0.06645687 0.008624665 -0.049416 0.011660182 0.08539777
0.0012824608 -0.012154663 -0.033979632 0.05893983 0.07458685 0.1511939 -0.12545983 0.05716561
0.041589305 0.010624355 0.14493708 0.119828805 0.10357024 0.10300734 0.009535305 -0.08313124
0.03421486 0.13993998 0.03964686 0.005251339 0.11367232 0.033193033 0.10861777 0.03502762
-0.083514795 -0.0836001 -0.07254863 0.059008874 0.054451127 0.019140692 0.15301953 -0.15450035
0.0100716045 -0.1369697 -0.06220791 0.07262943 0.11543085 0.08150959 0.14016454 0.034219217
-0.028426098 -0.09282896 -0.009729919 0.026490295 0.049513657 0.03237485 0.073730424 -0.07684632
0.05909866 0.02174718 -0.10198574 0.08305018 -0.0031307014 0.02512556 -0.03366971 -0.03940399

fc.bias f4 [8]
00000000: d13c 093d c099 d23c eb53 7e3d 2080 1bbe
00000010: 306a b7bb cfad 673d 7bc8 3ebd 7ab7 1e3d
0.033505265 0.02570808 0.06209175 -0.15185595 -0.0055973753 0.05656224 -0.04657791 0.038749196
