data/processed/ml_engine/model.pt (torch, 650039 bytes, 7 tensors)

embedding.weight f4 [2000, 64]
0	0x00000000	0.0
1	0x00000000	0.0
2	0x00000000	0.0
3	0x00000000	0.0
4	0x00000000	0.0
5	0x00000000	0.0
6	0x00000000	0.0
7	0x00000000	0.0
8	0x00000000	0.0
9	0x00000000	0.0
10	0x00000000	0.0
11	0x00000000	0.0
12	0x00000000	0.0
13	0x00000000	0.0
14	0x00000000	0.0
15	0x00000000	0.0
16	0x00000000	0.0
17	0x00000000	0.0
18	0x00000000	0.0
19	0x00000000	0.0
20	0x00000000	0.0
21	0x00000000	0.0
22	0x00000000	0.0
23	0x00000000	0.0
24	0x00000000	0.0
25	0x00000000	0.0
26	0x00000000	0.0
27	0x00000000	0.0
28	0x00000000	0.0
29	0x00000000	0.0
30	0x00000000	0.0
31	0x00000000	0.0
32	0x00000000	0.0
33	0x00000000	0.0
34	0x00000000	0.0
35	0x00000000	0.0
36	0x00000000	0.0
37	0x00000000	0.0
38	0x00000000	0.0
39	0x00000000	0.0
40	0x00000000	0.0
41	0x00000000	0.0
42	0x00000000	0.0
43	0x00000000	0.0
44	0x00000000	0.0
45	0x00000000	0.0
46	0x00000000	0.0
47	0x00000000	0.0
48	0x00000000	0.0
49	0x00000000	0.0
50	0x00000000	0.0
51	0x00000000	0.0
52	0x00000000	0.0
53	0x00000000	0.0
54	0x00000000	0.0
55	0x00000000	0.0
56	0x00000000	0.0
57	0x00000000	0.0
58	0x00000000	0.0
59	0x00000000	0.0
60	0x00000000	0.0
61	0x00000000	0.0
62	0x00000000	0.0
63	0x00000000	0.0
64	0xbf8ef2e2	-1.1167872
65	0x3f4fbf37	0.81151146
66	0xbe4b23d1	-0.19837882
67	0xbf726f13	-0.94700736
68	0x3ebf28d1	0.37335828
69	0x3f5593d9	0.8342872
70	0x3e111078	0.14166439
71	0xbf8d3a1b	-1.1033357
72	0xbe8f7e93	-0.28026256
73	0x3f2a0450	0.6641283
74	0x3f40fab5	0.7538255
75	0xbef8057f	-0.48441693
76	0x3eccaef3	0.39977226
77	0xbf53c0af	-0.82715887
78	0x400fc905	2.2466443
79	0xbfc655ef	-1.5494975
80	0x3f0fe5b2	0.5620986
81	0x3f08d6fb	0.53453034
82	0x3ff454a8	1.9088335
83	0xbf323e2d	-0.6962612
84	0x3fffb6f9	1.9977714
85	0xbf5ca698	-0.861917
86	0x3edcd095	0.43127885
87	0x3cd454d3	0.025919354
88	0xbea3033e	-0.3183841
89	0xbfa1142d	-1.2584282
90	0x3fb07b63	1.3787655
91	0xbf05a01d	-0.5219744
92	0xbf5de20c	-0.86673045
93	0x3f4b4673	0.7940437
94	0x3eed07f0	0.46295118
95	0x3de26b0c	0.11055574
96	0x3e822097	0.2541549
97	0xbff85eeb	-1.9403967
98	0x3f1095e8	0.5647874
99	0x3f618dd7	0.88107055
100	0x3d818e17	0.063259296
101	0x3fd4173c	1.656959
102	0xbfe3960b	-1.7780164
103	0xc0139274	-2.3058138
104	0xbebd1c26	-0.36935538
105	0x3dd26fb1	0.1027521
106	0x3f8295bb	1.0201944
107	0xbddbc46a	-0.107308224
108	0x3e363674	0.1779421
109	0xbf6939ab	-0.9110362
110	0x3ed8aa72	0.4231754
111	0xbf1ebbca	-0.62005293
112	0x3f4011bb	0.75027055
113	0xbfaf970e	-1.3717973
114	0xbf3f0711	-0.7462016
115	0xbd180645	-0.037115354
116	0xbfbfda4a	-1.4988492
117	0x3f2231c2	0.63357174
118	0xbe915eab	-0.28392538
119	0xbf5f1e97	-0.8715605
120	0x3f928218	1.1445951
121	0x400e42b2	2.2228208
122	0x3efab3e7	0.4896538
123	0xbcf7dc10	-0.030256301
124	0xbf8f5837	-1.1198796
125	0xbd2bad72	-0.041913457
126	0x3ebbd296	0.36684102
127	0x3ee177ee	0.44036812
128	0xbf1424b5	-0.5786851
129	0xbf4ddac9	-0.80411965
130	0xbf5052e6	-0.8137649
131	0xc0231a35	-2.5484746
132	0xbec18f3d	-0.37804595
133	0x3fd11f76	1.6337726
134	0x3f68f8a0	0.9100437
135	0xbf159697	-0.58432907
136	0x3f5f03aa	0.87114966
137	0x3efff583	0.49991998
138	0x400b54ba	2.1770463
139	0xbf1c0947	-0.60951656
140	0x3f9f1d7c	1.2430873
141	0x3e2d8f94	0.16949302
142	0xbf4e9a00	-0.80703735
143	0xbf20fce6	-0.6288589
144	0xbd5560ff	-0.052094456
145	0x3f2f7f1a	0.68553317
146	0x3e485900	0.19565201
147	0xbdb3d0b7	-0.087800436
148	0xbf12c22f	-0.5732755
149	0xbe6627dd	-0.22476144
150	0x3fc2e4b7	1.5226048
151	0x3e80a186	0.25123233
152	0xbfa9f340	-1.3277359
153	0x3f7611bc	0.9612081
154	0x3f83b5e8	1.0289888
155	0x3f8213f4	1.0162339
156	0xbd7bc19f	-0.06146395
157	0xbf26d140	-0.6516304
158	0x3e018f97	0.12652431
159	0x3feb81d2	1.8398993
160	0x3f7a28b0	0.97718334
161	0xbf0b9087	-0.54517406
162	0xbf2782f7	-0.6543421
163	0xc005a0eb	-2.0879467
164	0x3e91b810	0.2846074
165	0xbf445145	-0.7668651
166	0x3ecb9924	0.39765275
167	0xbfb2ec24	-1.3978314
168	0x3fff7de5	1.9960295
169	0xbe550c98	-0.20805585
170	0xbdaa66d7	-0.083203964
171	0xbd784965	-0.06061687
172	0x40020027	2.0312593
173	0x3f3c1a83	0.73477954
174	0x3fe82ebc	1.8139262
175	0xbea7cbb1	-0.32772592
176	0x3feda7f9	1.8566886
177	0x3f19e8da	0.6012093
178	0x4049ef3a	3.1552262
179	0xbf298a36	-0.6622652
180	0x3b922754	0.0044602547
181	0x3e7341dd	0.23755594
182	0xbf1deb56	-0.6168722
183	0x3f1ee875	0.6207345
184	0x3f0c94e6	0.549147
185	0x3d90b061	0.070648916
186	0xbfc0d21e	-1.5064123
187	0x3fe1236f	1.7588938
188	0x3f223565	0.63362724
189	0x3ac8c988	0.001531885
190	0xc00912e8	-2.141779
191	0xbfc88a97	-1.5667294
192	0xbe8eed08	-0.27915215
193	0xbf7b7c62	-0.9823667
194	0x3ed4d59e	0.41569227
195	0xbdbb8092	-0.09155382
196	0x3ec202ac	0.37892663
197	0xbf679aed	-0.90470773
198	0x3f9b88a9	1.215108
199	0xbe5c0638	-0.21486747
200	0x3ff098a7	1.8796586
201	0xbe237c39	-0.15965356
202	0x3d838faa	0.06423886
203	0x3f69b8de	0.9129771
204	0xbea2a7b3	-0.3176857
205	0x3f9fc9da	1.2483475
206	0x40276e08	2.6160908
207	0x3fbc06ea	1.468961
208	0xbf0208aa	-0.5079447
209	0x3ef0b5af	0.47013614
210	0x3e912337	0.2834718
211	0x3cc8c91a	0.024509955
212	0x3fe9f511	1.8277913
213	0x3ee47299	0.4461868
214	0xbda9411d	-0.082643725
215	0xbe0756d2	-0.13216713
216	0x3f90bbc4	1.1307302
217	0xbfef8b9a	-1.8714478
218	0xc00802ce	-2.1251712
219	0x3f0432da	0.51640093
220	0xbfa4ddcc	-1.2880187
221	0xbe6679b3	-0.22507362
222	0xbedd6887	-0.4324381
223	0x3f4ce8ef	0.8004293
224	0x402fd16b	2.7471569
225	0x3e8fccfe	0.28086084
226	0x3f7ac699	0.97959286
227	0xbf48e6ed	-0.78477365
228	0x3e51e6fe	0.20498273
229	0xbf9e1cfc	-1.2352595
230	0xbee690c0	-0.4503231
231	0xbf337eea	-0.7011553
232	0x3f4948ff	0.7862701
233	0x3ffc2457	1.969859
234	0xbf28ab60	-0.658865
235	0x3f90d389	1.1314555
236	0x3e165883	0.14682202
237	0x3ec91137	0.39270946
238	0x3f4aa030	0.79150677
239	0xbd7cb25b	-0.06169353
240	0xbe81e81c	-0.25372398
241	0xbfc6e82b	-1.5539602
242	0x3f3db74b	0.7410781
243	0xbf9e8a95	-1.2386042
244	0x3f4af076	0.79273164
245	0x3f044e02	0.5168153
246	0x3fbb1475	1.4615618
247	0x3f35f037	0.71069664
248	0x3f5e2442	0.86774075
249	0xbfba4c23	-1.4554485
250	0x3e5cbe13	0.21556883
251	0x3fce8233	1.6133484
252	0x3f9def75	1.2338701
253	0xbf4e4c48	-0.80585146
254	0x3f820e8f	1.0160693
255	0x3fc1dee0	1.5146141

lstm.weight_ih_l0 f4 [256, 64]
0	0xbd8a86f3	-0.06764021
1	0xbde1a455	-0.11017672
2	0x3d7a0a06	0.061044715
3	0x3d2620cb	0.040558618
4	0x3a531bea	0.0008053171
5	0xbc5e33d4	-0.0135621615
6	0xbdd3d4cc	-0.10343322
7	0xbc8c3d7a	-0.017119158
8	0xbdb65d34	-0.08904496
9	0x3c51aba9	0.012797275
10	0xbd045f31	-0.032317344
11	0xbd28ed24	-0.04124178
12	0x3d3685f8	0.044561356
13	0x3d7e2738	0.06204912
14	0xbc161028	-0.009159125
15	0xbda10d44	-0.07863858
16	0xbde58899	-0.112076946
17	0x3dd5927c	0.1042833
18	0x3d80bf0e	0.06286441
19	0x3c0ceb55	0.008601029
20	0x3df5f4e9	0.120096035
21	0xbd917ec6	-0.07104258
22	0xbdc4b09a	-0.096039966
23	0x3d783260	0.060594916
24	0x3bd4dc24	0.0064959694
25	0xbc018662	-0.0079055745
26	0xbd0a0793	-0.03369863
27	0xbd98ecf0	-0.07467067
28	0xbdc30ee3	-0.09524324
29	0x3d9dd851	0.07707275
30	0xbd96d363	-0.073645376
31	0xbdf65427	-0.120277695
32	0x3d982e22	0.07430674
33	0x3d4c9a48	0.04995182
34	0xbcaa6894	-0.02080182
35	0x3d966e45	0.07345251
36	0x3d0a86d0	0.033819973
37	0x3dd4e57d	0.10395334
38	0xbbe72910	-0.0070544556
39	0xbc61fc28	-0.013793029
40	0xbdd87866	-0.10569839
41	0x3dc7146c	0.09720692
42	0x3dcff70d	0.10154543
43	0x3d76d644	0.060262933
44	0x3d448eff	0.047987934
45	0x3ddc1ea3	0.10748031
46	0xbc966e4c	-0.01836314
47	0x3d73b1e3	0.059495818
48	0x3bb65e7a	0.0055654617
49	0x3d0f1901	0.034935955
50	0x3dcee345	0.10101942
51	0xbd907531	-0.070536025
52	0xbdeac12b	-0.11462625
53	0x3d8e5293	0.069493435
54	0x3db77e5f	0.0895965
55	0xbd8e1755	-0.06938044
56	0xbdb7f99e	-0.089831576
57	0xbcba2a08	-0.02272512
58	0xbc79454d	-0.0152142765
59	0x3d61b92a	0.055108227
60	0x3c0bd908	0.008535631
61	0x3d1164e2	0.0354966
62	0xbdeea2e1	-0.116521604
63	0xbdcf61f7	-0.10126107
64	0xbd9aad15	-0.07552544
65	0xbd1a3991	-0.037652556
66	0xbd9bb316	-0.07602517
67	0x3b8a32d6	0.004217486
68	0xbda3c5c1	-0.07996703
69	0x3cc62e6b	0.024192056
70	0x3d8569c2	0.06514312
71	0xbd347645	-0.044058103
72	0xbd924f43	-0.07144024
73	0xbdcac2e9	-0.099004574
74	0x3dd0644f	0.10175382
75	0x3d667f64	0.056273833
76	0xbd4eaf97	-0.050460424
77	0xbdf0a1a6	-0.11749582
78	0xbddeecac	-0.10884985
79	0x3d76b84d	0.060234357
80	0xbdd25954	-0.10270944
81	0xbd0651b7	-0.032792773
82	0x3d8d1949	0.068895884
83	0x3cc47fd6	0.023986738
84	0x3d0017f7	0.031272855
85	0xbd97db9e	-0.074149355
86	0xbd958b6e	-0.07301985
87	0xbd9b3d2e	-0.075800285
88	0x3cbc1c44	0.022962697
89	0x3da1f84b	0.07908686
90	0x3d12fee6	0.03588762
91	0xbda3303a	-0.07968183
92	0x3d40960a	0.04701809
93	0xbc560868	-0.013063528
94	0x3dfc7b9f	0.12328266
95	0xbd829a9c	-0.06377146
96	0xbdda1b69	-0.10649759
97	0x3db62d42	0.08895351
98	0x3d8ce4c7	0.06879573
99	0x3d873019	0.06600971
100	0xbddc43b4	-0.10755101
101	0xbd2de25e	-0.04245221
102	0xbd81d98c	-0.06340322
103	0x3c111811	0.008855836
104	0x3d72db56	0.059291206
105	0x3da54346	0.08069472
106	0xbc96ded2	-0.018416796
107	0x3a9eb404	0.0012108092
108	0x3da3e926	0.08003454
109	0xbdfc5e78	-0.12322706
110	0xbdc38fea	-0.09548934
111	0xbae8270a	-0.001771183
112	0xbdac01e0	-0.08398795
113	0xbcf784f2	-0.03021476
114	0x3d0ff8bc	0.03514932
115	0xbe050f88	-0.12994206
116	0xbd925b30	-0.07146299
117	0x3cd60f22	0.026130263
118	0xbde90311	-0.11377538
119	0x3dd09625	0.10184888
120	0x3dbe2350	0.09284079
121	0x3dc89b3c	0.097952336
122	0x3ca14040	0.019683957
123	0xbdc879cb	-0.09788855
124	0x3c33e54c	0.010979962
125	0x3dc1fdbf	0.09472226
126	0xbcaf075e	-0.021365818
127	0x3d0d71f6	0.03453251
128	0x3bcfa102	0.0063363323
129	0xbdb1ddb9	-0.08684868
130	0xbd07749d	-0.033070195
131	0xbdfe721a	-0.12424107
132	0x3db803a3	0.08985069
133	0x3e0305bb	0.12795155
134	0xbdf1dfb0	-0.11810243
135	0x3e0953b7	0.13410841
136	0x3d76f910	0.06029612
137	0xbd89f45f	-0.06736063
138	0x3c90aaef	0.017659632
139	0xbd0a5d1b	-0.0337802
140	0x3df11b2c	0.11772761
141	0x3d92ca52	0.07167496
142	0xbd0b09c6	-0.033944868
143	0xbde2cbd3	-0.11074033
144	0x3de98052	0.11401428
145	0xbded0d5f	-0.11574816
146	0x3d80c519	0.062875934
147	0xbdb17c09	-0.08666236
148	0x3c3ceee2	0.0115315635
149	0xbdc8208c	-0.09771833
150	0xbd320446	-0.043461107
151	0xbd5178b0	-0.051140487
152	0xbd6625b2	-0.056188293
153	0xbdd2d232	-0.10293998
154	0xbd9c07a1	-0.076186426
155	0x3db8eecd	0.09029923
156	0xbd99762d	-0.07493243
157	0x3d143441	0.036182646
158	0xbdce4963	-0.10072591
159	0xbc2f06ec	-0.010682803
160	0xbdf78420	-0.12085748
161	0xbcc4bd81	-0.024016144
162	0x3d90850e	0.07056628
163	0x3df705fe	0.1206169
164	0xbdaf8e9a	-0.08572121
165	0x3d915790	0.07096779
166	0xbdc84415	-0.097786106
167	0x3d42689b	0.04746304
168	0xbdd90acf	-0.10597765
169	0xbde067f1	-0.10957325
170	0xbdbaf2af	-0.091283195
171	0x3c1ea38c	0.009682547
172	0x3b982360	0.004642889
173	0x3d5ce68f	0.053930815
174	0xbd9e434e	-0.07727681
175	0x3d50670c	0.050879523
176	0xbdc8a32b	-0.09796747
177	0x3c2e5384	0.010640029
178	0xbd14cfe4	-0.036331072
179	0x3dcb47f0	0.0992583
180	0x3c570b28	0.013125218
181	0xbdc2c8c7	-0.095109515
182	0xbda6aaca	-0.08138044
183	0xbdc0e2fe	-0.09418295
184	0x3d006b47	0.031352308
185	0x3d04022c	0.032228634
186	0x3e02c5ed	0.12770815
187	0x3d47d40c	0.048786208
188	0xbca1c33c	-0.019746415
189	0xbe03d3ff	-0.12873839
190	0xbccb506b	-0.02481862
191	0xbdceb5a5	-0.1009324
192	0xbdaf5bd7	-0.08562439
193	0x3d7f7e0b	0.062376063
194	0x3b9d8745	0.004807385
195	0xbd77c02b	-0.060486
196	0x3d8384d9	0.06421823
197	0x3dd79951	0.1052729
198	0x3c3db71e	0.011579303
199	0x3d4a578a	0.04939989
200	0x3d92e172	0.071719065
201	0x3dbcb91b	0.092149936
202	0x3dc3d98c	0.09562978
203	0x3d79aace	0.060953908
204	0xbdca285d	-0.0987098
205	0xbdfe587b	-0.1241922
206	0xbde5455d	-0.111948706
207	0xbced83c2	-0.028993491
208	0xbd861286	-0.06546502
209	0x3ca5251b	0.020159295
210	0x3dbfa07e	0.09356783
211	0x3d1dc084	0.038513675
212	0xbd6bbe41	-0.057554487
213	0x3bebf820	0.0072012097
214	0x3d6ce245	0.057832975
215	0x3dbe1548	0.09281403
216	0x3d90d75b	0.07072326
217	0xbdabcd70	-0.083887935
218	0x3da1e7dc	0.07905552
219	0xba336a02	-0.00068441045
220	0xbd844096	-0.06457631
221	0x3dd36d4d	0.10323582
222	0xbdf6ccb3	-0.12050762
223	0xbdf4dfee	-0.11956774
224	0xbdfa88ea	-0.122331455
225	0x3d12f34b	0.035876554
226	0xbc4d3f7b	-0.012527342
227	0xbd1207a2	-0.03565181
228	0x3d7d1c58	0.06179461
229	0x3d478367	0.0487093
230	0x3c15c45f	0.009141057
231	0xbdba5818	-0.09098834
232	0x3d11a63a	0.035558917
233	0xbdb4175c	-0.08793518
234	0x3cb3cc50	0.02194801
235	0xbd8e50c8	-0.069490016
236	0xbdc3f15b	-0.09567519
237	0xbdf51617	-0.11967104
238	0x3d66d473	0.05635495
239	0x3d56e3ff	0.052463528
240	0xbdaa611f	-0.08319306
241	0xbe0d6848	-0.13809311
242	0xbd2bd2f7	-0.04194924
243	0x3d532459	0.051548336
244	0x3dfa339e	0.122168764
245	0xbd132eea	-0.035933413
246	0x3df7f942	0.12108089
247	0xbd461f3c	-0.04836963
248	0xbdf2b648	-0.11851174
249	0x3d6bb9f6	0.057550393
250	0x3dcb3f57	0.099241905
251	0x3d08c22f	0.033388313
252	0xbcd976e6	-0.026545953
253	0x3c01d332	0.007923888
254	0xba484d02	-0.00076408696
255	0x3c2e14ff	0.010625123

lstm.weight_hh_l0 f4 [256, 64]
0	0xbd6d21e7	-0.05789366
1	0x3dcb9a22	0.09941508
2	0x3cea78b9	0.028622018
3	0x3e027438	0.12739646
4	0x3bf4a63c	0.0074661057
5	0xbde6e0ee	-0.11273371
6	0x3c7c1714	0.015386362
7	0x3cfa039c	0.0305193
8	0xbbb6df28	-0.0055808015
9	0xbc1174e3	-0.008877966
10	0x3d6ad612	0.05733306
11	0x3c3e374e	0.011609865
12	0xbd62e945	-0.055398244
13	0x3be6d238	0.007044103
14	0xbdd7d0f9	-0.10537905
15	0x3ce2b5b0	0.027674526
16	0xbd8613c5	-0.065467395
17	0x3c0862b9	0.008324319
18	0x3dcd4270	0.100224376
19	0xbde3009e	-0.11084102
20	0x3d182806	0.037147544
21	0xbd91bb4c	-0.07115802
22	0x3d18eb89	0.037334
23	0x3de2cce5	0.11074237
24	0xbdad4558	-0.08460492
25	0x3ba8f623	0.005156295
26	0x3d007663	0.031362902
27	0xbd292e90	-0.04130417
28	0xbdc6d9c0	-0.09709501
29	0xbd46a33a	-0.04849551
30	0xbdaa557a	-0.083170846
31	0x3db1a0f4	0.086732775
32	0x3d0b180d	0.033958483
33	0xbd8c9a7f	-0.06865405
34	0x3dd36f48	0.103239596
35	0xbdb26576	-0.087107584
36	0x3db0d0f0	0.08633602
37	0xbd94ad58	-0.07259625
38	0x3de2e61e	0.110790476
39	0xbcb75f6d	-0.02238437
40	0xbd9e5a51	-0.0773207
41	0x3d5b61b9	0.053559992
42	0xbde652ea	-0.11246283
43	0xbdfc2622	-0.12311961
44	0x3dca1ebd	0.09869144
45	0x3c37e6a6	0.0112244245
46	0x3c9445b1	0.018099638
47	0xbde4064f	-0.11134016
48	0x3c38fd18	0.011290811
49	0xbd9c520e	-0.07632838
50	0xbdadb538	-0.0848183
51	0x3d21a916	0.039467894
52	0x3db02788	0.0860129
53	0x3d001912	0.03127391
54	0xbc60058b	-0.013673197
55	0xbde7e1b9	-0.1132235
56	0x3b38f16f	0.0028220078
57	0x3c976c30	0.018484205
58	0xbc1aba0e	-0.009443773
59	0x3dc18a26	0.09450178
60	0x3dfa9aec	0.1223658
61	0x3d71107c	0.05885361
62	0x3d348355	0.04407056
63	0xbcae4046	-0.021270882
64	0x3d8a647d	0.06757448
65	0x3df03024	0.11727932
66	0x3cb4d203	0.022072798
67	0xbd50da26	-0.050989293
68	0x3c936507	0.01799251
69	0x3da540c1	0.080689915
70	0x3e061acb	0.13096158
71	0xbda41d58	-0.080134094
72	0x3dcb99e3	0.09941461
73	0xbccfbe4a	-0.025359292
74	0x3d92dd48	0.07171112
75	0x3b0f35c4	0.0021852115
76	0xbd60f7c7	-0.0549238
77	0xbbd8da00	-0.0066177845
78	0xbdbd1380	-0.09232235
79	0x3d53ec94	0.05173929
80	0x3d92ec3b	0.07173964
81	0x3d11dc2e	0.03561037
82	0x3ca96fa9	0.020683127
83	0x3caf55b0	0.021403164
84	0x3dad5c1b	0.08464833
85	0xbde85576	-0.113444254
86	0xbd6441ee	-0.055726938
87	0x3dbc9dd6	0.09209792
88	0x3c6f7038	0.014614157
89	0x3e03d890	0.12875581
90	0xbe06d1b7	-0.13165937
91	0x3de9ce7c	0.11416337
92	0x3ddae4b2	0.106881514
93	0xbdb96af8	-0.09053606
94	0xbdf35b65	-0.118826665
95	0xbd918719	-0.07105846
96	0xbd0fe35a	-0.03512893
97	0xbd625539	-0.055257056
98	0x3c2d0b58	0.010561787
99	0x3da671ec	0.081271976
100	0x3dd9ffab	0.10644468
101	0xbde24502	-0.110483184
102	0xbd142408	-0.036167175
103	0xbd70db51	-0.058802906
104	0x3df0b1e8	0.11752683
105	0x3c34a16c	0.011024814
106	0x3d9e390f	0.07725727
107	0x3c8687dc	0.016422205
108	0x3d65daa6	0.056116723
109	0xbd01eeed	-0.031721998
110	0x3d97cefa	0.074125245
111	0xbc031398	-0.008000277
112	0xbdafccb8	-0.08583969
113	0x3d24678f	0.040137824
114	0xbd2644f3	-0.0405931
115	0x3d1b4cd6	0.037915073
116	0x3ca978d2	0.020687494
117	0x3d9d791f	0.07689118
118	0x3d377725	0.04479136
119	0x3d88d4b5	0.06681196
120	0x3cc617c5	0.024181256
121	0x3d6d69fd	0.057962406
122	0x3c92c569	0.017916398
123	0x3c9d4bb0	0.01920113
124	0x3d990f24	0.07473591
125	0x3deaf834	0.11473122
126	0xbddf3efd	-0.10900686
127	0x3d851953	0.06498971
128	0xbce6799c	-0.02813416
129	0xbc24c3ea	-0.010056475
130	0x3db3d43a	0.087807134
131	0xbd310e2b	-0.043226402
132	0x3debb1ce	0.11508523
133	0xbc097cf1	-0.008391605
134	0xbca74f36	-0.020423513
135	0x3cb4f7a9	0.02209075
136	0x3df592c3	0.11990883
137	0x3c9bf388	0.019037023
138	0xbbb02412	-0.0053753937
139	0xbd7df595	-0.062001783
140	0xbdd47267	-0.10373383
141	0x3d87b3b5	0.06626073
142	0x3d474c21	0.048656587
143	0xbdc46e32	-0.095913306
144	0x3bc31a9f	0.005954101
145	0x3d6eb517	0.05827817
146	0x3d821313	0.06351294
147	0x3cde5b52	0.027143154
148	0xbddeda2d	-0.108814575
149	0xbd1a6f48	-0.037703782
150	0xbdd3d937	-0.10344165
151	0x3d40b8f7	0.047051396
152	0x3d33697a	0.043801762
153	0x3d047870	0.03234142
154	0xbd468171	-0.04846329
155	0x3decb2c1	0.11557532
156	0x3dd72c26	0.105064675
157	0x3de57d46	0.11205535
158	0xbbe0d706	-0.0068615703
159	0x3cb618fd	0.022228712
160	0xbc92ee99	-0.017936038
161	0x3d650c51	0.05591995
162	0x3d1844e8	0.03717509
163	0x3dc10d0b	0.09426316
164	0xbc9995e4	-0.018748231
165	0xbd79e5f7	-0.061010327
166	0xbe020cb0	-0.12700152
167	0x3da927f8	0.082595766
168	0x3dae7224	0.08517864
169	0xbd87b22c	-0.066257805
170	0x3d24aa06	0.04020121
171	0x3ddb343e	0.10703324
172	0xbce2166b	-0.02759858
173	0x3dcc7b92	0.09984507
174	0xbda13b21	-0.07872606
175	0xbd744965	-0.059640307
176	0x3d86752a	0.06565316
177	0xbd870449	-0.06592614
178	0xbd34ec37	-0.044170585
179	0x3cf4ad5e	0.029867824
180	0xbd819dbd	-0.06328914
181	0x3c87dfb0	0.016586155
182	0xbc601ac2	-0.013678255
183	0x3d359715	0.044333536
184	0xbda06ac0	-0.07832861
185	0x3df115bc	0.11771724
186	0x3c491124	0.012272153
187	0x3d4c2a0c	0.049844787
188	0xbd01e230	-0.03170985
189	0xbdf636fa	-0.12022205
190	0x3d16b462	0.03679312
191	0x3dfbc61e	0.12293647
192	0xbd6b4328	-0.057437092
193	0xbd54a37d	-0.051913727
194	0x3b7acc78	0.0038268846
195	0x3e01faa4	0.12693268
196	0x3b8f9c41	0.0043826406
197	0xbcaa2731	-0.020770641
198	0x3d893706	0.06699948
199	0x3be283d0	0.006912686
200	0xbd7f9f6a	-0.06240789
201	0x3c21c294	0.009873051
202	0xbdb1b850	-0.08677733
203	0xbd4280d3	-0.047486138
204	0xbd8504a7	-0.06495028
205	0xbc5422ed	-0.01294778
206	0x3dc7b433	0.09751167
207	0xbc492fcc	-0.012279462
208	0xbd91afa2	-0.071135774
209	0xbd035f6d	-0.032073427
210	0x3d3f2367	0.04666462
211	0xbdfbf9f4	-0.12303534
212	0xbdfcfb1a	-0.12352581
213	0x3ba15b32	0.0049242014
214	0x3d44f292	0.048082896
215	0xbd22cf4d	-0.03974848
216	0x3db0f466	0.08640365
217	0x3da54a42	0.08070804
218	0xbccf71df	-0.025322853
219	0xbd0de996	-0.034646593
220	0xbd8bb12c	-0.06820902
221	0x3dd4cbb3	0.10390415
222	0x3cee9bbe	0.029126998
223	0xbd6ef6bc	-0.058340773
224	0xbe0d5003	-0.13800053
225	0x3b7a63d4	0.0038206475
226	0x3bbd6817	0.0057802307
227	0xbd4ecf46	-0.05049064
228	0x3dbe05be	0.09278439
229	0xbe02f012	-0.12786892
230	0xbce95862	-0.028484527
231	0xbcc1cca0	-0.023657143
232	0xbd3f9dee	-0.046781473
233	0xbcd7549f	-0.026285468
234	0xbd13f51a	-0.03612242
235	0x3dc3fb38	0.095694005
236	0xbdbe7127	-0.09298926
237	0x3d5d8c78	0.05408904
238	0xbdb6024b	-0.08887156
239	0x3da0786b	0.07835468
240	0xbdd17146	-0.10226683
241	0xbdb86720	-0.090040445
242	0xbd35b4e9	-0.044361982
243	0xbddfcfc6	-0.109283015
244	0x3d86e1b1	0.06586016
245	0x3b6c4916	0.0036054305
246	0x3d952d6b	0.072840534
247	0xbdff8337	-0.12476199
248	0x3dd49248	0.103794634
249	0xbdf85564	-0.12125662
250	0x3d9deb91	0.07710946
251	0xbd0f307d	-0.03495835
252	0xbd276b7c	-0.04087399
253	0xbbe1c993	-0.0068904846
254	0xbdf8a37f	-0.121405594
255	0xbd11bfce	-0.03558331

lstm.bias_ih_l0 f4 [256]
0	0x3d8111b7	0.06302207
1	0x3be69230	0.00703647
2	0xbde8c367	-0.11365395
3	0x3dbd0e19	0.092312045
4	0x3b437dfc	0.0029829731
5	0xbcaa6e4d	-0.020804549
6	0x3d87e17f	0.06634807
7	0xbda90188	-0.08252245
8	0x3d8f1f65	0.0698841
9	0xbdeff777	-0.11717122
10	0xbba028e8	-0.004887689
11	0x3c2a0e4e	0.010379387
12	0xba09f5a4	-0.00052627386
13	0xbdaf6b2f	-0.085653655
14	0x3dd744d0	0.10511172
15	0xbddc8ac8	-0.10768658
16	0xbdbd7117	-0.09250086
17	0xbdcb2688	-0.09919459
18	0xbcc2379c	-0.023708157
19	0x3d869744	0.065718204
20	0x3d2bd8e1	0.04195488
21	0x3d9e72e7	0.0773676
22	0x3db23c2f	0.08702885
23	0x3c18c9a1	0.009325416
24	0x3dd9af72	0.10629167
25	0xbd7f0668	-0.06226197
26	0xbd194ea7	-0.037428524
27	0x3cba11ac	0.022713505
28	0xbcc7cea7	-0.024390532
29	0x3ce842d5	0.02835218
30	0x3bbeb1af	0.0058195214
31	0x3dafbab9	0.085805364
32	0x3d9d6dff	0.07686996
33	0xbc7fb2c6	-0.015606588
34	0x3cff46c0	0.031161666
35	0xbba298da	-0.004962069
36	0xbb6c42fb	-0.0036050666
37	0x3d651bb8	0.055934638
38	0x3d8f458a	0.069956854
39	0xbd9f11e4	-0.07767084
40	0xbc52025f	-0.012817948
41	0xbb75b516	-0.0037491969
42	0x3d47f515	0.048817713
43	0xbd9d7fc0	-0.07690382
44	0xbbdec08f	-0.006797857
45	0x3bfdfcd4	0.0077510867
46	0xbde2fd1c	-0.11083433
47	0x3d9587f7	0.07301324
48	0xbd8045d7	-0.06263321
49	0xbbb0e1a8	-0.005397994
50	0x3d9126e3	0.07087495
51	0xbd536e20	-0.051618695
52	0xbde86877	-0.1134805
53	0x3d1db9fe	0.038507454
54	0xbd2ce10d	-0.042206813
55	0x3e071b0c	0.13193911
56	0x3d16573e	0.036704294
57	0x3de0d488	0.10978037
58	0xbd611b87	-0.054957893
59	0x3c7a7851	0.015287475
60	0x3df7f767	0.12107735
61	0xbd2103af	-0.039310154
62	0xbd94a819	-0.072586246
63	0xbdf3aa02	-0.11897661
64	0xbe0277d1	-0.12741019
65	0xbdf175c8	-0.11790043
66	0xbd541e8e	-0.05178695
67	0x3cbabc3f	0.02279484
68	0x3dae724e	0.08517896
69	0xbd95532b	-0.07291254
70	0x3d2d878b	0.042365592
71	0x3db76969	0.08955652
72	0x3d98bfbf	0.07458448
73	0x3c8db19b	0.017296603
74	0x3d1f8105	0.038941402
75	0x3d5489fd	0.05188941
76	0xbdb3c6d5	-0.087781586
77	0x3d9372c6	0.07199626
78	0xbdb0771e	-0.0861647
79	0xbd03d3dd	-0.03218447
80	0x3de4be8e	0.11169158
81	0xbd498a13	-0.049203943
82	0xbd0f69f6	-0.03501316
83	0x3d671c0d	0.056423236
84	0xbdbc4a8e	-0.09193908
85	0x3d695d3d	0.056973685
86	0x3daa6c82	0.083214775
87	0x3c7e0aee	0.0155055355
88	0xbc613d6e	-0.013747556
89	0xbdd8b0b6	-0.1058058
90	0xbcbe472d	-0.023227299
91	0xbd975574	-0.07389346
92	0xbc562afd	-0.013071773
93	0xbcc8b04c	-0.024498127
94	0x3d070aaa	0.032969154
95	0x3d2ba14d	0.041901875
96	0xbcd1f196	-0.025627892
97	0xbd986751	-0.07441581
98	0x3dcb1afb	0.099172555
99	0xbdaec2e3	-0.085332654
100	0xbdb18d17	-0.08669489
101	0xbc5f9c15	-0.013648053
102	0xbd0436a7	-0.032278683
103	0x3deceb55	0.115683235
104	0xbdb4c9a8	-0.088275254
105	0x3cdd7418	0.027032897
106	0x3e09c7e9	0.13455166
107	0xbb8cac4b	-0.004293
108	0x3dfae1ce	0.122501
109	0x3c01156a	0.007878641
110	0xbdfffeff	-0.124998085
111	0xbbd577b7	-0.0065145153
112	0x3d441560	0.047871947
113	0xbdee1801	-0.11625672
114	0xbdcdc4eb	-0.10047325
115	0x3dbde93b	0.09273001
116	0x3da45780	0.08024502
117	0xbd933933	-0.07188644
118	0x3ddcebbb	0.107871495
119	0x3d363cea	0.044491686
120	0x3cf6301e	0.030052241
121	0xbdb0f5ac	-0.08640608
122	0xbd9cf5f3	-0.076640986
123	0xbd45a602	-0.04825402
124	0x3be7d8e0	0.007075414
125	0xbc32591a	-0.010885501
126	0xbdcbeea5	-0.09957627
127	0xbca8dc3f	-0.020612834
128	0x3d195f87	0.037444618
129	0xbde4e524	-0.111765176
130	0xbd1d49c9	-0.038400445
131	0x3cc1a12b	0.023636421
132	0xbdcbdaa9	-0.099538155
133	0xbe08bbc7	-0.13352881
134	0x3d93ad64	0.07210806
135	0xbd7bcf10	-0.061476767
136	0x3da616b2	0.081097975
137	0xbdd78664	-0.1052368
138	0xbda5214a	-0.0806299
139	0x3b738754	0.003715952
140	0x3dca5692	0.09879793
141	0x3d5c11fe	0.053728096
142	0x3cb3f246	0.02196611
143	0x3d94ce1e	0.07265876
144	0x3d46e17b	0.04855488
145	0x3d9386d3	0.0720345
146	0x3d6583f8	0.05603406
147	0xbd3349ea	-0.04377166
148	0x3d8f36ef	0.069928996
149	0xbdc34165	-0.095339574
150	0xbcc0beb0	-0.023528427
151	0x3dd06255	0.10175005
152	0xbc67585c	-0.014120188
153	0x3a513140	0.0007980056
154	0x3bc194da	0.005907637
155	0x3d917bf3	0.071037196
156	0xbdeeabfc	-0.11653897
157	0x3dac4e3c	0.084133595
158	0xbd31b412	-0.04338462
159	0x3bc4dfce	0.006008125
160	0x3d8ddc75	0.069268145
161	0xbdd28d2f	-0.10280835
162	0xbdcb3f43	-0.099241756
163	0x3dbffdbb	0.09374567
164	0xbcc047c3	-0.023471719
165	0x3d329017	0.043594446
166	0xbce8ed24	-0.02843339
167	0x3d9f00b8	0.07763809
168	0x3cf625f6	0.030047398
169	0x3e046f30	0.1293304
170	0xbc133fc2	-0.008987369
171	0xbdaf7e86	-0.08569054
172	0xbe0dd443	-0.13850503
173	0xbc0d212d	-0.008613867
174	0xbdd1b3e3	-0.10239389
175	0xbd08adc0	-0.033368826
176	0x3da5c9ae	0.08095108
177	0xbd07b285	-0.033129234
178	0xbe0d58a7	-0.1380335
179	0xbe070bbf	-0.13188075
180	0xbcfa5234	-0.030556776
181	0xbca4b8e4	-0.020107694
182	0x3cd921b5	0.02650533
183	0xbdb6cc48	-0.08925682
184	0x3ddb780e	0.10716258
185	0xbd9c419b	-0.07629701
186	0x3d9bc589	0.07606036
187	0x3db762e7	0.08954411
188	0xbdc037bc	-0.093856305
189	0x3df5757b	0.11985298
190	0xbe0934f7	-0.1339911
191	0x3dc0f00e	0.09420787
192	0xbcad7b30	-0.021176904
193	0xbd7c40fa	-0.061585404
194	0xbc187b73	-0.009306776
195	0x3d006c86	0.031353496
196	0xbcfd08d3	-0.030887997
197	0x3d9e2c65	0.07723311
198	0x3e0874d5	0.13325818
199	0x3e044ff9	0.12921132
200	0xbdd2c900	-0.10292244
201	0xbc6fc44e	-0.014634205
202	0x3db2600c	0.08709726
203	0xbc82a256	-0.015946548
204	0x3d624bf2	0.05524821
205	0xbd9f75b7	-0.07786124
206	0xbdccfe72	-0.10009469
207	0xbd9a4b6e	-0.07533918
208	0x3d39a76a	0.045325674
209	0xbdc1496c	-0.09437832
210	0xbcf3e859	-0.029773878
211	0xbd4d576a	-0.050132193
212	0xbd7d7cd3	-0.06188662
213	0xbdc4e278	-0.09613508
214	0xbd1cc331	-0.038272087
215	0x3d852996	0.065020725
216	0xbc98b078	-0.018638834
217	0xbd28ea8d	-0.04123931
218	0x3cb0b58a	0.02157094
219	0x3ce13478	0.02749084
220	0x3d65d64e	0.05611258
221	0xbd952fdb	-0.07284518
222	0xbdfbaa41	-0.12288333
223	0xbdff456b	-0.12464412
224	0xbceb0cbe	-0.0286926
225	0x3dc4e424	0.09613827
226	0x3da32570	0.07966125
227	0xbd3c8ab7	-0.046030726
228	0x3cc2f31b	0.023797562
229	0x3d97aa70	0.07405555
230	0x3ddd8c6e	0.108178005
231	0x3c87cd2c	0.016577326
232	0x3db2daf5	0.08733169
233	0xbc80a576	-0.015703898
234	0x3d2ddcd1	0.042446915
235	0xbda33daa	-0.07970746
236	0xbdc1e6df	-0.09467863
237	0x3d9cb544	0.07651761
238	0x3d6e1ca4	0.058132783
239	0xbc26d56a	-0.010182718
240	0xbd8b400e	-0.06799327
241	0x3ddccdff	0.10781478
242	0xbd918ec8	-0.071073115
243	0xbd328284	-0.0435815
244	0xbd363c54	-0.044491127
245	0x3c020d24	0.007937703
246	0xbda3a1d8	-0.079898536
247	0xbd3ccdb5	-0.046094615
248	0xbd1a9b03	-0.037745487
249	0x3df6d249	0.120518275
250	0x3c89f03a	0.016838182
251	0xbbc3d457	-0.0059762406
252	0xbd6533b9	-0.05595753
253	0xbdcb9724	-0.09940937
254	0x3dd6d767	0.104903035
255	0x3c1711bb	0.009220536

lstm.bias_hh_l0 f4 [256]
0	0x3d39e1d3	0.04538138
1	0xbd3720d1	-0.04470903
2	0xbdaed251	-0.085362084
3	0xbcb16e5e	-0.021659072
4	0xbd4b60b4	-0.04965277
5	0x3e09fa73	0.13474445
6	0xbd78b8fd	-0.060723294
7	0x3d99d334	0.07510987
8	0x3d96bade	0.07359861
9	0x3cd67124	0.026176997
10	0x3db741d3	0.08948102
11	0xbdd3532b	-0.103185974
12	0xbc97b945	-0.01852096
13	0xbce11abd	-0.02747857
14	0x3d5cf0f8	0.053940743
15	0x3d588306	0.05285933
16	0xbd3c4bbf	-0.045970675
17	0xbd729c65	-0.05923118
18	0xbd8ab501	-0.06772805
19	0x3dc9f673	0.098614596
20	0xbdac0480	-0.08399296
21	0x3bd2c512	0.006432184
22	0x3dcb4edb	0.0992715
23	0x3d850bfd	0.06496427
24	0x3ccd3a19	0.025052117
25	0xbd0ef9f8	-0.034906358
26	0xbd3e4b5b	-0.046458583
27	0xbda43395	-0.08017651
28	0x3d0be190	0.03415066
29	0x3c8b1695	0.016978541
30	0x3d2b7cf0	0.041867197
31	0x3d968d71	0.073511966
32	0xbd94a78b	-0.07258519
33	0x3db5338e	0.08847724
34	0x3cde9f2e	0.027175512
35	0x3c7a35e1	0.015271635
36	0xbb6251bb	-0.0034533578
37	0x3d92d797	0.07170027
38	0x3d8b512c	0.06802592
39	0x3de0dacc	0.10979232
40	0x3bf818e4	0.0075713266
41	0xbc77ab89	-0.015116581
42	0xbd519f31	-0.051177207
43	0xbdc8a1a4	-0.097964555
44	0x3dd30366	0.103033826
45	0x3d8cac9b	0.068688594
46	0x3b1729bb	0.0023065645
47	0x3d82cc8d	0.06386671
48	0xbb31c00c	-0.0027122525
49	0xbce7a348	-0.0282761
50	0x3de8f1e9	0.11374266
51	0xbdc1a6bc	-0.0945563
52	0x3d8d874f	0.06910574
53	0x3dac18d4	0.08403173
54	0xbd04d68d	-0.032431174
55	0x3cf5dc54	0.030012287
56	0x3ddd44f6	0.10804169
57	0xbd97bdf8	-0.074092805
58	0x3e0d39f0	0.13791633
59	0x3c0198c2	0.007909955
60	0x3bab5d3c	0.0052296203
61	0x3d530a35	0.051523406
62	0xbd59537f	-0.053058144
63	0x3dbc0b6a	0.091818646
64	0xbdcbbef9	-0.099485345
65	0x3d367016	0.044540487
66	0x3c43438b	0.011917959
67	0x3d72bd11	0.05926234
68	0x3d6023ec	0.054721758
69	0x3d3b44f0	0.04572004
70	0xbdb9ea00	-0.09077835
71	0x3de0bf65	0.109740056
72	0x3d8d09a5	0.06886605
73	0x3b56c212	0.0032769484
74	0xbda1ee6f	-0.07906806
75	0xbd98a563	-0.0745342
76	0x3cc0f162	0.0235526
77	0x3918d2c0	0.0001457436
78	0x3d875305	0.066076316
79	0x3c2198d8	0.009863101
80	0xbd8b5562	-0.06803395
81	0xbd7e49df	-0.062082168
82	0xbdbaa0c3	-0.09112694
83	0xbd9940e7	-0.07483082
84	0xbdde0722	-0.10841204
85	0x3c73f636	0.014890244
86	0x3dbdadf4	0.092616946
87	0xbddebbf3	-0.10875692
88	0x3b83b223	0.0040190383
89	0xbda0d222	-0.0785258
90	0x3dfa2571	0.12214173
91	0x3d7ab78b	0.061210196
92	0xbdf46f37	-0.11935275
93	0xbd272ecf	-0.040816125
94	0xbd124f3f	-0.035720106
95	0xbb63a065	-0.0034733054
96	0x3d531e59	0.051542614
97	0xbd8c622f	-0.068546645
98	0xbe051ace	-0.12998506
99	0x3da971dd	0.08273671
100	0xbe098850	-0.13430905
101	0xbd2552f0	-0.0403623
102	0x3d550915	0.052010614
103	0xbc530a69	-0.0128809
104	0x3d074acc	0.033030316
105	0xbd2f914f	-0.042863186
106	0xbbe5bdcc	-0.007011151
107	0x3d49215b	0.049104076
108	0xbdd39ac0	-0.103322506
109	0x3c82dfdd	0.015975887
110	0x3b543d4f	0.0032385176
111	0xbdc9a654	-0.09846178
112	0x3de03eb4	0.1094946
113	0xbc1556bc	-0.009114917
114	0xbdd45483	-0.10367682
115	0x3d63d9bc	0.05562757
116	0x3da26f7c	0.0793142
117	0xba2b8caa	-0.0006544093
118	0xbce57074	-0.028007723
119	0xbbfe5288	-0.0077613033
120	0x3da8d048	0.082428515
121	0xbbbb32ac	-0.0057128277
122	0x3bb05128	0.0053807683
123	0xbdaacb06	-0.08339505
124	0xbcdaa981	-0.026692154
125	0xbdef775f	-0.1169269
126	0x3c950fc0	0.018195987
127	0x3de22635	0.11042444
128	0x3d83a6fa	0.064283326
129	0x3d6cc1aa	0.05780188
130	0xbbcd4ea7	-0.0062654796
131	0x3d8dd84e	0.069260225
132	0xbd58bb08	-0.052912742
133	0xbd4d48cf	-0.050118264
134	0xbc0118c2	-0.007879438
135	0xbdf0b3be	-0.11753033
136	0x3c942f40	0.018088937
137	0xbdd450c8	-0.1036697
138	0x3e06f6a6	0.13180026
139	0x3dbf1aa6	0.09331255
140	0x3da5e436	0.081001684
141	0xbd27742e	-0.040882282
142	0xbc8a041a	-0.016847659
143	0xbda104dc	-0.07862255
144	0xbdddbcb1	-0.10827006
145	0xbdb3e837	-0.08784526
146	0xbe03b862	-0.12863305
147	0xbe058fce	-0.13043138
148	0xbdf9633b	-0.1217713
149	0xbd1cbe92	-0.03826768
150	0x3cac6ac0	0.021046996
151	0xbd5024bb	-0.05081628
152	0xbc8166a6	-0.015796017
153	0x3b32ecd2	0.00273018
154	0xbc935d58	-0.017988846
155	0x3d06988e	0.03286033
156	0x3d385d21	0.04501069
157	0x3bf991ea	0.0076162713
158	0xbd3df066	-0.04637184
159	0xbda4af36	-0.08041231
160	0xbe0430c2	-0.12909225
161	0x3d43e176	0.04782244
162	0x3c49dbd8	0.012320481
163	0x3c992227	0.018693043
164	0x3d11d882	0.03560687
165	0xbde3afd4	-0.11117521
166	0xbdd5e4a8	-0.10444003
167	0xbd9fbf94	-0.078002125
168	0x3c70c4ab	0.014695327
169	0x3daab6ea	0.08335669
170	0x3d8fed8e	0.07027732
171	0x3da09cc8	0.07842404
172	0x3d7689f5	0.06019016
173	0xbdafea06	-0.08589558
174	0xbdac5057	-0.08413761
175	0x3cf9fd6c	0.030516349
176	0xbd2f7c6c	-0.042843267
177	0x3d92a77b	0.071608506
178	0x3d57b7c6	0.052665494
179	0xbcd89f05	-0.026443014
180	0x3c22d8d9	0.009939396
181	0x3cdc2f96	0.02687816
182	0x3d328b52	0.043589897
183	0xbdc7d014	-0.09756485
184	0xbdb9068e	-0.09034453
185	0xbb83e311	-0.004024871
186	0x3c578232	0.0131536
187	0xba85e186	-0.0010214306
188	0xbca27a67	-0.019833757
189	0x3dcba9e7	0.09944516
190	0x3d204415	0.039127428
191	0xbde9ee26	-0.11422376
192	0xbd6b58f7	-0.05745789
193	0xbdb8a93f	-0.09016656
194	0xbdef1e00	-0.11675644
195	0x3a807ccb	0.0009802816
196	0xbdb831dd	-0.08993886
197	0x3df9e809	0.1220246
198	0xbd2a44e7	-0.041569617
199	0x3da61d8a	0.08111103
200	0xba96dd82	-0.0011510106
201	0x3dd0b532	0.1019081
202	0xbdba4fd4	-0.09097257
203	0x3c775d82	0.015097978
204	0xbd43b19f	-0.047776815
205	0xbd9d8c6f	-0.07692801
206	0xbd79de30	-0.06100291
207	0xbdd995e4	-0.106242925
208	0x3cf74dba	0.03018843
209	0x3b48f2b1	0.0030662233
210	0xbdaab9b8	-0.08336204
211	0xbd49326b	-0.049120348
212	0x3d21c20b	0.039491694
213	0x3e01af2c	0.12664479
214	0x3dbb4012	0.0914308
215	0xbdff1bd9	-0.124564834
216	0x3db85df3	0.090022944
217	0xbd06a0e1	-0.03286827
218	0x3d49a0b2	0.049225517
219	0x3de28af3	0.11061659
220	0x3c90c533	0.017672157
221	0x3c3b2887	0.011423237
222	0x3db9645d	0.09052346
223	0xbc1a80c5	-0.009430115
224	0xbd08be8b	-0.03338484
225	0xbdb39bbe	-0.0876994
226	0x3d9f6594	0.07783046
227	0xbdb280d3	-0.087159775
228	0xbd8a6d2b	-0.067591034
229	0x3dd9d530	0.106363654
230	0x3d296cbb	0.04136346
231	0xbd77fa64	-0.060541525
232	0x3d8594a9	0.06522495
233	0xbda1d777	-0.07902425
234	0x3bcef6c9	0.00631604
235	0xbcec3827	-0.02883537
236	0x3cc545ed	0.024081195
237	0xbd093ddf	-0.03350627
238	0xbde7c04c	-0.113159746
239	0x3d3e4dd8	0.046460956
240	0xbd869356	-0.06571071
241	0x3dcad753	0.09904351
242	0xbdc27d98	-0.09496611
243	0xbdaf20c7	-0.08551174
244	0xbd2e7cdc	-0.042599544
245	0xbcf6aac2	-0.03011072
246	0x3db889e4	0.090106755
247	0xbdd263e1	-0.10272957
248	0xbcad1263	-0.021126932
249	0xbd8f528b	-0.06998166
250	0xbd12f066	-0.035873793
251	0xbd9211f1	-0.07132328
252	0x3da86f30	0.08224332
253	0xbd19c55e	-0.03754174
254	0xbd9b6245	-0.07587103
255	0xbd3c3c3b	-0.045955878

fc.weight f4 [8, 64]
0	0xbd94aadb	-0.072591506
1	0x3d90c25a	0.070683196
2	0xbdd36988	-0.10322863
3	0x3d0c5797	0.03426322
4	0x3d95a46a	0.0730675
5	0xbd24eb1b	-0.040263277
6	0x3c0ea754	0.008706886
7	0xbda0b4b7	-0.078469686
8	0xbd8e8212	-0.06958403
9	0xbda9792c	-0.08275065
10	0x3de3529b	0.1109974
11	0x3d843202	0.06454851
12	0xbd40bd00	-0.047055244
13	0x3da49362	0.080359235
14	0x3d9bf325	0.076147355
15	0x3cd8aafd	0.026448721
16	0xbdae85ed	-0.08521638
17	0x3ce28964	0.027653404
18	0x3dbcda4a	0.09221323
19	0x3e02af74	0.12762243
20	0xbd1d9e42	-0.038481005
21	0x3d9cd9fd	0.076587655
22	0x3d7195b3	0.058980655
23	0x3de058d3	0.10954442
24	0x3d20f478	0.039295644
25	0x3b3a3ff7	0.0028419474
26	0x3e052a55	0.1300443
27	0xbdda6df7	-0.106655054
28	0xbde72e42	-0.1128812
29	0xbdd76f7a	-0.10519309
30	0xbcf5ab1c	-0.029988818
31	0x3c3be6ca	0.011468599
32	0xbce698b7	-0.028148992
33	0xbdd5a1ae	-0.104312286
34	0xbdb2b8bc	-0.087266415
35	0xbb94e4d4	-0.00454388
36	0xbc22e31a	-0.009941841
37	0x3cf9ae42	0.0304786
38	0x3c4e7804	0.012601856
39	0xbd89b0c1	-0.06723166
40	0x3da84052	0.08215393
41	0x3d95630a	0.07294281
42	0xbda14149	-0.0787378
43	0xbdfbe65f	-0.12299799
44	0xbc8fda40	-0.017560124
45	0xbc202ae4	-0.009775851
46	0xbddfe051	-0.10931457
47	0x3d3c1b31	0.04592437
48	0xba929b3b	-0.0011185178
49	0xbd731a0c	-0.059351012
50	0xbdfdce02	-0.123928085
51	0xbc5b8864	-0.013399217
52	0xbc673998	-0.0141128525
53	0xbc41e69e	-0.011834769
54	0x3ae57e72	0.0017508997
55	0xbd91ebb9	-0.07125039
56	0xbd81c68e	-0.063366994
57	0xbc6ac12e	-0.014328284
58	0x3cd42db6	0.025900703
59	0x3dfa48fe	0.122209534
60	0x3d9ab285	0.07553581
61	0xbdbaa8af	-0.09114205
62	0xbcb0347f	-0.021509407
63	0x3cabfa91	0.020993503
64	0x3c699973	0.014257777
65	0xbda07d0b	-0.0783635
66	0xbd08ddd9	-0.033414695
67	0xbcd2ec11	-0.02574733
68	0x3e078bb5	0.13236888
69	0x3cb87162	0.022515003
70	0xbdbb2fe6	-0.09139995
71	0x3d9de682	0.077099815
72	0x3d1e1708	0.038596183
73	0x3df7c0f1	0.120973475
74	0x3d8006de	0.0625131
75	0xbe0c1964	-0.13681561
76	0x3a42d348	0.0007431996
77	0xbcdafa44	-0.026730664
78	0x3cd33ad4	0.025784887
79	0x3b029ec3	0.0019931055
80	0xbd20c396	-0.039249025
81	0x3d4196e1	0.04726303
82	0x3d98af66	0.074553296
83	0x3d6e8dca	0.05824069
84	0xbdc71447	-0.097206645
85	0x3c969ee0	0.018386304
86	0xbda92e76	-0.08260815
87	0xbd6435ed	-0.05571549
88	0x3c458f94	0.0120581575
89	0xbd7befe2	-0.061508067
90	0xbd4c2312	-0.049838133
91	0xbde0f290	-0.10983765
92	0x3de732c6	0.11288981
93	0xbe02d27f	-0.1277561
94	0xbd922e66	-0.07137756
95	0x3d234a50	0.03986579
96	0x3b92a403	0.004475118
97	0xbbf951fa	-0.0076086493
98	0xba9ca9f2	-0.0011952503
99	0xbe063171	-0.13104798
100	0x3bff3a6f	0.0077889482
101	0x3dc0d5b5	0.094157614
102	0xbdc4ccb5	-0.09609357
103	0x3dd7b682	0.105328575
104	0xbc1e4a56	-0.009661278
105	0x3a8558f2	0.0010173602
106	0x3d14a60c	0.036291167
107	0x3ba87b0a	0.0051416205
108	0x3aac9d7d	0.0013169494
109	0xbd1ccd07	-0.038281467
110	0x3de719f7	0.11284249
111	0x3d845b15	0.06462685
112	0x3c68cadb	0.014208521
113	0xbd9f0b47	-0.07765823
114	0x3db94c74	0.090477854
115	0xbd9f4989	-0.077776976
116	0xbda968d5	-0.08271948
117	0x3c94bb72	0.018155787
118	0xbda70917	-0.081560306
119	0xbd836024	-0.06414822
120	0x3d9f779a	0.07786484
121	0xbddccd28	-0.10781318
122	0xbdd7f231	-0.10544241
123	0x3d83ec8f	0.06441604
124	0x3da8ee49	0.08248574
125	0xbc9c0a16	-0.019047778
126	0x3df073df	0.11740851
127	0x3df943e7	0.121711545
128	0xbd0f6e38	-0.035017222
129	0xbda5055d	-0.080576636
130	0x3d89f1fd	0.06735609
131	0xbe0b4e90	-0.13604188
132	0x3cb287ee	0.021793332
133	0xbd2dbead	-0.04241817
134	0x3c849c23	0.016187733
135	0xbd4a3747	-0.049369123
136	0xbe081466	-0.13289031
137	0xbc8edeb9	-0.017440187
138	0xbe030e00	-0.1279831
139	0x3d855595	0.06510464
140	0xbde0426e	-0.109501705
141	0x3d85c670	0.065319896
142	0xbacf587c	-0.0015819217
143	0xbdd6ca04	-0.1048775
144	0x3d9ad921	0.07560945
145	0x3c81b1fa	0.015831936
146	0xbd8c3754	-0.068464905
147	0x3dde484f	0.108536355
148	0xbdb9ca09	-0.09071738
149	0x3d88f9f4	0.066883
150	0xbb03b5ca	-0.0020097368
151	0xbcb0f5b0	-0.021601528
152	0x3cbd7187	0.023125423
153	0xbb85a477	-0.0040784436
154	0xbc64eb92	-0.01397218
155	0x3d4e3738	0.05034563
156	0x3c6539fa	0.0139908735
157	0xbde261bd	-0.11053798
158	0xbdd62680	-0.10456562
159	0x3c9a1c8b	0.018812438
160	0x3db9606a	0.09051593
161	0xbdd88517	-0.1057226
162	0x3ca4c71b	0.020114472
163	0xbd946b4a	-0.07247026
164	0xbdb98874	-0.090592295
165	0x3dc34356	0.09534328
166	0xbdb2ba7c	-0.08726975
167	0xbd8dadb5	-0.069178976
168	0xbc6766a7	-0.014123595
169	0xbe0c4298	-0.13697278
170	0x3d4d91fd	0.050188053
171	0x3c0089dd	0.007845369
172	0xbd4570e5	-0.048203368
173	0xbd8f953c	-0.07010886
174	0x3d8d9372	0.069128886
175	0xbe0408ca	-0.12893978
176	0xbca3d62c	-0.019999586
177	0xbde2f605	-0.11082081
178	0x3d45a6d3	0.0482548
179	0x3ddeb7da	0.10874911
180	0xbc2b40eb	-0.010452489
181	0x3da1c285	0.0789843
182	0xbd0f2896	-0.034950815
183	0xbbf0257f	-0.0073286886
184	0xbda397f5	-0.07987968
185	0x3d6c1ba0	0.057643533
186	0xbc8fe01c	-0.017562918
187	0x3ca4e8ee	0.0201306
188	0xbdd383bd	-0.103278615
189	0x3dd5337b	0.1041021
190	0x3c98bbb4	0.018644191
191	0x3d902e14	0.07040039
192	0x3dc075df	0.09397482
193	0x3ddcd9bb	0.10783716
194	0xbacf5025	-0.0015816732
195	0xbd404f5c	-0.046950683
196	0xbc32954b	-0.010899852
197	0xbd8cf5f1	-0.06882847
198	0x3cff2ffd	0.031150812
199	0x3d8706ed	0.06593118
200	0x3caa62f0	0.02079913
201	0xbd020858	-0.03174624
202	0xbc6d8bd3	-0.014498669
203	0x3d3872b1	0.045031253
204	0x3db3cdd1	0.08779491
205	0x3e06cefb	0.13164894
206	0xbdd912bc	-0.105992764
207	0x3d1a5711	0.03768069
208	0x3cb47884	0.022030123
209	0xbc111ff4	-0.008857716
210	0x3e007145	0.12543209
211	0x3dcd8c5c	0.10036537
212	0x3dac293d	0.08406303
213	0x3dab0fb7	0.08352607
214	0xbc230336	-0.009949496
215	0xbd82479a	-0.06361313
216	0x3c6ef1c0	0.014584005
217	0x3df64081	0.12024022
218	0x3cf6b539	0.03011571
219	0x3cca90b7	0.024727209
220	0x3dc0a284	0.094059974
221	0x3d581b0b	0.052760165
222	0x3db65e11	0.089046605
223	0x3c7bc390	0.01536645
224	0xbdd2ff30	-0.103025794
225	0xbdd31035	-0.103058256
226	0xbd6fd3df	-0.058551665
227	0x3da0bbe0	0.07848334
228	0x3d0f3667	0.03496399
229	0xb9d1eae4	-0.00040038594
230	0x3e08c444	0.1335612
231	0xbe0a41af	-0.13501619
232	0x3cf29f3a	0.02961694
233	0xbdf098a9	-0.117478676
234	0xbd2f00c2	-0.042725332
235	0x3d597ceb	0.053097647
236	0x3dc484d8	0.095956504
237	0x3d7dbef2	0.061949678
238	0x3df6f02f	0.1205753
239	0x3d5c0715	0.05371769
240	0xbc1253a7	-0.008931077
241	0xbd960b25	-0.073263444
242	0xbceffaf1	-0.029294463
243	0x3be4b964	0.006980108
244	0x3d8d5065	0.069001
245	0x3c525cbc	0.012839492
246	0x3d5e6dec	0.05430405
247	0xbdc5329a	-0.09628792
248	0x3d2199df	0.039453384
249	0x3b140af8	0.0022589546
250	0xbda8f847	-0.0825048
251	0x3dd23f9e	0.1026604
252	0xbcba2c2b	-0.022726139
253	0x3d36cc1f	0.04462826
254	0xbd5a15ac	-0.053243324
255	0xbd717d40	-0.05895734

fc.bias f4 [8]
0	0x3c5e04b3	0.013550925
1	0x3d0f2e1f	0.034956094
2	0x3da78149	0.08178956
3	0xbe07ccbd	-0.13261695
4	0x3c65489c	0.013994362
5	0x3d870ba7	0.065940194
6	0xbcdcaac8	-0.026936904
7	0x3cabcf2b	0.020972809
