data/processed/ml_engine/model.pt (torch, 650039 bytes, 7 tensors)

embedding.weight f4 [2000, 64]
0	0x00000000	0.0
1	0x00000000	0.0
2	0x00000000	0.0
3	0x00000000	0.0
4	0x00000000	0.0
5	0x00000000	0.0
6	0x00000000	0.0
7	0x00000000	0.0
8	0x00000000	0.0
9	0x00000000	0.0
10	0x00000000	0.0
11	0x00000000	0.0
12	0x00000000	0.0
13	0x00000000	0.0
14	0x00000000	0.0
15	0x00000000	0.0
16	0x00000000	0.0
17	0x00000000	0.0
18	0x00000000	0.0
19	0x00000000	0.0
20	0x00000000	0.0
21	0x00000000	0.0
22	0x00000000	0.0
23	0x00000000	0.0
24	0x00000000	0.0
25	0x00000000	0.0
26	0x00000000	0.0
27	0x00000000	0.0
28	0x00000000	0.0
29	0x00000000	0.0
30	0x00000000	0.0
31	0x00000000	0.0
32	0x00000000	0.0
33	0x00000000	0.0
34	0x00000000	0.0
35	0x00000000	0.0
36	0x00000000	0.0
37	0x00000000	0.0
38	0x00000000	0.0
39	0x00000000	0.0
40	0x00000000	0.0
41	0x00000000	0.0
42	0x00000000	0.0
43	0x00000000	0.0
44	0x00000000	0.0
45	0x00000000	0.0
46	0x00000000	0.0
47	0x00000000	0.0
48	0x00000000	0.0
49	0x00000000	0.0
50	0x00000000	0.0
51	0x00000000	0.0
52	0x00000000	0.0
53	0x00000000	0.0
54	0x00000000	0.0
55	0x00000000	0.0
56	0x00000000	0.0
57	0x00000000	0.0
58	0x00000000	0.0
59	0x00000000	0.0
60	0x00000000	0.0
61	0x00000000	0.0
62	0x00000000	0.0
63	0x00000000	0.0
64	0xbf8ef2e2	-1.1167872
65	0x3f4fbf37	0.81151146
66	0xbe4b23d1	-0.19837882
67	0xbf726f13	-0.94700736
68	0x3ebf28d1	0.37335828
69	0x3f5593d9	0.8342872
70	0x3e111078	0.14166439
71	0xbf8d3a1b	-1.1033357
72	0xbe8f7e93	-0.28026256
73	0x3f2a0450	0.6641283
74	0x3f40fab5	0.7538255
75	0xbef8057f	-0.48441693
76	0x3eccaef3	0.39977226
77	0xbf53c0af	-0.82715887
78	0x400fc905	2.2466443
79	0xbfc655ef	-1.5494975
80	0x3f0fe5b2	0.5620986
81	0x3f08d6fb	0.53453034
82	0x3ff454a8	1.9088335
83	0xbf323e2d	-0.6962612
84	0x3fffb6f9	1.9977714
85	0xbf5ca698	-0.861917
86	0x3edcd095	0.43127885
87	0x3cd454d3	0.025919354
88	0xbea3033e	-0.3183841
89	0xbfa1142d	-1.2584282
90	0x3fb07b63	1.3787655
91	0xbf05a01d	-0.5219744
92	0xbf5de20c	-0.86673045
93	0x3f4b4673	0.7940437
94	0x3eed07f0	0.46295118
95	0x3de26b0c	0.11055574
96	0x3e822097	0.2541549
97	0xbff85eeb	-1.9403967
98	0x3f1095e8	0.5647874
99	0x3f618dd7	0.88107055
100	0x3d818e17	0.063259296
101	0x3fd4173c	1.656959
102	0xbfe3960b	-1.7780164
103	0xc0139274	-2.3058138
104	0xbebd1c26	-0.36935538
105	0x3dd26fb1	0.1027521
106	0x3f8295bb	1.0201944
107	0xbddbc46a	-0.107308224
108	0x3e363674	0.1779421
109	0xbf6939ab	-0.9110362
110	0x3ed8aa72	0.4231754
111	0xbf1ebbca	-0.62005293
112	0x3f4011bb	0.75027055
113	0xbfaf970e	-1.3717973
114	0xbf3f0711	-0.7462016
115	0xbd180645	-0.037115354
116	0xbfbfda4a	-1.4988492
117	0x3f2231c2	0.63357174
118	0xbe915eab	-0.28392538
119	0xbf5f1e97	-0.8715605
120	0x3f928218	1.1445951
121	0x400e42b2	2.2228208
122	0x3efab3e7	0.4896538
123	0xbcf7dc10	-0.030256301
124	0xbf8f5837	-1.1198796
125	0xbd2bad72	-0.041913457
126	0x3ebbd296	0.36684102
127	0x3ee177ee	0.44036812
128	0xbf0bdc10	-0.54632664
129	0xbf64eced	-0.8942402
130	0xbf375de6	-0.7162765
131	0xc0299d5a	-2.650229
132	0xbef28d65	-0.473735
133	0x3fc74981	1.5569307
134	0x3f7fb8f7	0.9989161
135	0xbef5fb13	-0.48043117
136	0x3f6ee931	0.9332457
137	0x3f0f1217	0.5588698
138	0x4011a547	2.2757127
139	0xbf359c36	-0.70941484
140	0x3f91d61e	1.1393468
141	0x3e8b6224	0.27223313
142	0xbf57c230	-0.8428068
143	0xbf2e4e5f	-0.68088335
144	0xbe1f6c33	-0.15568618
145	0x3f498413	0.78717154
146	0x3e25864e	0.16164514
147	0x3b8abfc3	0.0042342856
148	0xbef24dca	-0.47324973
149	0xbe2ad89b	-0.16684191
150	0x3fcc7018	1.5971708
151	0x3eb22b79	0.34798792
152	0xbfb5e684	-1.4210973
153	0x3f734069	0.9502016
154	0x3f90fecc	1.1327758
155	0x3f6bca39	0.9210544
156	0xbe294251	-0.16529204
157	0xbf0e1cb0	-0.55512524
158	0x3e596952	0.21231583
159	0x3fe1970c	1.7624221
160	0x3f62fa4a	0.8866316
161	0xbf24d5b0	-0.6438856
162	0xbf3fc79e	-0.74913967
163	0xc00b8c55	-2.1804402
164	0x3ec60ebb	0.38683113
165	0xbf5ed7fe	-0.8704833
166	0x3e96cf36	0.29454964
167	0xbfab410e	-1.3379228
168	0x3ffd4df8	1.9789419
169	0xbe986d0e	-0.29770702
170	0xbdabf058	-0.08395451
171	0xbdd69288	-0.10477167
172	0x400849bf	2.129501
173	0x3f24ae52	0.6432849
174	0x3fdc8eac	1.723104
175	0xbece5294	-0.40297377
176	0x3fe7f2f6	1.8121021
177	0x3f2740ba	0.6533314
178	0x404e30a6	3.2217193
179	0xbf4230b9	-0.75855595
180	0xbdbb78a0	-0.09153867
181	0x3eaa2072	0.3322788
182	0xbf1ccf5f	-0.61253923
183	0x3f31e333	0.69487303
184	0x3f18df61	0.5971585
185	0xbd04d7e7	-0.032432463
186	0xbfb4ba73	-1.41194
187	0x3fee2cc2	1.8607409
188	0x3f19461b	0.598726
189	0x3dced6f6	0.10099594
190	0xc00f4527	-2.2385957
191	0xbfd275a2	-1.6442149
192	0xbe9b4623	-0.30326948
193	0xbf819c88	-1.0125895
194	0x3ee82f80	0.4534874
195	0xbe031eff	-0.12804793
196	0x3eaadad2	0.33370072
197	0xbf6c57c1	-0.923214
198	0x3fa233f4	1.2672105
199	0xbe352d9b	-0.17693178
200	0x3febe3ad	1.8428856
201	0xbdd85837	-0.10563701
202	0x3dd1b7d7	0.10240143
203	0x3f5f739c	0.8728578
204	0xbeb60969	-0.35554054
205	0x3fa4946a	1.2857792
206	0x402683b4	2.6017885
207	0x3fb8b53c	1.4430308
208	0xbf0b46f8	-0.54405165
209	0x3f01f8bf	0.5077018
210	0x3e984dae	0.29746765
211	0x3d214f12	0.039382048
212	0x3feef9c2	1.866997
213	0x3ef82685	0.48466888
214	0xbd808ff1	-0.06277455
215	0xbdbfda80	-0.093678474
216	0x3f8b6603	1.0890507
217	0xbff0ac56	-1.8802593
218	0xc0057e3e	-2.0858302
219	0x3efaeee4	0.49010384
220	0xbfa9da96	-1.3269832
221	0xbe83b17f	-0.25721356
222	0xbed3e613	-0.4138647
223	0x3f4ab168	0.7917695
224	0x402d90e7	2.7119691
225	0x3e857c24	0.26071274
226	0x3f7054d9	0.9387947
227	0xbf511e11	-0.816865
228	0x3e7b37c5	0.24532993
229	0xbfa2d6df	-1.2721823
230	0xbefac7fc	-0.489807
231	0xbf316588	-0.6929555
232	0x3f52ffc5	0.82421523
233	0x3ff73d4f	1.9315585
234	0xbf261e94	-0.6489041
235	0x3f8e933d	1.1138684
236	0x3e39d418	0.18147314
237	0x3ec1ec2e	0.37875503
238	0x3f404d6b	0.7511813
239	0xbdd35e23	-0.103206895
240	0xbe6cb8e2	-0.23117402
241	0xbfc1e127	-1.5146836
242	0x3f4076e7	0.7518143
243	0xbfa34773	-1.275618
244	0x3f411575	0.75423366
245	0x3f0c1fbd	0.5473593
246	0x3fbcb9b1	1.4744169
247	0x3f3b0954	0.7306111
248	0x3f55d728	0.8353143
249	0xbfbef4cb	-1.4918455
250	0x3e6602c2	0.2246199
251	0x3fd17eca	1.6366818
252	0x3f9b9cf8	1.2157278
253	0xbf449db4	-0.76803136
254	0x3f7d2607	0.9888615
255	0x3fc34065	1.5254027

lstm.weight_ih_l0 f4 [256, 64]
0	0xbd3a34a3	-0.045460355
1	0xbe0c11c0	-0.13678646
2	0x3d679728	0.05654064
3	0xbc9576ed	-0.018245185
4	0xbbc63653	-0.0060489564
5	0xbc161338	-0.009159856
6	0xbe005849	-0.12533678
7	0xbc235a6f	-0.0099702915
8	0xbd4d7158	-0.05015692
9	0x3d0cef9e	0.034408204
10	0xbc4b369c	-0.012403157
11	0xbcd5c93f	-0.026096938
12	0x3b8cb8be	0.004294484
13	0x3d15cbe4	0.0365714
14	0xb9f91d70	-0.00047514914
15	0xbd9fa239	-0.077946134
16	0xbe1cce49	-0.15313067
17	0x3dd5138f	0.10404121
18	0x3e031c39	0.12803735
19	0xbad20478	-0.001602306
20	0x3dd584ef	0.10425746
21	0xbd6c0d10	-0.057629645
22	0xbdb076a9	-0.08616383
23	0x3d0dc925	0.034615654
24	0xbbc5b83d	-0.006033926
25	0xbd0267f0	-0.031837404
26	0x3c5a15e2	0.013310881
27	0xbdcd5441	-0.10025836
28	0xbdf230b1	-0.118256934
29	0x3e035d09	0.12828459
30	0xbd0be97e	-0.034158222
31	0xbe196507	-0.14979945
32	0x3d7dcf2d	0.061965156
33	0x3dc5ff82	0.09667875
34	0xbce0f516	-0.027460616
35	0x3e0a8c0b	0.13529985
36	0x3d449703	0.04799558
37	0x3dc2a10b	0.09503373
38	0x3aa93c57	0.001291166
39	0xbd3da1dd	-0.046296943
40	0xbd921a57	-0.0713393
41	0x3df99154	0.12185922
42	0x3d929b7d	0.07158563
43	0x3d8e0c0f	0.06935894
44	0x3dc64b9c	0.0968239
45	0x3df6463c	0.12025115
46	0xbd240d9a	-0.040052034
47	0x3db733c4	0.089454204
48	0x3c53e40a	0.012932787
49	0xbc0f167b	-0.008733387
50	0x3db2469b	0.08704873
51	0xbd47fb56	-0.048823677
52	0xbe0ac669	-0.1355225
53	0x3db1ddf9	0.08684916
54	0x3d9135fc	0.07090375
55	0xbd165201	-0.0366993
56	0xbd5e9610	-0.05434233
57	0xbd79890e	-0.06092172
58	0xbc8dccd4	-0.017309584
59	0x3d8c20d9	0.06842203
60	0xbd4523f3	-0.048129987
61	0x3dbb2670	0.09138191
62	0xbdc0017c	-0.09375283
63	0xbe099b2d	-0.13438101
64	0xbda2567a	-0.0792665
65	0xbce1cff7	-0.027564986
66	0xbda5c41f	-0.08094048
67	0x3d126ce9	0.035748396
68	0xbd568a9a	-0.052378275
69	0x3c44c0a7	0.0120088225
70	0x3d8d0ba3	0.06886985
71	0xbd630d93	-0.055432867
72	0xbd635ebd	-0.05551027
73	0xbddac1d6	-0.106815025
74	0x3e043af3	0.12913112
75	0x3dbfdeed	0.093686916
76	0xbdd1c0b1	-0.10241831
77	0xbe270390	-0.16309953
78	0xbd8c9dcf	-0.06866037
79	0x3d8898e6	0.06669788
80	0xbd9e0699	-0.07716102
81	0xbca467c4	-0.02006901
82	0x3d462ca4	0.048382416
83	0xbc6714df	-0.014104097
84	0x3ab9e2c2	0.0014181959
85	0xbd81a3fd	-0.063301064
86	0xbdccc7c9	-0.099990435
87	0xbd993e96	-0.074826404
88	0x3bc8bbf3	0.006125921
89	0x3db08f2d	0.086210586
90	0x3dc6a6c5	0.096997775
91	0xbdf35f86	-0.11883454
92	0x3ca59be1	0.02021593
93	0x3c21bbcf	0.009871437
94	0x3de7fde2	0.11327721
95	0xbd145fe7	-0.036224272
96	0xbddc01ea	-0.107425526
97	0x3dca32b0	0.09872949
98	0x3d9be5cb	0.07612189
99	0x3d6c4c31	0.05768985
100	0xbdcffd96	-0.101557896
101	0xbd1cb115	-0.038254816
102	0xbd2c8fa6	-0.04212918
103	0xbd0a783f	-0.03380608
104	0x3dbe232f	0.092840545
105	0x3d71066a	0.058844008
106	0xbc8ff032	-0.017570589
107	0x3c509a4b	0.012732099
108	0x3d9c7611	0.07639707
109	0xbd9ce974	-0.07661715
110	0xbde15041	-0.11001635
111	0x3caf9a83	0.021435982
112	0xbde25787	-0.11051851
113	0xbcc322b3	-0.023820257
114	0x3d523442	0.05131937
115	0xbe27c6c6	-0.1638442
116	0xbd188ce9	-0.037243757
117	0x3d5d387b	0.054008942
118	0xbde5a637	-0.112133436
119	0x3de17ca1	0.11010099
120	0x3e0350d9	0.1282381
121	0x3d9ee4b7	0.07758468
122	0x3d16f621	0.03685582
123	0xbd83af5d	-0.06429932
124	0x3b23f7ca	0.002501952
125	0x3db1a841	0.0867467
126	0x3c91d9f1	0.017804118
127	0x3cbfddcf	0.023421196
128	0x3ca6ed73	0.020376896
129	0xbd7db54b	-0.061940473
130	0xbdc1c5f2	-0.09461583
131	0xbe0541f1	-0.13013436
132	0x3df1e89c	0.11811945
133	0x3ddde5ff	0.10834884
134	0xbdf570f8	-0.11984438
135	0x3e276b6b	0.1634957
136	0x3d5567de	0.05210101
137	0xbce7eb0c	-0.028310321
138	0x3a4ac1f7	0.00077345915
139	0xbd793208	-0.06083873
140	0x3d6a9ad4	0.05727656
141	0x3da15e7a	0.07879348
142	0xbd620064	-0.055176154
143	0xbdde1224	-0.10843304
144	0x3dd669f4	0.10469428
145	0xbd8bb025	-0.06820706
146	0x3d7e126e	0.062029295
147	0xbdc4b36a	-0.09604533
148	0x3bc00830	0.005860351
149	0xbdbb47a0	-0.09144521
150	0xbd6dde99	-0.058073614
151	0xbdbd1925	-0.092333116
152	0xbd7eaa9c	-0.062174425
153	0xbdb67a15	-0.08910004
154	0xbdd54812	-0.10414137
155	0x3da78e14	0.08181396
156	0xbe0a4eea	-0.13506666
157	0x3d684d8e	0.056714587
158	0xbd2ab1d1	-0.041673485
159	0x3c8783fb	0.016542425
160	0xbdeda979	-0.1160459
161	0xbc67ac11	-0.014140145
162	0x3d4f19f2	0.050561853
163	0x3e16159f	0.14656685
164	0xbd8b806b	-0.06811603
165	0x3def8fba	0.116973355
166	0xbe0081d2	-0.12549523
167	0x3d979578	0.07401556
168	0xbdbdb1aa	-0.09262402
169	0xbdc5e6f0	-0.096631885
170	0xbd8fa7a4	-0.07014397
171	0xbc2880be	-0.010284601
172	0x3d0685c3	0.03284241
173	0x3db8675d	0.0900409
174	0xbe1d74de	-0.15376613
175	0x3d946759	0.072462745
176	0xbdf8834b	-0.12134417
177	0xbcfec0ad	-0.031097734
178	0xbd834591	-0.06409753
179	0x3e06761a	0.1313099
180	0x3c44503a	0.011982018
181	0xbd7a0ed0	-0.061049283
182	0xbd85b293	-0.06528201
183	0xbd1b4679	-0.037909005
184	0x3e00fde9	0.12596859
185	0x3cd2978e	0.025707033
186	0x3e250fb1	0.16119267
187	0x3d86bd60	0.06579089
188	0xbcd710b1	-0.026253076
189	0xbdd53010	-0.10409558
190	0x3d6e2032	0.058136173
191	0xbd6cdfd9	-0.057830665
192	0xbda12d0f	-0.07869922
193	0x3d98d735	0.074629225
194	0x3d459d7e	0.0482459
195	0xbda39d6e	-0.07989012
196	0x3c0fca42	0.008776249
197	0x3d8eff58	0.06982297
198	0x3d6c818d	0.057740737
199	0x3d98039a	0.07422562
200	0x3d5fe73c	0.05466388
201	0x3e0acb74	0.13554174
202	0x3dd752c9	0.10513837
203	0x3d31ec00	0.043437958
204	0xbe04f6f2	-0.12984827
205	0xbd8d3dbc	-0.068965405
206	0xbdd87575	-0.10569278
207	0xbd8dfeb5	-0.06933347
208	0xbe027418	-0.12739599
209	0x3d5cf780	0.053946972
210	0x3de61382	0.112341896
211	0x3db4059c	0.087901324
212	0xbd6580f5	-0.056031186
213	0x3b12f4bc	0.0022423705
214	0x3dce0873	0.10060205
215	0x3d402367	0.046908762
216	0x3da360a5	0.07977418
217	0xbd957457	-0.07297581
218	0x3d96ed98	0.07369536
219	0xbb39651f	-0.0028289033
220	0xbdab56a3	-0.08366134
221	0x3dcdf5b1	0.100566275
222	0xbdaa6092	-0.083192006
223	0xbe26c3da	-0.16285649
224	0xbe010b85	-0.1260205
225	0x3d11f7ea	0.03563682
226	0x3b8799d6	0.0041382117
227	0x3ab7ae08	0.0014013657
228	0x3db55ec1	0.088559635
229	0x3d1d1327	0.038348343
230	0x3c0b5502	0.008504154
231	0xbd19487c	-0.037422642
232	0x3da6efec	0.0815123
233	0xbd95b7de	-0.073104605
234	0x3cb87e29	0.022521095
235	0xbd532300	-0.05154705
236	0xbd8ae0cc	-0.06781158
237	0xbe157ec7	-0.14599143
238	0xbceffa7d	-0.029294247
239	0x3d9fac68	0.07796556
240	0xbdcd6ee2	-0.10030915
241	0xbe1dd5bc	-0.15413564
242	0x3ca76f18	0.020438716
243	0x3dbe58cd	0.09294281
244	0x3d9ba519	0.07599849
245	0xbd08a8d6	-0.03336414
246	0x3e16c875	0.14724906
247	0xbd392494	-0.0452009
248	0xbdf2784d	-0.11839352
249	0x3d582832	0.05277271
250	0x3d934b4a	0.071920946
251	0x3cf6ab03	0.030110842
252	0xbd0821f7	-0.033235516
253	0x3d675c66	0.056484602
254	0xbc9b9cdc	-0.018995695
255	0x3d4e6d41	0.05039716

lstm.weight_hh_l0 f4 [256, 64]
0	0x3a12ee1c	0.0005604939
1	0x3d401313	0.04689319
2	0x3db12d15	0.08651177
3	0x3e234d4a	0.15947452
4	0xbd048415	-0.032352526
5	0xbe0ce44c	-0.13758963
6	0x3d7cf383	0.06175567
7	0x3bbe7c16	0.005813132
8	0x3d0315c6	0.032003187
9	0xbd278b00	-0.040904045
10	0x3dbcb490	0.09214127
11	0xbd8d45e7	-0.068980984
12	0xbd6b21fb	-0.057405453
13	0xbd8f2737	-0.069899015
14	0xbd9194bb	-0.07108446
15	0xbcc257af	-0.023723451
16	0xbdce4ef0	-0.1007365
17	0xbd048112	-0.032349654
18	0x3d89d6fa	0.06730457
19	0xbe33e6ba	-0.17568484
20	0x3c1623d6	0.009163817
21	0xbdf2ca24	-0.118549615
22	0x3adda5ae	0.0016910338
23	0x3e0b7c15	0.13621552
24	0xbe087627	-0.13326322
25	0xbd1bd202	-0.038042076
26	0x3bf00891	0.00732524
27	0x3ad65bbe	0.0016354246
28	0xbe05edc5	-0.13078983
29	0xbc2ad313	-0.010426301
30	0xbe040be4	-0.12895161
31	0x3d3179a7	0.043328907
32	0x3afcbbe2	0.0019282068
33	0xbdd1f1dc	-0.10251209
34	0x3e1cf2a4	0.15326935
35	0xbd3e1ad6	-0.04641231
36	0x3cffe26c	0.031235896
37	0xbddc6597	-0.10761564
38	0x3d9505a9	0.0727647
39	0x3cdc7f99	0.026916312
40	0xbd2bcdf5	-0.041944463
41	0x3da94ebc	0.082669705
42	0xbd9c53cf	-0.07633173
43	0xbe2709c6	-0.16312322
44	0x3d8b539b	0.06803056
45	0xbce716c0	-0.02820909
46	0xbb9b2e2f	-0.00473573
47	0xbd9c1fd1	-0.07623256
48	0x3d4d9cf6	0.050198518
49	0xbd267810	-0.040641844
50	0xbdf365f2	-0.11884679
51	0x3bcecea5	0.006311255
52	0x3e05c9f6	0.13065323
53	0xba98f90a	-0.0011670899
54	0xbdc7f621	-0.09763742
55	0xbe0be541	-0.13661672
56	0xbd0eb349	-0.03483895
57	0xbbfe5b4b	-0.007762348
58	0x3cfda2e1	0.030961456
59	0x3e00d7b0	0.12582278
60	0x3d8c4dc0	0.06850767
61	0x3dc925cb	0.098216616
62	0x3b47e520	0.003050156
63	0xbd8bbfb5	-0.068236746
64	0x3daf3a23	0.085560106
65	0x3daa188c	0.08305463
66	0x3da40d0a	0.080102995
67	0xbc0eb146	-0.0087092575
68	0xbcd6d2bc	-0.026223533
69	0x3d7265af	0.059179004
70	0x3e50d8a2	0.20395139
71	0xbde6ada7	-0.1126359
72	0x3e0be936	0.13663182
73	0xbd6e10a7	-0.05812135
74	0x3df7123d	0.120640256
75	0xbd3bca5c	-0.04584728
76	0xbd87008c	-0.06591901
77	0xbd756810	-0.059913695
78	0xbd59024a	-0.0529807
79	0xbc87a468	-0.016557887
80	0x3ce66b16	0.028127234
81	0x382f2250	4.1755207e-05
82	0x3c3f8c27	0.01169113
83	0xbcc852f8	-0.024453625
84	0x3d5bf76a	0.05370275
85	0xbe23e954	-0.16006976
86	0xbdc7cdbf	-0.0975604
87	0x3e126756	0.14297232
88	0xbcd89424	-0.026437826
89	0x3d9d80a4	0.07690552
90	0xbe11c494	-0.14235145
91	0x3e1d2cfa	0.15349188
92	0x3d831d2f	0.06402051
93	0xbd3a9398	-0.045550913
94	0xbe08c098	-0.13354719
95	0xbe00b2d9	-0.12568225
96	0xbda84c63	-0.082176946
97	0xbdc98472	-0.09839715
98	0x3d21d5ab	0.03951041
99	0x3e02d931	0.12778164
100	0x3d5f3cf8	0.054501504
101	0xbe1bc56c	-0.15212029
102	0xbd9fdf61	-0.07806278
103	0x3b7d0320	0.00386066
104	0x3e22708d	0.15863247
105	0x3d4bc51b	0.04974852
106	0x3de1136d	0.10990033
107	0xbd05ca4b	-0.032663625
108	0x3c66faa1	0.0140978405
109	0xbd852d04	-0.06502727
110	0x3d5183a6	0.05115094
111	0x3d0e54d8	0.034748882
112	0xbd17ecb5	-0.037090976
113	0x3dbeebad	0.09322295
114	0xbdaa0ced	-0.08303247
115	0xbba8e5ba	-0.0051543387
116	0x3d997410	0.0749284
117	0x3d138c0c	0.03602223
118	0xbc3eb838	-0.011640601
119	0x3d0fd320	0.035113454
120	0xbc9bd45e	-0.019022163
121	0x3cbd7736	0.023128133
122	0x3d833dfb	0.06408306
123	0x3d3c2b71	0.045939866
124	0x3d7f7a10	0.062372267
125	0x3e1be130	0.15222621
126	0xbe2a2d8e	-0.1661894
127	0x3c3bb026	0.011455571
128	0x3d2819da	0.04104028
129	0xbd3f8bf6	-0.046764337
130	0x3ddf5667	0.10905152
131	0xbcf3cd5a	-0.029761005
132	0x3d8feb71	0.07027329
133	0xbc4c7496	-0.012478968
134	0x3b2604ab	0.0025332372
135	0x3bfc8ffd	0.0077075944
136	0x3e2c65e1	0.16835739
137	0xbbe02bf8	-0.006841179
138	0x3c6b2898	0.01435294
139	0xbdaff8cd	-0.08592377
140	0xbdf55e11	-0.11980832
141	0x3d37d344	0.044879213
142	0x3d8a1c6c	0.06743702
143	0xbdd86502	-0.10566141
144	0xbb4fad48	-0.0031688977
145	0x3cca7cdd	0.024717743
146	0x3ce8b65b	0.028407266
147	0x3c7c7fc4	0.015411321
148	0xbdf71f0c	-0.120664686
149	0xbd93bae7	-0.07213383
150	0xbde169da	-0.11006518
151	0x3d8bac3c	0.068199605
152	0x3ca33de3	0.01992697
153	0xbcf81fb7	-0.03028856
154	0xbd9e1a98	-0.07719916
155	0x3e1d5fc9	0.1536857
156	0x3db3a137	0.08770984
157	0x3e00c5c7	0.12575446
158	0xb9cc20e0	-0.00038934406
159	0xbbd3f350	-0.006468214
160	0xbce4d972	-0.027935717
161	0x3d54ef1b	0.05198584
162	0x3d824d8e	0.06362449
163	0x3dfc5b2f	0.123220794
164	0xbcf088f4	-0.02936218
165	0xbda3ccec	-0.0799807
166	0xbe138292	-0.14405277
167	0x3dd67f65	0.10473517
168	0x3dcd2299	0.100163646
169	0xbd4e3163	-0.050340068
170	0x3d7f4f7a	0.062331654
171	0x3db4993b	0.08818289
172	0xbd472c4b	-0.048626225
173	0x3d9a6035	0.07537881
174	0xbda3367f	-0.07969379
175	0xbd3a5622	-0.0454923
176	0x3da0de6f	0.07854926
177	0xbcb24aca	-0.021764178
178	0xbd96e231	-0.07367361
179	0x3c372475	0.011178126
180	0xbd23ab84	-0.039958492
181	0xbbab395c	-0.0052253436
182	0xbd7df01a	-0.061996557
183	0x3ced00cd	0.028931046
184	0xbda467c4	-0.08027604
185	0x3dced7c1	0.100997455
186	0x3d1621fb	0.0366535
187	0x3d713736	0.058890544
188	0xbd59f491	-0.053211752
189	0xbd9c3373	-0.07627001
190	0x3c1273a1	0.008938701
191	0x3dbae414	0.09125534
192	0xbc4d1c1c	-0.012518909
193	0xbdad193c	-0.08452079
194	0x3d078c3c	0.033092722
195	0x3e1a28f2	0.15054682
196	0xbd3362bf	-0.043795343
197	0xbd1ebc8f	-0.038754042
198	0x3dd8879f	0.10572743
199	0xbcb52c81	-0.022115948
200	0xbd2fd5c5	-0.042928476
201	0xbc8e366e	-0.017359938
202	0xbd81a451	-0.06330169
203	0xbda25e3e	-0.079281315
204	0xbd74245b	-0.059604984
205	0xbcea3d48	-0.028593674
206	0x3e0650ec	0.13116807
207	0xbc63f4e3	-0.013913366
208	0xbdd2bb37	-0.10289615
209	0xbda0e28f	-0.078557126
210	0x3d375aab	0.044764202
211	0xbe0f440a	-0.13990799
212	0xbe1a739f	-0.15083168
213	0xbca3e8c9	-0.020008462
214	0x3a8221ee	0.0009928325
215	0x39fd48dc	0.00048310205
216	0x3d7a7969	0.061150942
217	0x3d0c7ac9	0.034296785
218	0xbd5809bc	-0.05274366
219	0x3c4340ca	0.011917302
220	0xbdd0399a	-0.101672366
221	0x3ddf7548	0.109110415
222	0x3ba4b36a	0.0050262706
223	0xbdb7d726	-0.08976583
224	0xbe3457ec	-0.17611665
225	0xbccbc1eb	-0.02487274
226	0x3c4e50ee	0.012592537
227	0xbcfcd038	-0.030861005
228	0x3d268963	0.040658366
229	0xbe2d6dc2	-0.169364
230	0xbd4fa765	-0.05069675
231	0x3c4c7569	0.012479165
232	0xbc2e4791	-0.01063718
233	0xbb264900	-0.0025373101
234	0xbc76cf9e	-0.015064148
235	0x3d4caa39	0.049967024
236	0xbdf43e8c	-0.11925992
237	0x3cd24a0e	0.025670078
238	0xbddf08e6	-0.10890369
239	0x3dd68145	0.10473875
240	0xbd929f33	-0.07159271
241	0xbd7e7762	-0.06212557
242	0xbdb50060	-0.08837962
243	0xbe08d413	-0.1336215
244	0x3dd37af2	0.10326184
245	0xbd03b7ce	-0.03215771
246	0x3d02f74b	0.03197412
247	0xbe1772af	-0.14789842
248	0x3d5decdc	0.054180965
249	0xbe18ff5b	-0.1494116
250	0x3dcba1fc	0.099430054
251	0x3aac5c67	0.0013150097
252	0xbd71680f	-0.05893713
253	0x3c72c889	0.014818319
254	0xbe26097e	-0.16214558
255	0xbd93027f	-0.071782105

lstm.bias_ih_l0 f4 [256]
0	0x3da20225	0.07910565
1	0x3c9f294a	0.019428868
2	0xbd963695	-0.073346294
3	0x3dd4ff21	0.104002245
4	0x3cb70dcc	0.022345446
5	0xbcd9782e	-0.026546564
6	0x3d886a29	0.066608734
7	0xbd9e4a48	-0.07729012
8	0x3d7a3fb5	0.061095912
9	0xbdb5ed5a	-0.08883162
10	0x3bfb7df5	0.0076749274
11	0x3d5889b2	0.05286569
12	0x3d81667e	0.06318377
13	0xbd668607	-0.056280162
14	0x3e02e3e7	0.1278225
15	0xbdd6e0ce	-0.10492097
16	0xbd7a3dde	-0.061094157
17	0xbdbb9f1d	-0.09161208
18	0x3c34f460	0.011044592
19	0x3d875efd	0.066099145
20	0x3daa02b5	0.083012976
21	0x3d81281c	0.063064784
22	0x3db85df3	0.090022944
23	0x3d898624	0.067150384
24	0x3e06e5bb	0.13173573
25	0xbd945488	-0.072426856
26	0x3a9fc4b1	0.0012189356
27	0x3b8b5af6	0.0042527867
28	0xbbce26ea	-0.00629126
29	0x3d3a4dce	0.045484357
30	0x3d0b51a1	0.034013394
31	0x3dd41f66	0.10357551
32	0x3de71e88	0.1128512
33	0xbae099c3	-0.0017135668
34	0x3d9c7836	0.07640116
35	0xbbf2d112	-0.007410177
36	0x3ca6d624	0.020365782
37	0x3d8fef29	0.07028038
38	0x3d8d3c5e	0.0689628
39	0xbd853031	-0.065033324
40	0x3cf1e165	0.029526422
41	0x3d11ec49	0.03562573
42	0x3d254218	0.040346235
43	0xbd358008	-0.044311553
44	0xbbf84679	-0.0075767604
45	0x3c7ffade	0.015623776
46	0xbd873239	-0.06601376
47	0x3e03fe6e	0.12890026
48	0xbd3b63fa	-0.045749642
49	0xbbdc4e58	-0.0067232065
50	0x3ddcc2f3	0.10779371
51	0xbbe0aa8f	-0.0068562697
52	0xbdde1c07	-0.108451895
53	0x3da6227a	0.08112045
54	0x3c0d2da2	0.008616837
55	0x3e26fb5d	0.16306825
56	0x3d8f85a7	0.07007914
57	0x3e168c89	0.14702047
58	0xbd6c3849	-0.057670865
59	0x3d8c0180	0.068362236
60	0x3e1a5ee6	0.15075263
61	0xbd326b95	-0.04355963
62	0xbd8c7220	-0.06857705
63	0xbdc1f374	-0.09470263
64	0xbdf4483d	-0.11927841
65	0xbdcf67cd	-0.1012722
66	0x3b52ece8	0.0032184664
67	0x3d21ff55	0.039550144
68	0x3dc9c73e	0.098524556
69	0xbd9612b3	-0.07327785
70	0x3d5fe77c	0.05466412
71	0x3dcda76a	0.10041697
72	0x3d9c1525	0.076212205
73	0x3d7e6e6d	0.06211703
74	0x3d6d7e2b	0.05798165
75	0x3dcfd706	0.10148434
76	0xbd0d7d32	-0.034543224
77	0x3df47d82	0.11938001
78	0xbd721072	-0.059097715
79	0xbbe0d5e7	-0.0068614366
80	0x3e300dd0	0.17192769
81	0xbd077065	-0.033066172
82	0xbb4500de	-0.0030060331
83	0x3d83436c	0.06409344
84	0xbca71e08	-0.020400062
85	0x3d525e98	0.051359743
86	0x3df665ed	0.120311595
87	0x3daebae6	0.08531742
88	0x3cd2587b	0.025676956
89	0xbdcfb4a6	-0.10141878
90	0x3cf9c97d	0.030491585
91	0xbdc4eb4c	-0.09615192
92	0x3c8e173b	0.017345062
93	0x3b2e249e	0.0026572119
94	0x3dab4059	0.08361883
95	0x3da14ddd	0.07876179
96	0x3ced2ea1	0.028952898
97	0xbd31b1f3	-0.043382596
98	0x3e299c80	0.16563606
99	0xbdaec089	-0.08532817
100	0xbcbf6d19	-0.023367452
101	0x3c62c8f3	0.013841855
102	0xbcc1a5da	-0.023638655
103	0x3e0dd89a	0.13852158
104	0xbcfb6562	-0.030687992
105	0x3daa4826	0.083145425
106	0x3e0cf69f	0.13765953
107	0x3d37bb5f	0.044856425
108	0x3dff02dd	0.12451718
109	0x3cd89d98	0.026442334
110	0xbd810913	-0.06300559
111	0x3d762d4b	0.06010179
112	0x3daf540f	0.08560955
113	0xbdd2097e	-0.10255717
114	0xbd186773	-0.037208032
115	0x3e16cde5	0.1472698
116	0x3de34a8b	0.11098202
117	0xbc43ef28	-0.011958875
118	0x3e2c71c1	0.16840269
119	0x3dc169d1	0.09444011
120	0x3dbbe01a	0.09173603
121	0xbcf8c703	-0.030368334
122	0xbd99d623	-0.075115465
123	0x3b412088	0.0029468853
124	0x3d2b454e	0.04181414
125	0xbc07c10a	-0.00828577
126	0xbda7e66b	-0.081982456
127	0x3cba8823	0.022769993
128	0x3cfdbb8e	0.030973222
129	0xbdbee7fb	-0.093215905
130	0xbd5d2e9c	-0.05399953
131	0x3c8f9d9d	0.01753121
132	0xbdc5375d	-0.096297
133	0xbde3d9b7	-0.1112551
134	0x3d721253	0.059099507
135	0xbd5486a8	-0.05188623
136	0x3d605e93	0.054777693
137	0xbdf07028	-0.11740142
138	0xbdb86f66	-0.090056226
139	0x3c6f018f	0.014587774
140	0x3e09f11f	0.13470887
141	0x3d88fd01	0.06688882
142	0x3c5894b4	0.013219047
143	0x3db93cb7	0.090447836
144	0x3d45b6c3	0.04827
145	0x3db27945	0.087145366
146	0x3dc74243	0.09729435
147	0xbcf98b7c	-0.03046202
148	0x3d9d85c8	0.076915324
149	0xbd987e19	-0.07445926
150	0xbc1492f6	-0.009068241
151	0x3dcca7e5	0.09992961
152	0xbbd4a675	-0.00648957
153	0x3c33ebbd	0.010981497
154	0x3ca2072e	0.019778814
155	0x3d38f969	0.04515973
156	0xbde9fff9	-0.11425776
157	0x3d584b11	0.052805964
158	0xbd0cab61	-0.034343127
159	0x3b2410f3	0.0025034517
160	0x3d9b4f90	0.07583535
161	0xbdbb9723	-0.091596864
162	0xbe06219c	-0.13098758
163	0x3da17c1b	0.07884999
164	0xbc613d46	-0.013747519
165	0x3d46ce11	0.048536364
166	0xbc805982	-0.01566768
167	0x3d8bc8fb	0.06825443
168	0x3d0f36e5	0.03496446
169	0x3e1181f7	0.14209734
170	0xbcd56a18	-0.026051566
171	0xbd9a2dc9	-0.07528264
172	0xbe0468e6	-0.1293064
173	0xba304d18	-0.0006725355
174	0xbdeae36a	-0.11469157
175	0xbc7ed0d1	-0.015552715
176	0x3d92f874	0.07176295
177	0xbd40a5dc	-0.047033176
178	0xbe0cb33d	-0.13740249
179	0xbe231e25	-0.15929468
180	0xbd359d9f	-0.044339772
181	0xbcd017e2	-0.025402013
182	0x3d291ab4	0.04128523
183	0xbdab6bb3	-0.08370151
184	0x3de7f92b	0.11326822
185	0xbda45191	-0.0802337
186	0x3d82b9bd	0.06383083
187	0x3dbfcdbb	0.09365412
188	0xbda4cddc	-0.08047077
189	0x3dda73db	0.10666629
190	0xbdfa1c6b	-0.122124515
191	0x3dcc931c	0.099889964
192	0x3c286d95	0.010280033
193	0xbcdf8da1	-0.027289214
194	0x3d8a8f70	0.0676564
195	0x3d61b591	0.055104796
196	0x3c0c5ec2	0.008567514
197	0x3da20ef5	0.07913009
198	0x3e173428	0.1476599
199	0x3e0b7904	0.13620383
200	0xbdb9e7d1	-0.090774186
201	0x3cae9b16	0.021314185
202	0x3df08213	0.1174356
203	0x3d2e890d	0.04261117
204	0x3dfd525c	0.123692244
205	0xbd1598a0	-0.036522508
206	0xbd1f3538	-0.038869113
207	0xbd2f1a0d	-0.042749453
208	0x3dce7966	0.10081749
209	0xbd801307	-0.06253629
210	0x3d18b30b	0.037280124
211	0xbd1523eb	-0.036411207
212	0xbc39f2a0	-0.01134935
213	0xbdc24dbf	-0.09487485
214	0xbc1e6e34	-0.009669829
215	0x3df8f869	0.121567555
216	0x3c2fa9d7	0.010721645
217	0xbc2d518b	-0.010578523
218	0x3da72a40	0.081623554
219	0x3cb4350b	0.02199795
220	0x3d9f3499	0.07773704
221	0xbd1b0f2c	-0.037856266
222	0xbdb7e507	-0.089792304
223	0xbdb7cfa4	-0.08975151
224	0x3c884e9d	0.016639048
225	0x3e046e78	0.12932765
226	0x3e1ca088	0.15295613
227	0xbd0ead8b	-0.034833472
228	0x3d9051d9	0.07046861
229	0x3dd72319	0.10504741
230	0x3df6d6dc	0.120527
231	0x3d3dcba6	0.046336792
232	0x3e1c8615	0.15285523
233	0x3d5a184f	0.05324584
234	0x3d70352b	0.058644455
235	0xbcf6549a	-0.030069638
236	0xbda4dced	-0.08049951
237	0x3dd428f8	0.10359377
238	0x3de2e65a	0.11079092
239	0x3d8c2c51	0.0684439
240	0xbcee123b	-0.029061427
241	0x3e06eb94	0.13175803
242	0xbc5c7249	-0.013454982
243	0x3cb714b0	0.022348732
244	0xbc6907e4	-0.014223073
245	0x3d8e192b	0.06938394
246	0xbca3c8d5	-0.019993225
247	0x3c63ca94	0.013903279
248	0x3c28b92f	0.010298057
249	0x3e35e88b	0.1776449
250	0x3cdbf853	0.026851809
251	0x3d547071	0.051865045
252	0xbc993208	-0.018700615
253	0xbdc14cef	-0.09438502
254	0x3e0277bf	0.12740992
255	0x3d5a5415	0.053302843

lstm.bias_hh_l0 f4 [256]
0	0x3d7bc2b1	0.06146497
1	0xbd045e70	-0.032316625
2	0xbd388b00	-0.045054436
3	0xbc23548d	-0.009968889
4	0xbcf82361	-0.030290307
5	0x3e041936	0.12900242
6	0xbd77a7a7	-0.06046262
7	0x3da48a74	0.0803422
8	0x3d84bb54	0.064810425
9	0x3d5f4cc2	0.05451656
10	0x3dd0fc3e	0.102043614
11	0xbd78a045	-0.06069972
12	0x3d391832	0.04518909
13	0x3af85ed0	0.0018949155
14	0x3d9cfb7f	0.076651566
15	0x3d63d702	0.05562497
16	0xbc6e9dcd	-0.01456399
17	0xbd538d83	-0.051648628
18	0xbd071117	-0.032975283
19	0x3dcabe2b	0.09899553
20	0xbd2fdc74	-0.04293485
21	0xbc00f3d7	-0.007870636
22	0x3dd1709f	0.10226559
23	0x3dfb78f1	0.12278927
24	0x3d4ed524	0.050496235
25	0xbd389ca4	-0.04507126
26	0xbbfff475	-0.007811124
27	0xbdca0250	-0.09863722
28	0x3d560405	0.052249927
29	0x3d0bb7b0	0.034110725
30	0x3d8f7c2d	0.070061065
31	0x3dbaf21e	0.091282114
32	0xbd15ee0c	-0.036603972
33	0x3dd1a780	0.10237026
34	0x3d944e50	0.072414994
35	0x3c5219c5	0.012823527
36	0x3ca8144c	0.02051749
37	0x3db038e3	0.086046
38	0x3d894800	0.06703186
39	0x3dfabc7f	0.12242984
40	0x3d4c7464	0.049915686
41	0x3cc6b96d	0.02425834
42	0xbd74522e	-0.059648685
43	0xbd85e1f0	-0.06537235
44	0x3dd16b0a	0.10225494
45	0x3d9ccc27	0.076561265
46	0x3d410861	0.04712713
47	0x3df54177	0.11975377
48	0x3c682ecc	0.0141713135
49	0xbcf27e76	-0.029601317
50	0x3e1a46f9	0.15066136
51	0xbd4bf4b0	-0.0497939
52	0x3d97d3bf	0.07413434
53	0x3e01af29	0.12664475
54	0x3c96abd1	0.018392475
55	0x3d7a6f66	0.061141394
56	0x3e10cf77	0.14141642
57	0xbd16f2e2	-0.036852725
58	0x3e0a72c1	0.13520338
59	0x3d79cb1e	0.060984723
60	0x3d0ef869	0.03490487
61	0x3d41a24d	0.047273923
62	0xbd48e78e	-0.049048953
63	0x3dedc1f8	0.11609262
64	0xbdbb1796	-0.09135358
65	0x3d7a8c0c	0.061168715
66	0x3d890f1f	0.06692337
67	0x3d9baf26	0.07601766
68	0x3d8b66e6	0.06806736
69	0x3d39c5e0	0.045354724
70	0xbda0ba08	-0.07847983
71	0x3df6fd65	0.1206005
72	0x3d905f0b	0.07049378
73	0x3d4501c2	0.04809738
74	0xbd75dfb7	-0.060027804
75	0xbccc4d88	-0.024939314
76	0x3d9d4493	0.07679095
77	0x3d42ae4a	0.047529496
78	0x3dbec1eb	0.09314331
79	0x3d101f53	0.035186123
80	0xbbff849c	-0.0077977907
81	0xbd3c3031	-0.045944396
82	0xbd722794	-0.059119776
83	0xbd898b7f	-0.0671606
84	0xbd170832	-0.03687305
85	0x3c17fb99	0.009276294
86	0x3e04d3b0	0.12971377
87	0xbd1f84de	-0.03894507
88	0x3d31f1df	0.043443557
89	0xbd97d612	-0.074138775
90	0x3e3414cb	0.17586057
91	0x3d1f8be4	0.03895177
92	0xbdb62403	-0.088935874
93	0xbc5fd17b	-0.013660784
94	0x3c749afa	0.014929527
95	0x3d08c068	0.033386618
96	0x3dd95740	0.10612345
97	0xbd19a7b8	-0.037513465
98	0xbd821796	-0.06352155
99	0x3da97437	0.08274119
100	0xbd915ecc	-0.07098159
101	0xbc52e6b8	-0.01287239
102	0x3d786ccd	0.060650636
103	0x3c2324e9	0.009957531
104	0x3db995b2	0.09061755
105	0x3c5913c6	0.013249343
106	0xbb7fcdd1	-0.0039032588
107	0x3dc93921	0.098253496
108	0xbdcf79b2	-0.101306334
109	0x3d0d7962	0.034539588
110	0x3d8597d7	0.06523102
111	0xbd02705f	-0.031845447
112	0x3e16c40e	0.14723226
113	0x3b963a8e	0.004584617
114	0xbd2586a1	-0.040411595
115	0x3de19f6b	0.11016735
116	0x3de16287	0.11005121
117	0x3d72c867	0.05927315
118	0x3d053741	0.032523397
119	0x3d2ccc6d	0.042187143
120	0x3e139230	0.14411235
121	0x3d4e217f	0.050324913
122	0x3be24def	0.006906263
123	0xbd03ddff	-0.032194134
124	0x3c03d5be	0.008046566
125	0xbdea2464	-0.11432722
126	0x3d12984c	0.035789773
127	0x3e1d7faa	0.15380731
128	0x3d6ccc30	0.057811916
129	0x3d9c5dfc	0.076351136
130	0xbcb31d4b	-0.021864554
131	0x3d815771	0.06315506
132	0xbd4b7465	-0.04967155
133	0xbce41a45	-0.027844558
134	0xbcab1d40	-0.02088797
135	0xbddd0f8e	-0.107939824
136	0xbc06dcbf	-0.008231341
137	0xbded3a8c	-0.115834326
138	0x3dfa9f2e	0.12237392
139	0x3dd55e98	0.10418433
140	0x3def6fe3	0.116912626
141	0xbce3184a	-0.027721543
142	0xbcd1ac08	-0.025594726
143	0xbd792c80	-0.060833454
144	0xbdde5211	-0.10855497
145	0xbd94f5c7	-0.07273441
146	0xbdb2f080	-0.08737278
147	0xbdefdd8b	-0.11712178
148	0xbdeb1462	-0.11478497
149	0xbc8e6ffb	-0.01738738
150	0x3d116ff9	0.035507176
151	0xbd5799a9	-0.052636776
152	0xbc05c826	-0.008165395
153	0x3c5393dd	0.012913671
154	0xbb86ed79	-0.0041176644
155	0x3be4d070	0.0069828555
156	0x3d41b529	0.04729191
157	0xbcc23e45	-0.023711333
158	0xbd18e7b5	-0.037330348
159	0xbdabdcb2	-0.08391704
160	0xbdfaee6d	-0.12252507
161	0x3d71cd95	0.05903395
162	0xbc9f21ed	-0.019425357
163	0x3b78dd66	0.003797376
164	0x3d39ad1c	0.045331106
165	0xbdd990e0	-0.10623336
166	0xbdbbbfc1	-0.091674335
167	0xbdb2f751	-0.08738578
168	0x3ca0aa48	0.019612446
169	0x3dc4dc6c	0.09612355
170	0x3d59f600	0.05321312
171	0x3db5ed85	0.08883194
172	0x3d8e1bb0	0.06938875
173	0xbd9fa681	-0.0779543
174	0xbdc57fde	-0.09643529
175	0x3d45f842	0.04833246
176	0xbd551eea	-0.052031435
177	0x3d6c5ba6	0.05770459
178	0x3d5a4d88	0.053296596
179	0xbd5c9916	-0.05385693
180	0xbb7be4a4	-0.003843584
181	0x3cb0d098	0.02158384
182	0x3d6f152c	0.0583698
183	0xbdbc6f7f	-0.09200954
184	0xbdac8571	-0.084238894
185	0xbc02712e	-0.007961554
186	0x3a723a74	0.00092402776
187	0x3b4a6937	0.0030885467
188	0xbbd34b35	-0.0064481744
189	0x3db0a848	0.08625847
190	0x3d50df2a	0.050994076
191	0xbdde4b1a	-0.10854168
192	0xbcd4fff6	-0.026000958
193	0xbd64d85b	-0.055870395
194	0xbd22fe47	-0.03979328
195	0x3cca99e9	0.024731593
196	0xbd4ec79e	-0.05048334
197	0x3dfdca94	0.12392154
198	0xbcde8f2b	-0.027167877
199	0x3db46f98	0.08810347
200	0x3c342dd7	0.010997257
201	0x3e0d2a40	0.13785648
202	0xbd785b98	-0.060634226
203	0x3d96d8cb	0.07365569
204	0x3ca94e53	0.02066723
205	0xbd11c60e	-0.03558927
206	0x39697f7c	0.00022268103
207	0xbd96d776	-0.07365315
208	0x3daf7922	0.08568026
209	0x3d0efbf3	0.034908246
210	0xbc859870	-0.01630804
211	0xbd10feec	-0.035399362
212	0x3db8611d	0.09002898
213	0x3e02f984	0.12790495
214	0x3df5d3e3	0.12003305
215	0xbd8b4d06	-0.068018004
216	0x3df47f50	0.119383454
217	0xbb10ab4c	-0.0022074757
218	0x3ddfcd32	0.1092781
219	0x3dd74b16	0.105123684
220	0x3d20f576	0.03929659
221	0x3d3e1ab0	0.04641217
222	0x3dfd2997	0.12361448
223	0x3cd096c4	0.025462516
224	0x3c43bc81	0.011946798
225	0xbd5f45ed	-0.054510046
226	0x3e1ac09a	0.15112534
227	0xbd9b9239	-0.07596249
228	0xbcab6061	-0.02091998
229	0x3e0ca6e7	0.13735543
230	0x3d5c0198	0.053712457
231	0xbcfc2aad	-0.030782068
232	0x3e05e2ed	0.13074847
233	0xbc250f76	-0.010074487
234	0x3cb86e6a	0.022513587
235	0x3caa69e5	0.020802448
236	0x3d1cb6db	0.038260322
237	0xbbd2b3ad	-0.0064301104
238	0xbd77d08c	-0.06050162
239	0x3e0016f7	0.1250876
240	0xbcdb5f5c	-0.02677887
241	0x3dfbe07c	0.12298676
242	0xbd18fa2c	-0.037347957
243	0xbca06966	-0.019581508
244	0xbc4a0a07	-0.012331492
245	0x3d0059a7	0.0313355
246	0x3e199cc4	0.15001208
247	0xbd2f076a	-0.04273168
248	0x3cdc8035	0.026916603
249	0xbc529dc6	-0.012854999
250	0xbcd3d8b7	-0.025860174
251	0xbc5ce38a	-0.013481984
252	0x3df4bc92	0.119500294
253	0xbd0530ea	-0.03251735
254	0xbd5a9464	-0.053364173
255	0xbaf592b8	-0.0018735742

fc.weight f4 [8, 64]
0	0xbdf9d921	-0.12199617
1	0x3e0f23df	0.13978527
2	0xbe27e82b	-0.16397159
3	0x3dd4fe64	0.10400084
4	0x3d9e7f19	0.07739086
5	0xbdf335cb	-0.118754946
6	0x3c500900	0.012697458
7	0xbe1ce3e5	-0.1532131
8	0xbdce7f2b	-0.10082849
9	0xbe0a6ea1	-0.13518764
10	0x3e2d0809	0.16897596
11	0x3e241dc6	0.16026983
12	0x3d8e89ad	0.06959853
13	0x3df26235	0.11835138
14	0x3e1b676b	0.1517617
15	0x3d7149fe	0.058908455
16	0xbe096779	-0.13418378
17	0x3c16d885	0.009206896
18	0x3e29364f	0.16524623
19	0x3e2087d2	0.15676811
20	0xbde76b4f	-0.11299764
21	0x3dc8194e	0.097704515
22	0x3cae6ce3	0.021292156
23	0x3e35c1f0	0.17749763
24	0x3dcebb43	0.10094311
25	0x3d9d81d8	0.07690781
26	0x3e730e1f	0.23735856
27	0xbe02396b	-0.12717216
28	0xbe30fdf2	-0.17284372
29	0xbe2e1f3f	-0.17004107
30	0xbe1347cf	-0.14382862
31	0xbbececb0	-0.007230364
32	0xbdd930ba	-0.10604997
33	0xbe2e0553	-0.16994219
34	0xbe2f12f0	-0.17097068
35	0xbc85eda4	-0.016348667
36	0x3b36d0e9	0.0027895516
37	0x3c0ff4a2	0.008786352
38	0xbd13b3cc	-0.03606014
39	0xbd3dc714	-0.046332434
40	0x3e2e1b4a	0.17002597
41	0x3e234b8f	0.15946792
42	0xbdc7b06e	-0.09750448
43	0xbe2ce062	-0.1688247
44	0xbd8d130b	-0.06888398
45	0xbc76a41d	-0.015053776
46	0xbe645e3f	-0.22301577
47	0x3df5883b	0.119888745
48	0x3d47fbab	0.048823994
49	0xbd944439	-0.07239575
50	0xbe4f37a9	-0.20236076
51	0xbdb18ae6	-0.08669071
52	0xbca97b83	-0.020688778
53	0xbdc542bc	-0.09631869
54	0x3db3e27f	0.08783435
55	0xbe24704f	-0.16058467
56	0xbdd5e3df	-0.104438536
57	0xbdce975e	-0.10087465
58	0x3d34d4fc	0.04414843
59	0x3e6f7477	0.23384272
60	0x3e15932c	0.14606923
61	0xbdf757d0	-0.12077296
62	0xbc8f65a3	-0.017504519
63	0x3c0ec666	0.008714294
64	0x3cd3d905	0.025860319
65	0x3c06e4b3	0.008233237
66	0xbe041f90	-0.12902665
67	0xbd12564b	-0.035726827
68	0x3e04a914	0.12955123
69	0xbd06a04a	-0.032867707
70	0xbe2f75da	-0.171348
71	0x3cd24a0b	0.025670072
72	0xbd1dec42	-0.03855539
73	0x3db9c03d	0.0906987
74	0x3c828f63	0.015937513
75	0xbd384bf0	-0.044994295
76	0x3da94d78	0.08266729
77	0x3d91708f	0.07101547
78	0x3c307218	0.01076939
79	0x3dad8dd0	0.08474314
80	0x3bd7b3b1	0.0065827
81	0x3de663d5	0.1124951
82	0x3df05dc9	0.11736638
83	0x3cf79dd3	0.030226624
84	0xbd8c626a	-0.068547085
85	0xbcea2684	-0.028582819
86	0xbd76ac96	-0.060223185
87	0xbdf231ce	-0.11825906
88	0x3dbefba1	0.09325338
89	0x3d0aa711	0.033850733
90	0x3d0fc575	0.03510042
91	0xbdd6f7f7	-0.10496514
92	0x3e2c9535	0.16853793
93	0xbe40e50b	-0.18837373
94	0xbdda2144	-0.10650876
95	0x3e00d672	0.12581804
96	0x3b964f3c	0.004587082
97	0x3d092f73	0.033492517
98	0xbdb9a407	-0.09064489
99	0xbe559190	-0.20856309
100	0x3dbcf280	0.09225941
101	0x3e26ce97	0.16289745
102	0xbe030103	-0.12793355
103	0x3d5a12ed	0.053240705
104	0xbb13cac0	-0.0022551268
105	0x3d5f9e33	0.05459423
106	0xbcd5bebf	-0.026091931
107	0x3d782cfe	0.060589783
108	0x3d04b8b2	0.0324027
109	0x3d176c85	0.036968727
110	0x3d4136e9	0.047171507
111	0x3dc9288d	0.098221876
112	0xbc97859f	-0.018496333
113	0xbe18aae5	-0.14908941
114	0x3de2ca4b	0.110737406
115	0xbdd61a35	-0.10454217
116	0xbe2f3018	-0.1710819
117	0x3d30a12d	0.04312246
118	0x3c99ed54	0.018789925
119	0xbe04dc47	-0.12974654
120	0x3e137e3b	0.14403622
121	0xbe02a1f5	-0.12757094
122	0xbe283dbb	-0.16429798
123	0x3dd419e5	0.103565015
124	0x3ded4116	0.1158468
125	0x3c3d1c4c	0.011542391
126	0x3e44d1a0	0.1922059
127	0x3e4806da	0.19533864
128	0xbe1e2a4a	-0.1544582
129	0xbd10d1bb	-0.035356265
130	0x3c55919e	0.013035206
131	0xbe82901c	-0.25500572
132	0x3e1068ef	0.14102529
133	0x3d9c7dfe	0.076412186
134	0xbdcff085	-0.10153297
135	0x3d8e61e9	0.06952269
136	0xbe770720	-0.24123812
137	0x3dd02a12	0.10164274
138	0xbe7c2c5c	-0.24626297
139	0x3d95d704	0.073164016
140	0xbe2f5f19	-0.1712612
141	0x3e0854a0	0.13313532
142	0xbdf683a8	-0.1203683
143	0xbd819133	-0.06326523
144	0x3e470e84	0.19439131
145	0x3e02ed15	0.12785752
146	0xbd8c9b7d	-0.068655945
147	0x3e692fbc	0.22772115
148	0x3ce41051	0.027839812
149	0x3e3e780d	0.18600483
150	0x3dea5f34	0.1144394
151	0xbe093e98	-0.13402784
152	0x3e1022f6	0.14075837
153	0x3daeea61	0.08540798
154	0xbca8f4a4	-0.020624466
155	0xbd8cb426	-0.06870298
156	0x3e081491	0.13289095
157	0xbe2fee3a	-0.1718072
158	0x3c6e3e2e	0.014541192
159	0x3e0d39d0	0.13791585
160	0x3e5651ac	0.20929593
161	0x3c4d9ff0	0.012550339
162	0x3d434b41	0.04767919
163	0xbe43fd3f	-0.19139574
164	0x3ce30db4	0.027716495
165	0x3e5bb464	0.21455532
166	0x3d01abca	0.03165797
167	0xbe3f7889	-0.18698324
168	0xbe083885	-0.1330281
169	0xbe830b31	-0.25594476
170	0xbd867c90	-0.06566727
171	0x3dfa27f4	0.12214652
172	0x3d90dd1e	0.07073425
173	0x3d48fcda	0.049069263
174	0x3e40aa85	0.18815048
175	0xbe7dc9e7	-0.24784051
176	0xbe0b885d	-0.13626237
177	0xbe6933d7	-0.22773682
178	0x3e2b1645	0.16707714
179	0x3e693568	0.22774279
180	0xbdd83cdc	-0.10558483
181	0x3e4aa474	0.19789296
182	0xbd1aa92d	-0.037758995
183	0x3de474c9	0.111550875
184	0x3d1a807c	0.03772019
185	0x3e34c69d	0.1765389
186	0xbe0bd122	-0.13653997
187	0xbdca7d50	-0.09887183
188	0x3b9b5726	0.0047406135
189	0xbc786532	-0.015160846
190	0x3e0c161f	0.13680314
191	0x3e3e48bd	0.18582435
192	0x3c067538	0.008206658
193	0x3e20a3b9	0.15687455
194	0xbded3e7c	-0.115841836
195	0xbe018242	-0.12647346
196	0x3d97f96c	0.0742062
197	0xbc81dd51	-0.015852602
198	0xbd9a368b	-0.075299345
199	0x3df6c6ad	0.12049613
200	0xbd815bfd	-0.063163735
201	0x3d01448c	0.031559512
202	0xbdadc9d8	-0.08485764
203	0x3e083d11	0.13304545
204	0x3cd71840	0.02625668
205	0x3e777cd9	0.2416872
206	0xbe3487b9	-0.17629899
207	0x3d793e85	0.06085064
208	0x3dd1918a	0.102328375
209	0x3d94d782	0.07267667
210	0x3e069e34	0.13146287
211	0x3e3b7384	0.18305784
212	0x3e1d2b7c	0.15348619
213	0x3e0ef414	0.13960296
214	0x3d36e4a2	0.044651635
215	0xbe15225b	-0.14563887
216	0x3dca045b	0.09864112
217	0x3e64c215	0.22339661
218	0x3d8f49f5	0.06996528
219	0xbd5eb67b	-0.054373246
220	0x3e39c7a7	0.18142568
221	0xbb9601f8	-0.0045778714
222	0x3e24e93d	0.16104598
223	0x3df1a60e	0.117992505
224	0xbd2dc3b4	-0.042422965
225	0xbccec739	-0.025241481
226	0xbd9d28e6	-0.076738164
227	0xbc883b03	-0.016629701
228	0x3e05c5bc	0.13063711
229	0x3dcfb52f	0.1014198
230	0x3e4c76ce	0.19967195
231	0xbe5b4208	-0.21411908
232	0xbcf4bdfd	-0.02987575
233	0xbe29e57d	-0.16591449
234	0xbde2583b	-0.11051985
235	0x3e055d51	0.13023879
236	0x3e39229b	0.18079607
237	0x3e272d87	0.16325961
238	0x3e3692bb	0.1782941
239	0x3cbccacd	0.023045922
240	0xbd951f41	-0.07281352
241	0xbe213088	-0.1574117
242	0x3d26f2ce	0.0407589
243	0x3d7ba791	0.0614391
244	0xbcbbdc5b	-0.022932222
245	0x3db74c04	0.08950046
246	0x3e0cb761	0.13741829
247	0xbd84bd32	-0.06481399
248	0x3dfc7b0b	0.12328156
249	0x3d5e5d75	0.054288346
250	0xbe336faa	-0.17523065
251	0x3d3b16c4	0.045676008
252	0x3d2f5fe1	0.042816047
253	0xbaff913c	-0.0019498239
254	0x3cea3699	0.028590487
255	0x3ce0def0	0.027450055

fc.bias f4 [8]
0	0x3da2a866	0.07942276
1	0x3dfd7134	0.123751074
2	0xbd1774e7	-0.03697672
3	0xbe310c39	-0.17289819
4	0x3ca6de37	0.020369632
5	0x3e1f093d	0.15530868
6	0xbe151ee3	-0.14562564
7	0xbd2380c9	-0.03991774
